HalfCheetah-v2.pt (torch, 24663 bytes, 6 tensors)

fc1.weight f4 [64, 17]
00000000: 71ba 163e 94e4 babe 942e f6bc 313e 823e
00000010: 479b b2bd c031 083f 78a8 b03e cdee ab3e
00000020: f1e6 9e3d af04 433e c642 0b3d ab1c a23d
00000030: fb7a 053e e1e5 90bc 158e 5b3c ac51 ffbc
00000040: eb16 24bd 1337 8d3d 96be 233e 2e08 13bd
00000050: 1c38 a3be 26c0 fdbd 4456 4bbd 4efd 0a3f
00000060: 4307 f43d 7e33 7dbc eb1f b93d f325 c43e
00000070: 3e73 69be bb1a fbbb 31c8 81bd 4ca7 bd3d
00000080: 83bd f63d a593 b8be 34cb e2bb d57c 39bf
00000090: 85ed 5b3e 9f21 45be 4544 523e b0a0 683b
000000a0: 3ff6 bf3e 942c a2be d057 883e b954 f9be
000000b0: f435 aa3c c1f7 053e c47d 82be 8c72 723c
000000c0: dfe4 25be 26fd 69be 4086 41be c7fa 3abd
000000d0: 4a30 2f3e 12e8 49be 32ce d83d 76aa 393d
000000e0: 854d 82be 6f7b 0ebf 012a f53d e5ee 853b
000000f0: 4ac4 d2be eef0 6d3e ab0b f23d 69bd 7b3e
00000100: 7592 843d 91a5 66bd fad5 933d 32ab d03c
00000110: 94ab d4be 2b9a 5ebe 0d89 d63e 33e0 593e
00000120: 1e13 e53d bba9 5b3e a194 acbe 9889 bb3d
00000130: ea9c 533d 1509 013f d530 b5be c641 173d
00000140: 4ac7 8bbe cbd4 dabd f6af dbbb 0677 edbd
00000150: a47c a43e 0f51 b83d c9f8 95be 4877 c13b
00000160: 3e72 93be fec9 cebc 9d24 1ebe 45a5 f2be
00000170: e0c0 14be cf4a 05be daf4 04bf 0635 3bbd
00000180: 0a8c 883d 9b6b 4b3d f65b eabd d317 90bd
00000190: c1e2 ce3d c8fc 87bd 4b31 4b3e 56b5 5e3d
000001a0: 0878 88be d2cd d7be bbc6 063e ce56 23bd
000001b0: dfb3 cb3d fa9f 333e 7542 a13d 2bac 973d
000001c0: 0770 e43e 2b79 aebe 3d1d febd aac0 483e
000001d0: 1586 4f3e 8a3c 753d 4cf4 a0be 099f 88bd
000001e0: 6ccb debd 9ba6 983c de07 adbb 3431 4cbe
000001f0: 253c 8b3e 1977 3e3e 6b9f 4cbd e267 dabd
00000200: ec3c a7bc 4a5b 0b3f e421 8bbe 3902 da3d
00000210: 720b 733d d120 153e 222c bc3d 0f6d 833e
00000220: ff31 743e 76f0 823c f71c 72be 1399 90be
00000230: 1583 adbe 9637 74be 5866 00bf a3aa c13d
00000240: 8e61 86bd a72e 8bbd 5f68 e53c c0e6 873d
00000250: 193f 333e 263b 693e cc86 cdbd 76fe b13e
00000260: b289 113e 1bde 563e a33f 1cbf 0d86 87be
00000270: 4a00 42be ed64 27ba d7b5 c63d cdc2 43be
00000280: 1234 04bf 6665 03bb b73f 8bbd 31f5 d93d
00000290: eb5d 54be 7a32 b53d 78ce 30be a2f8 09bd
000002a0: 30ae 8fbe c92a f7bd d317 39be 09bc 113e
000002b0: 149d 703e fee2 8a3e 32e5 ee3e f149 8b3e
000002c0: 15bf 4f3e ea00 31be ffce 96bd 6ee9 913e
000002d0: b619 293c 433c 86bb d4b8 c2be 63c6 b4bd
000002e0: 1c6e 04be 6719 c83e 0e57 6ebe 3a7c 07be
000002f0: 2a4f 9e3d 803d 8abd ea4a c93d 4d1e 443d
00000300: ac15 cb3d 81e3 ab3d d2d7 bf3d 752b 88be
00000310: e4e0 9b3e 5464 1f3e e9d3 f13e 2305 91be
00000320: 4ad6 b2bb 5bda 08be 3dfa 7f3e ee86 2d3e
00000330: 2825 803e f7bd 95be fca4 af3c b7fa 303e
00000340: b2b8 073e 9655 0c3e 2edc 04be 82fa 7ebe
00000350: 6c87 c2be 4f8c 4d3e c5d5 4c3e 2237 663e
00000360: 69f4 6b3e 3cbc 57be 554d 68bd 6bb1 b93e
00000370: 79f6 38be 49ef 283d 5ca5 81be c8e1 41be
00000380: fc23 c73d c416 1bbe fa9e 58bc 2c8a 0d3e
00000390: bada 843c a385 e83e b0ee 2cbe 0881 d2bd
000003a0: 7a50 c93e e94f fc3d ea85 2cbe 87eb 1a3e
000003b0: 7da7 17be d2b3 6f3e 2b38 d13e cfb8 b4bd
000003c0: 7bc6 babe 5a88 c9be 1197 c53d 7de7 053e
000003d0: 1b5d 50bd 526b 7d3d b45c d0be 1a45 97be
000003e0: f67d bebe b7f4 f93e f6c6 f53c 25d5 633d
000003f0: f0e9 063e 16d2 f63d dae4 9a3c ceda 35bd
0.14719559 -0.36502516 -0.030051507 0.25438073 -0.08721023 0.5320091 0.3450353 0.33580628
0.07758892 0.19044755 0.033999227 0.07915624 0.13035195 -0.01768774 0.013400574 -0.031166874
-0.04006092 0.0689527 0.15990672 -0.035896473 -0.31878746 -0.12390165 -0.049642816 0.5429276
0.119154476 -0.015454171 0.09039291 0.38310203 -0.22797868 -0.0076630986 -0.063370116 0.09260425
0.12047865 -0.36050144 -0.0069211964 -0.72456104 0.21477325 -0.19251107 0.20533855 0.0035496168
0.37492558 -0.31674635 0.26629496 -0.4869745 0.02077768 0.13082792 -0.25486577 0.014797818
-0.16200589 -0.22850475 -0.18898869 -0.045649316 0.17108265 -0.19717434 0.10586204 0.04532858
-0.25449768 -0.55657095 0.11970902 0.0040873163 -0.41165382 0.23236439 0.11818632 0.24583973
0.06473247 -0.05631024 0.07218547 0.025472257 -0.41537154 -0.21738498 0.41901436 0.21276931
0.11185287 0.21451466 -0.33707145 0.09157103 0.051663317 0.50404483 -0.35388818 0.03692796
-0.27300483 -0.10685118 -0.006704326 -0.115949675 0.32126343 0.08999836 -0.2929137 0.005904112
-0.28798097 -0.025242802 -0.15443654 -0.47391716 -0.14526701 -0.13016818 -0.51936114 -0.045704864
0.06667335 0.049663167 -0.114433214 -0.07035794 0.101018436 -0.06640011 0.19843023 0.054372154
-0.26654077 -0.42149216 0.13161747 -0.039877705 0.09946417 0.17541495 0.07874004 0.07405885
0.4461672 -0.3407682 -0.124079205 0.19604746 0.20265992 0.059872188 -0.31436384 -0.066709585
-0.108786434 0.018634131 -0.005280479 -0.19940645 0.27194324 0.1860012 -0.04995672 -0.10664345
-0.020414792 0.5443617 -0.27174294 0.10644955 0.059337087 0.145633 0.09188105 0.25669143
0.23847197 0.015983801 -0.23643862 -0.28241786 -0.3388907 -0.2384933 -0.50156164 0.094563745
-0.06561576 -0.067960076 0.02800387 0.06635809 0.17504539 0.2277647 -0.10035476 0.3476445
0.14212683 0.20983164 -0.610346 -0.2646946 -0.18945423 -0.00063855835 0.09702652 -0.1911728
-0.51641953 -0.0020049452 -0.06799262 0.1064247 -0.20738952 0.08847518 -0.17266262 -0.03368438
-0.28062582 -0.120687075 -0.18075494 0.14231886 0.2349742 0.27126306 0.46659237 0.2720485
0.20287736 -0.17285505 -0.073637 0.28498405 0.010321071 -0.004096539 -0.38031638 -0.08826902
-0.12932628 0.3908188 -0.23275396 -0.13230982 0.07729943 -0.067500114 0.09828742 0.04788046
0.09916243 0.08393002 0.09367336 -0.26595655 0.30445015 0.15565616 0.47231987 -0.28324232
-0.005457674 -0.13364546 0.24997802 0.16946003 0.25028348 -0.29246494 0.021440975 0.1728314
0.1325405 0.13704523 -0.12974617 -0.24900249 -0.37993944 0.20073055 0.20003422 0.22481969
0.23042454 -0.210679 -0.056714375 0.36268172 -0.18062772 0.041243825 -0.25321472 -0.18933785
0.0972366 -0.15145403 -0.013221497 0.1382224 0.016217578 0.45414457 -0.16887927 -0.10278517
0.3931921 0.12319929 -0.16847959 0.15128909 -0.14809985 0.2340844 0.40863165 -0.08824312
-0.36479554 -0.3936184 0.09647954 0.13076587 -0.050870042 0.061869927 -0.40695727 -0.29544908
-0.37205476 0.48819515 0.030002099 0.055623192 0.13175178 0.120517895 0.018907953 -0.04439812

fc1.bias f4 [64]
00000000: 5c16 79be bed4 da3e 51ea 5e3e 3ef3 033c
00000010: 75f8 a8be 7854 90be 53a5 ed3d be35 86be
00000020: 5961 d9be 0626 9dbd 4a69 043e fe99 cabd
00000030: d429 bc3c 4e55 473e 0918 a7be a4d0 14be
00000040: fefd ce3d 023e 483e 64e3 d33e 301a b43e
00000050: c878 d63e cabc 3d3e 902e 95be d1c2 3d3a
00000060: c57d 22be 64d1 5b3c 0b31 84bd 8eaa 8a3e
00000070: 752b 20be 7561 6fbe 8daa 41be 5edd d63d
00000080: e141 9f3e 9a9a 6c3e 134d 833e 9efc 2f3e
00000090: 888d b73c 0e9d 3bbd 1755 5bbe d612 433e
000000a0: a9eb 3bbe 3e28 fcbd 9ca3 d73e 7e26 423e
000000b0: fe19 a2be 6f31 663e a155 8abe b31e d4bd
000000c0: 1105 6a3e d52b 863d 4337 fabd d8bd 4f3e
000000d0: 2a36 03bf dd35 ee3e 273f 893e caab 95bd
000000e0: 31af d63d 043b 62be 76e9 8ebe 585f 1bbe
000000f0: da7a 7abe fb29 46bd 1bce babd 96dd 3fbe
-0.24324936 0.42740434 0.21769072 0.008053599 -0.33002058 -0.28189445 0.11603799 -0.26212877
-0.42457083 -0.07673268 0.1293079 -0.09892653 0.022969164 0.19466135 -0.32635525 -0.14532715
0.10107039 0.19554904 0.41384423 0.3517623 0.41889024 0.18529049 -0.29137087 0.0007238808
-0.1586829 0.013416622 -0.06454667 0.27083248 -0.15641578 -0.2337702 -0.18912716 0.10491441
0.3110495 0.23105851 0.2564474 0.1718621 0.022406355 -0.045804076 -0.21419178 0.19050154
-0.18351616 -0.12312363 0.42117012 0.18959996 -0.31660455 0.22479795 -0.27018455 -0.10357418
0.22853495 0.06551329 -0.122175716 0.20287263 -0.5125452 0.4652547 0.26805994 -0.07308157
0.10482634 -0.22092825 -0.27912492 -0.1517309 -0.24460927 -0.04837988 -0.09121343 -0.18736872

fc2.weight f4 [64, 64]
00000000: a108 62be 60ca cfbd 6ecd 333c 485f 3c3c
00000010: 18cb eb3d 1124 39bb 5020 f4bc a8e3 4b3c
00000020: 570a 66bd 2988 8e3d 9a09 f93d c3fd dfbd
00000030: 84b5 7dbd f743 5b3e f6e6 8cbd 8ddd 833c
00000040: 70fc 1abe b1ce 41bd 216c d93c 334a dbbd
00000050: 708c 363d 5008 96bc 5ca8 81bc df2f 9ebd
00000060: d1c7 203c c6c4 f03d c3f3 31bc 2ea7 62bd
00000070: 5e56 2dbe bb16 e43c fbb0 18bd 53e0 d03d
00000080: c79b 87bc 166a dabb 2ac8 0a3d 6136 a33d
00000090: d2f7 833d c503 c53c 1762 213e df7b 853d
000000a0: 4116 aabd b591 78bd 0b4e e5bd a619 123e
000000b0: cf44 953d f14d 1abe 81f7 223d 7ff0 1aba
000000c0: c241 aa3d 7aa8 0d3e a863 f03d 726c 033d
000000d0: fcae 963d d3e0 94bd 0c64 c9ba c6fa bc3d
000000e0: f95f 06be 46da 95bd f0c2 a03d 36d3 103e
000000f0: 206e 50bd a75d 0fbc 12cd 4cbb 8790 2e3e
00000100: 0306 1d3e 4ab1 f7ba 7948 2d3e 3da3 d3bd
00000110: 7cce 22bd c7f8 82bd eebf ddba fafa 94bb
00000120: 2589 173d 8b0c 2ebd c649 4abc c2a2 b23d
00000130: 7682 02bd 4a4f 7ebd e1b3 a43d 62ce a03d
00000140: 1e91 9b3d c3f0 91bd 2409 003e 4ee9 63bd
00000150: f2f8 b6bd c15a e5bc dfe7 753c e0e0 57bd
00000160: 8351 fa3c 29b4 c239 f9e8 cc3c 1f22 16be
00000170: d3f0 e2bd 6737 ffbd 8344 063e 5bd8 b63c
00000180: aee3 49be fa67 8ebd 5c0c 003e 59a7 0a3e
00000190: 5db1 873d 7792 06be 2938 d33d a7f8 ab3d
000001a0: 964f afbd 3b85 543d c8be 203e d4c8 5c3b
000001b0: 2f89 983d b454 86bd 8f47 f43c c10f 1bbe
000001c0: 93d6 183e 7dd4 3e3d ea21 603d 66b5 263d
000001d0: 7a50 7abd 3e60 ed3c a935 243d 4cb9 19bc
000001e0: 816c cc3c e326 ad3d 7f82 c83d d270 02be
000001f0: e4ed 90bd 0cf3 dcbd 60d4 603d 3e13 45bd
00000200: 5286 423d 3078 7cbd 9921 d53d 13fb 9c3c
00000210: 0bdf af3d b42e 6bbc 0a99 283e ebcf 0f3d
00000220: e689 783c 1508 573d 577c b13d 48b1 89ba
00000230: 68ce ec3d eb1b 82bb 8e7e 56bc bbeb 123e
00000240: 85e2 1cbe c6f8 b6bd 6471 103e 0ce8 42be
00000250: 733c 54bd aa4a 70bd d67f da3c c7c5 b23d
00000260: 00b6 093d 9b42 b6bd e7d7 87bd eecc 1dbd
00000270: 0405 17be 8a26 b23d c98c fdbd 1e54 4bbd
00000280: 45f8 26bb 3e03 78bc d09d 5bbd d91c aabd
00000290: 4932 48bd bd1e 95bc c515 db3d 2f1f 47be
000002a0: f3eb f6bd dff8 93bd e7c5 e03c 6633 1b3e
000002b0: 62cc 10be b842 b93d 1cec 8bbd 0a24 3fbe
000002c0: aa76 2abe 8788 27be 93f5 b63c d714 a9bd
000002d0: 68a2 28be 3fe3 d93c b971 ffbd e6e5 8c3c
000002e0: 7096 44bb 706e 933c 8357 14be c5dc 97bc
000002f0: 2f57 a73c e9d5 a4bb 2246 d9bd f2ef 2b3c
00000300: fd38 6b3c 3d07 93bd 868b c93b 637f 953d
00000310: b415 bebd d84d 223c 5962 403e 9f49 193d
00000320: f132 18be 9b46 b2bd 882a d33d 2b68 aabd
00000330: 66a3 8dbd 8943 cb3d 960c 323e 74de febc
00000340: 6a5f b43d a5c5 3e3e 88f8 f93d 1a30 523d
00000350: f89f 2c3e 040f 513c 19b5 8b3d 6948 ce3d
00000360: 8726 8d3e bad6 28bd ece8 b5bd 998f 1abd
00000370: dd73 09be 19a2 ec3d 0a6f 093e b7e3 553e
00000380: 789f ef3d ab52 5bbd c00a ab3c 0b66 15bd
00000390: f5dd 1c3e 4dbd 2c3c 1a7d a33c 1ad1 003e
000003a0: fda0 713d 2f00 21be 2a59 653d a885 233e
000003b0: 1404 a1bc 02f2 1abd 5150 8dbc 9de5 12bc
000003c0: 26e7 86bd 46d4 563d 76a6 67bd 39d1 823d
000003d0: ed4e 28be 8b42 48be 0d40 2dbe 364e c0bd
000003e0: 11e5 803d 90f3 88bd fd4a 19bd d66d 82be
000003f0: 223c b1bd 34f6 babd 55c9 6a3e 7fc3 17be
-0.22073604 -0.10146022 0.010974271 0.011497326 0.115133464 -0.0028250257 -0.029800564 0.012444414
-0.056162205 0.06959564 0.121600345 -0.10937073 -0.061940685 0.21412645 -0.0687999 0.016096855
-0.1513536 -0.047316257 0.026540818 -0.10707512 0.044567525 -0.01831451 -0.01582735 -0.077239744
0.009813265 0.117562816 -0.01086134 -0.055335216 -0.16927478 0.02784287 -0.037278157 0.101990364
-0.016553773 -0.0066654785 0.033882298 0.07969356 0.06443752 0.024049649 0.15760075 0.06517767
-0.08305026 -0.060685832 -0.11196526 0.14267597 0.07288515 -0.15068795 0.03978682 -0.00059104705
0.083133236 0.138338 0.11737758 0.032085843 0.07357594 -0.07269444 -0.0015364899 0.09227519
-0.13122548 -0.07317023 0.078496814 0.1414307 -0.050886273 -0.008750356 -0.003125016 0.1704732
0.15334325 -0.0018897441 0.16922177 -0.103338696 -0.0397477 -0.06395107 -0.0016918161 -0.0045465203
0.036996026 -0.04249243 -0.0123466905 0.0872245 -0.0318627 -0.062087335 0.08042122 0.078518644
0.07596038 -0.07126 0.12503487 -0.05564242 -0.08934201 -0.027997376 0.015008896 -0.052704692
0.030556446 0.00037136793 0.025013434 -0.14661454 -0.1108109 -0.12461739 0.13112073 0.022319963
-0.19715759 -0.06953426 0.12504715 0.135404 0.06625626 -0.1314181 0.10313446 0.08397036
-0.08560102 0.05188487 0.15697777 0.0033689039 0.07448041 -0.065591246 0.029819278 -0.15142728
0.14925604 0.046589363 0.054719843 0.04070034 -0.061111905 0.028976556 0.040090237 -0.009382557
0.024954082 0.08454683 0.09790515 -0.1273835 -0.07076624 -0.10788545 0.054890037 -0.048114054
0.04749138 -0.061638057 0.10406799 0.01916269 0.08587464 -0.014354397 0.1646463 0.035110395
0.015169596 0.052497942 0.08666294 -0.0010505104 0.11562806 -0.0039706132 -0.013091696 0.14347737
-0.15320785 -0.089341685 0.14105755 -0.19033831 -0.05181546 -0.058664955 0.026672285 0.08729129
0.033620834 -0.08899423 -0.06632977 -0.038525514 -0.14748007 0.08698757 -0.12380368 -0.049640767
-0.002547757 -0.015137492 -0.0536173 -0.083062835 -0.04887608 -0.018203134 0.106975116 -0.1944549
-0.120567225 -0.07225203 0.027438117 0.15156326 -0.14140466 0.09045929 -0.06832144 -0.18666092
-0.16646829 -0.16360675 0.022333896 -0.08255928 -0.16468203 0.026597617 -0.12472863 0.017199468
-0.0029996894 0.017996997 -0.14486508 -0.018537888 0.020427315 -0.005030383 -0.1060908 0.010494219
0.014356849 -0.07179115 0.0061506657 0.07299688 -0.09281483 0.009906255 0.18787517 0.037423726
-0.14863183 -0.08704873 0.103108466 -0.0832065 -0.069159314 0.09924991 0.17387614 -0.031111933
0.08807261 0.18630083 0.12205607 0.051315404 0.16857898 0.012759928 0.06821651 0.10072405
0.27568457 -0.041220404 -0.08882317 -0.0377346 -0.13423105 0.11554355 0.13421264 0.20887648
0.11700338 -0.053545635 0.02087915 -0.03647427 0.15319045 0.01054318 0.019957114 0.12579766
0.05899142 -0.15722726 0.055993237 0.15968955 -0.019655265 -0.037828453 -0.017250212 -0.008965877
-0.06587057 0.052448533 -0.056555234 0.06387562 -0.16436358 -0.19556634 -0.16918965 -0.093899176
0.06293691 -0.06687081 -0.03742503 -0.25474423 -0.086540475 -0.09128991 0.22928365 -0.1482067

fc2.bias f4 [64]
00000000: 9360 d0bd 872b f63d 8d3a d5bd 76d1 2b3d
00000010: 3351 b2bc a91e 4bbe f56e 763e 4379 2b3e
00000020: e7f6 cfbd 9162 62bd cb62 04bc 56b5 373d
00000030: a5a7 933d 212b 213e c447 6b3e 65fd a9bd
00000040: 421f dabd 9be8 5fbe e179 833c 2e94 b0bd
00000050: 7044 4abc b8d6 033d e4ce 813c 6109 1cbe
00000060: 8999 c2bd b477 bd3d a713 7abd 45ef ecbd
00000070: dc32 79bd 3b40 363b 020c 01bd a772 dbbd
00000080: 6121 00bd fb4b ca3d b48b 483e 9b4d a0bc
00000090: 320b 0d3d bb14 45be badf fc3d cbbb ee3d
000000a0: 4a13 d2bc ce23 eb3d 8a1c ef3d d3e6 05bc
000000b0: 1a97 803e 0d6a 9b3d 18cc c1bc 6304 053d
000000c0: 91f0 a23b 08a7 793d 732b fc3c bdb3 f83c
000000d0: eb27 cb3d 159f 16be 6c8b f73c 1447 db3c
000000e0: b784 333d e11a 0dbe 105a 273e e48c b63d
000000f0: 6dd1 45bd 3108 28be 3546 713c 0baa 893d
-0.1017467 0.12020021 -0.10411558 0.041947804 -0.021767234 -0.19835915 0.24065764 0.16745476
-0.10154515 -0.05526978 -0.008080195 0.04485067 0.0720971 0.15739109 0.22976595 -0.08300284
-0.10650493 -0.21866076 0.016049327 -0.08622013 -0.012345418 0.032187194 0.015845723 -0.15237953
-0.09501941 0.09251347 -0.0610539 -0.115690745 -0.06083952 0.002780928 -0.031505592 -0.107152276
-0.031281833 0.098777734 0.19584543 -0.019568255 0.034434505 -0.1924619 0.1234736 0.116569124
-0.025643963 0.114814386 0.11675365 -0.008172709 0.2511528 0.07588587 -0.02365689 0.032474887
0.0049725254 0.06095031 0.030782437 0.030359143 0.09919723 -0.14709122 0.030217849 0.026767291
0.04382774 -0.13779785 0.1634295 0.089135915 -0.048295427 -0.16409375 0.014726211 0.06721886

mean_out.weight f4 [6, 64]
00000000: e123 023d 2001 d6b8 33dd dabb 6e03 8c3b
00000010: 8610 d53c 7258 eb39 2f64 df3c adc8 b83c
00000020: c5a0 0f3c 171f 033d e9b1 e6bb 7e1e 64bc
00000030: 99e5 26bd 4d4b bcbd e942 a83d 80aa a4bc
00000040: 797c dbbd 9256 a33d 5f4f eb3b 6b3b a0bb
00000050: 644f 10bd 05f6 e23c 2f19 3dbc d381 f33b
00000060: efd5 a73b 2ee9 79bd e8d5 ccbc 9316 9b3c
00000070: e778 b53a 50c4 a83b a580 02bc 76a0 c63b
00000080: eb3b 6abb 0041 bb3c c7ad c2bc 303c 96b9
00000090: 6c02 103c 235d 18bd 6e8f 2dbb a0c6 9cbc
000000a0: 368f 45ba 8782 9d3a 1a5b 3f3c 1e40 5db9
000000b0: 7b4c ddbd d0c0 723c d811 f3bc 29f8 64bd
000000c0: 8d47 75bc b269 3837 3032 bbbc 38eb 08bc
000000d0: e2e4 c33b b498 003c dac9 d93b b1e4 d23c
000000e0: 1fd7 fbbc 2078 44bc 3791 57bc 7e2a 8ebc
000000f0: 8d7a 46bc a609 943c 5bfa 8f3c 8c78 15bb
00000100: bc75 62bb f47e 333c 2a75 10bb 1aac 873c
00000110: 07a0 fc3a c6e4 2f3b a492 28bd 61e8 b33c
00000120: f994 243c 60ce 05bc 50d0 883c 4e4c f2bc
00000130: 42db 2a3c 786b 1fbd 11e0 953c 751e 853d
00000140: a313 003d e020 afbd 422a 173c cb4a 033c
00000150: f8ec 24bc f596 92bc d891 5fbc 6db9 e23d
00000160: b2d9 323c f109 013d 58d7 20bd f8c1 96bd
00000170: ba1a 81bc a1c5 cd3c e54d 9e3c 71ac 3e3d
00000180: 71df b93c 3038 3ebd 8b5c 293d e66e 47bb
00000190: c765 b73a bcef bb3c 5688 9a3b fbb3 6b3c
000001a0: 9d37 c23a caf0 59ba 1320 a03b 99e4 083d
000001b0: 1f6c 36bd c553 443c 493c e0bb 222f 9cbc
000001c0: 3b2f 043d 560a e93a 1af6 0abc 7791 21bc
000001d0: 44bb 35bc 7028 7d3d 2e88 3b3c 4555 43bd
000001e0: 271c 263d 16c9 83bc e8e8 9d3d 8835 47bd
000001f0: 4868 77bc 50b0 87bc cedc bcbb 27b1 32bb
00000200: bf6d 663c 4458 33bc db17 cf3b d32f f7bc
00000210: 5a25 7c3b c747 e33c 8014 e03d e7b0 2ebd
00000220: baec b13b 84ba c13c 8d4c 14bc 02a0 24bc
00000230: 2255 8c3a b46b fbbc 45d5 e7bc a25b 46bc
00000240: 98cb 013e 87f9 67bd 0bdb ca3b 8dcd 003c
00000250: a79e a33b cb1f 2c3b 87b2 f5bb 7774 14bc
00000260: 1cf3 473b e2c4 ddbd 2672 823c c357 a6bb
00000270: 3ad6 103b 6522 04bc 3a7a 803b 7fb7 113d
00000280: 7d11 d03b 9a71 bc3d a17a 3dbd 77a0 e93b
00000290: f122 563c 0132 b53d 60ab 3a3c 85ec 04bb
000002a0: bb9c 8b3b 7246 01bc f89c 4fb9 64c4 b63b
000002b0: ceea 903d 6719 05bd 7255 4a3d 39ca a6bd
000002c0: 371f acbc 09d1 d83c d593 33bc d909 8bbb
000002d0: 74d1 73bc 66ad 15be 1cc4 fbba b708 043d
000002e0: 1a66 373c 7d35 1b3d a79e b13d 2493 e23d
000002f0: 685c 0f3a de19 1b3d b075 85bc 65c8 353b
00000300: 6d78 98bc beeb fbbb 42fd 9cbb 24af 07be
00000310: 1494 f93b f613 73ba 0864 24bb 61f8 4abe
00000320: eb65 65bc 2dbc 0dbc e586 723c 057f f43c
00000330: 7322 503c ddfe ebbc afe9 96bd 6e21 9f3d
00000340: d791 353e 3254 673d fc19 4fbc 33a5 abbc
00000350: 3569 b9bb fefa 013d 2834 29bc 274a e93d
00000360: 37d8 b23b fb2e e23c cdbf 073d e1a2 a03c
00000370: 131e 803d c496 c23b da6e faba 97f4 9cbc
00000380: 2a94 39bc 9fb1 f83d dbff 193c 90cb 87ba
00000390: 66ae 713b 1692 663d 5d80 123d 69ac c9bd
000003a0: 5460 abbb 6560 cfb8 3e93 d13c e5aa 92bd
000003b0: faed edbd 72f9 c2bd d44c 533d 166c 733c
000003c0: 9759 173c d688 24bd e324 bebc acac 563b
000003d0: a9db 673c 119b 6f3d fa2a a3bc f039 893c
000003e0: d7fa a93a 24f2 cb3b 399d 0f3e 13ad c03d
000003f0: 837e 403c 7c56 aabb 470d 74bc c0a6 a03c
0.031772498 -0.00010204525 -0.006679201 0.00427287 0.026008856 0.0004488859 0.027269451 0.022556627
0.008766358 0.03201207 -0.0070402515 -0.0139232855 -0.040746305 -0.0919405 0.08215887 -0.020100832
-0.10717101 0.07975496 0.0071810926 -0.0048898957 -0.035231963 0.027705202 -0.011541649 0.0074312477
0.0051219384 -0.061013393 -0.025004342 0.018931663 0.0013845236 0.0051503554 -0.007965242 0.006061609
-0.003574128 0.022858143 -0.023764504 -0.00028655073 0.00878964 -0.037198197 -0.0026483196 -0.01913768
-0.00075362937 0.001201705 0.011679435 -0.00021100088 -0.10805603 0.014816478 -0.029671595 -0.055900726
-0.014970672 1.0991864e-05 -0.02285108 -0.008356862 0.0059782127 0.007848907 0.006646377 0.025743814
-0.030742226 -0.011991531 -0.0131571805 -0.017354246 -0.012114179 0.018071007 0.017575433 -0.0022807447
-0.0034555038 0.010955561 -0.0022042491 0.016561557 0.0019273766 0.002683924 -0.041155472 0.021961393
0.0100452835 -0.008166879 0.016700894 -0.0295774 0.010428252 -0.03892085 0.01829532 0.0649995
0.031268727 -0.08551192 0.009226384 0.0080134375 -0.010066263 -0.017894248 -0.013645612 0.110705234
0.01091616 0.03150362 -0.039267868 -0.07361215 -0.015759815 0.02511865 0.019324252 0.04655117
0.022689553 -0.046440303 0.04134802 -0.003043109 0.0013992124 0.022941463 0.0047159595 0.014386172
0.00148176 -0.00083137734 0.004886636 0.033421133 -0.044536706 0.011982863 -0.006843124 -0.019065443
0.032271605 0.001777957 -0.008481527 -0.009861342 -0.011092011 0.061806142 0.011446042 -0.04768874
0.040554192 -0.016087096 0.07710439 -0.048635036 -0.015100546 -0.016563565 -0.0057636267 -0.0027266236
0.014064251 -0.010946337 0.0063199825 -0.030174172 0.0038474412 0.027744187 0.1094141 -0.042649176
0.0054298313 0.023648508 -0.009051454 -0.010047914 0.0010706524 -0.030691005 -0.028299937 -0.012106808
0.12675321 -0.056634452 0.0061906627 0.007861507 0.004993278 0.0026264067 -0.0074980888 -0.0090609705
0.0030509895 -0.10828568 0.01592357 -0.00507638 0.0022100345 -0.008064841 0.0039208205 0.035575386
0.006349741 0.09201355 -0.046259526 0.0071297246 0.013069854 0.08847428 0.011393398 -0.0020282578
0.004260627 -0.007890331 -0.00019799534 0.005577611 0.070760354 -0.03249493 0.049397893 -0.0814404
-0.021010978 0.026466863 -0.010960539 -0.0042431173 -0.0148814805 -0.14616928 -0.0019208225 0.032234874
0.0111937765 0.037892807 0.08672839 0.11063221 0.00054687867 0.037866466 -0.01629147 0.0027737853
-0.018612111 -0.007688015 -0.004790933 -0.13250405 0.0076165292 -0.0009272689 -0.0025084037 -0.19821312
-0.01400135 -0.008650822 0.014802669 0.029845724 0.012703526 -0.028808052 -0.0736879 0.07770048
0.17731415 0.05647678 -0.0126404725 -0.020952797 -0.0056582936 0.031733505 -0.010327376 0.113910966
0.0054579037 0.027610293 0.0331419 0.019608917 0.06255736 0.005938383 -0.0019106523 -0.019159598
-0.011326829 0.121432535 0.00939938 -0.0010360349 0.0036877631 0.056291662 0.035766948 -0.09847338
-0.005229989 -9.888484e-05 0.025582906 -0.07161502 -0.11617656 -0.09520234 0.05158694 0.014857313
0.0092376685 -0.04016956 -0.023210948 0.003275673 0.014151492 0.058497492 -0.019917954 0.01675126
0.0012968433 0.006223934 0.1402482 0.09408011 0.011748913 -0.005198298 -0.014895744 0.019610763

mean_out.bias f4 [6]
00000000: 00bc 193e 8b24 eebc 7bce 0e3d 6d4a 25be
00000010: b5d5 c13d 6dab 7abd
0.15013123 -0.02907016 0.034864884 -0.16141672 0.094645895 -0.06119864
