pretrained_model/HalfCheetah-v2.pt (torch, 24979 bytes, 7 tensors)

log_std f4 [6]
0	0xbfdc92a5	-1.7232252
1	0xbfd0bdc3	-1.6307911
2	0xbfd4803c	-1.6601634
3	0xbfee4fb0	-1.8618069
4	0xbff5d3b4	-1.9205232
5	0xbffeec24	-1.9915814

fc1.weight f4 [64, 17]
0	0x3eb204ec	0.3476938
1	0xbf1a5152	-0.60280335
2	0x3d9a10fa	0.07522769
3	0x3f034d0f	0.5128946
4	0xbf3985f8	-0.72470045
5	0x3ef93dac	0.48679864
6	0xbd84c0d1	-0.06482089
7	0x3e452f38	0.19256294
8	0xbe61b7e0	-0.22042799
9	0x3ea5a65d	0.32353488
10	0x3dfbe61f	0.122997515
11	0x3d1195e6	0.035543345
12	0x3c275056	0.010212025
13	0xbe0d488b	-0.13797204
14	0x3d4ea040	0.050445795
15	0xbde80e00	-0.11330795
16	0xbcdfdcb0	-0.027326912
17	0x3e8ceccd	0.27524415
18	0xbbae54b3	-0.0053201555
19	0xbc017a94	-0.00790276
20	0x3c674bf9	0.014117234
21	0xbe1e9233	-0.15485458
22	0xbd592ccb	-0.053021234
23	0xbd9c9e8c	-0.07647428
24	0x3e5ee19a	0.21765748
25	0x3e483c41	0.19554235
26	0x3eb8dfbd	0.361082
27	0xbe165718	-0.14681661
28	0xbe84fef8	-0.25975776
29	0x3dc3b3d3	0.09555783
30	0x3d9326f5	0.07185165
31	0x3edfa6e4	0.43682015
32	0x3e5389f6	0.20658097
33	0xbe26f7d4	-0.16305476
34	0x3e3b1edf	0.18273495
35	0xbe570c04	-0.21000677
36	0x3f07e628	0.53085566
37	0x3deb94c1	0.11502982
38	0x3e7306fd	0.23733135
39	0xbe18cdb0	-0.14922214
40	0xbc8d49e5	-0.01724715
41	0x3e407b41	0.18797018
42	0x3d895421	0.067054994
43	0xbe624161	-0.22095253
44	0xbf1ec976	-0.62026155
45	0x3e626380	0.22108269
46	0x3cfd79ec	0.030941926
47	0x3e327713	0.17428236
48	0xbe27b027	-0.1637579
49	0x3d632321	0.055453423
50	0xbd9fe4bd	-0.078073
51	0xbf43d1cd	-0.76492006
52	0x3f09b8cd	0.5379761
53	0x3cb5e463	0.02220363
54	0x3e0ae135	0.13562472
55	0xbd03bfc1	-0.032165293
56	0x3dae5e44	0.085140735
57	0xbe06e2ab	-0.13172404
58	0x3dc8b381	0.09799863
59	0x3cec81da	0.028870512
60	0xbe40ba00	-0.18820953
61	0x3ed835bc	0.42228496
62	0x3eb7f85f	0.3593168
63	0x3e887fa0	0.2665987
64	0xbcc69030	-0.024238676
65	0xbde91c8d	-0.11382399
66	0x3d836192	0.064150944
67	0x3cabd62a	0.020976145
68	0x3b93ac9b	0.00450666
69	0xbeb8f563	-0.36124715
70	0x3e7bb191	0.24579455
71	0xbe1fbbfc	-0.15599054
72	0x3eb13dba	0.34617406
73	0xbeae0c40	-0.3399372
74	0x3d9faf9c	0.07797167
75	0x3e0f7867	0.14010774
76	0x3ec3f3c2	0.3827191
77	0x3e633787	0.22189151
78	0xbe62c2c1	-0.22144605
79	0x3e2ba923	0.1676374
80	0xbe88e7d4	-0.2673937
81	0xbe1e6b8c	-0.15470713
82	0x3dc3d2ad	0.095616676
83	0xbd9a37c1	-0.075301655
84	0x3e34f80e	0.1767275
85	0x3e163451	0.14668395
86	0xbed437b1	-0.4144874
87	0x3ea4d566	0.3219406
88	0xbeb5f2a1	-0.35536674
89	0x3db38033	0.087646864
90	0x3ea41d0d	0.32053414
91	0xbd4e42c2	-0.050356634
92	0xbed45ad5	-0.4147555
93	0x3d433cf1	0.04766554
94	0x3e27d4f6	0.16389832
95	0xbe97054f	-0.29496238
96	0xbd0a5734	-0.03377457
97	0x3dc5cc64	0.09658125
98	0xbe218c9e	-0.15776297
99	0x3df5d056	0.120026276
100	0x3e8fd9ab	0.28095755
101	0xbe4869bc	-0.19571584
102	0x3e8a4614	0.2700659
103	0x3c0fda19	0.008780026
104	0xbc955611	-0.018229516
105	0xbe8cc349	-0.2749274
106	0x3f079c28	0.5297265
107	0xbe441673	-0.19149189
108	0x3e8739cd	0.26411286
109	0x3e84ce20	0.2593851
110	0x3eb6ba94	0.35689223
111	0x3f352794	0.70763516
112	0x3e6139ad	0.21994658
113	0xbe7e245e	-0.2481856
114	0x3d2e63db	0.0425757
115	0x3e1f0f30	0.15533137
116	0x3e971d62	0.29514605
117	0x3e6ebe18	0.23314703
118	0xbcff2dea	-0.031149823
119	0xbd39afec	-0.045333788
120	0xbdfc334d	-0.12314472
121	0x3ed38092	0.4130903
122	0x3e4d8938	0.20071876
123	0xbec4dcf3	-0.3844982
124	0x3e9760d8	0.29566073
125	0xbcf28502	-0.029604439
126	0xbdd7eb6e	-0.105429515
127	0x3dc2f372	0.0951909
128	0x3e7878fa	0.24264899
129	0x3e59e744	0.21279627
130	0xbe865f6d	-0.2624468
131	0x3e1c7a22	0.15280965
132	0x3e651845	0.2237254
133	0x3ec354f3	0.3815075
134	0x3db87c0f	0.09008037
135	0x3ead613c	0.33863246
136	0x3e17eed1	0.14837195
137	0x3e75f85d	0.24020524
138	0x3dfd62ef	0.12372386
139	0xbef33b68	-0.4750626
140	0x3e7c3677	0.24630152
141	0x3ec2ba7b	0.38032898
142	0x3df7b699	0.120953746
143	0x3f29fe46	0.66403615
144	0x3f12e00f	0.57373136
145	0x3decd8d0	0.11564791
146	0xbc6b99e3	-0.014379951
147	0x3e398cab	0.18120067
148	0x3ea0fcfd	0.31443015
149	0x3df1ece0	0.118127584
150	0xbe0b672b	-0.13613574
151	0x3d49aeea	0.049239077
152	0xbd69eacb	-0.05710868
153	0x3e8cdc45	0.27511802
154	0xbf2f1227	-0.68387073
155	0xbe6d01e5	-0.23145254
156	0xbe5fba46	-0.21848401
157	0x3c0b2502	0.00849271
158	0xbd63611f	-0.055512544
159	0xbe5b9e5f	-0.21447133
160	0xbf0aaf86	-0.5417408
161	0xbe70a7b1	-0.23501469
162	0xbd61ad01	-0.05509663
163	0xbd9a53e6	-0.075355336
164	0xbe3c3721	-0.18380405
165	0x3d696205	0.056978244
166	0x3d232aad	0.03983562
167	0xbe2ce5ac	-0.16884488
168	0xbe45f59a	-0.19331971
169	0xbe62fead	-0.22167464
170	0xbe8e3fe0	-0.27783108
171	0x3e91b2f6	0.2845685
172	0x3ea7bdfe	0.3276214
173	0x3cc94c6e	0.024572577
174	0x3ef00706	0.46880358
175	0x3e9b5cc0	0.303442
176	0xbe66ce48	-0.22539628
177	0xbe18d983	-0.14926724
178	0xbe59e501	-0.21278764
179	0xbd8ad3bb	-0.06778666
180	0xbf1bf58d	-0.60921556
181	0xbdd3922a	-0.10330613
182	0xbd8a9bfd	-0.06768034
183	0x3d87b15b	0.06625625
184	0x3dc66272	0.09686746
185	0x3de0c155	0.10974375
186	0xbee6114f	-0.4493508
187	0xbe6fee3c	-0.23430723
188	0x3d0a3fa6	0.033752106
189	0xbc0a9972	-0.008459436
190	0x3ebc7887	0.36810705
191	0xbd870a30	-0.0659374
192	0xbd634eb3	-0.055494975
193	0x3e5ebee2	0.21752504
194	0x3ede266e	0.43388695
195	0x3dbc1fe0	0.09185767
196	0x3b9cb57c	0.004782377
197	0x3e8c8092	0.2744184
198	0x3ee7953e	0.4523105
199	0xbe9c0326	-0.30471152
200	0x3dcbc76d	0.09950147
201	0xbe997eab	-0.29979452
202	0x3e30e1c4	0.17273623
203	0xbb06d98c	-0.0020576445
204	0x3ec05faa	0.37572986
205	0x3d00117c	0.031266674
206	0xbe88513d	-0.2662448
207	0xbd76dcb6	-0.06026908
208	0x3de874de	0.11350416
209	0x3e15442a	0.14576784
210	0x3e35314a	0.17694584
211	0xbe4f2077	-0.20227228
212	0xbe565e89	-0.209345
213	0x3e538021	0.20654346
214	0x3ee0f9d8	0.43940616
215	0x3e51d9d2	0.20493248
216	0x3da00cda	0.07814951
217	0xbe070041	-0.1318369
218	0xbdbd97c7	-0.09257465
219	0x3e9d1e52	0.30687195
220	0xbef8ff5b	-0.4863232
221	0xbe2400a0	-0.16015863
222	0x3eb37cbd	0.35056105
223	0xbe94eae3	-0.29085454
224	0xbe4d70a1	-0.20062496
225	0x3d7e6fac	0.062118217
226	0x3e2b2a2c	0.16715306
227	0x3ea22c03	0.31674203
228	0x3e9293e2	0.2862845
229	0x3e94179a	0.28924257
230	0x3d0aaac3	0.033854257
231	0x3e358db5	0.17729838
232	0x3f0e6bae	0.55633056
233	0xbe3516b6	-0.17684445
234	0x3dcee021	0.10101343
235	0xbd691706	-0.056906722
236	0xbe4f934c	-0.20271033
237	0xbd81714b	-0.06320437
238	0x3ed92ca4	0.4241687
239	0xbed1fc68	-0.41012883
240	0xbdd22619	-0.10261173
241	0xbec9c27c	-0.39406192
242	0x3ee63a36	0.44966286
243	0xbdf9d8bb	-0.12199541
244	0x3db3eb50	0.08785117
245	0xbd27350f	-0.040822085
246	0xbe46ee9c	-0.1942696
247	0xbe869868	-0.26288152
248	0xbdec686d	-0.11543355
249	0x3edf2624	0.43583786
250	0x3e64c359	0.22340144
251	0x3d9485d3	0.072520874
252	0x3e520196	0.20508417
253	0x3c3dfac4	0.011595432
254	0x3d7089df	0.058725234
255	0x3e61d220	0.22052813

fc1.bias f4 [64]
0	0xbe92dcf9	-0.28684214
1	0x3e47eafb	0.19523232
2	0x3e23c944	0.15994745
3	0xbddafbab	-0.10692533
4	0xbec4d8de	-0.38446707
5	0xbe065f01	-0.13122179
6	0x3e37c78a	0.17947212
7	0x3e3c3737	0.18380438
8	0x3de14731	0.10999907
9	0xbe702dee	-0.23455021
10	0xbd07968e	-0.033102565
11	0x3cf7ead9	0.030263351
12	0x3db67a4a	0.089100435
13	0x3ee32c09	0.44369534
14	0xbe92554c	-0.285807
15	0x3ea3a2e7	0.31960222
16	0xbd9d716e	-0.076876506
17	0x3c1a3aec	0.009413462
18	0x3e92f37f	0.28701398
19	0x3ecdaae9	0.40169457
20	0x3e8f29f6	0.279617
21	0x3e8f2113	0.2795492
22	0xbeb1386f	-0.34613368
23	0xbe994556	-0.29935712
24	0xbed8e30a	-0.42360717
25	0x3d722375	0.059115846
26	0xbc3e73dd	-0.011624304
27	0x3e830112	0.25586754
28	0xbe75ce7e	-0.24004552
29	0xbf01d8b5	-0.50721294
30	0xbe017f54	-0.12646228
31	0xbd56b840	-0.05242181
32	0xbd870605	-0.06592945
33	0x3ecff516	0.40616673
34	0x3d120de5	0.035657782
35	0x3cf03903	0.02932406
36	0xbdc9d975	-0.0985593
37	0xbdec30ae	-0.115327224
38	0xbdfa03fb	-0.122077905
39	0x3dabb135	0.08383409
40	0xbe7ee821	-0.24893238
41	0x3d30c1b6	0.043153487
42	0xbdcd611f	-0.1002829
43	0x3d4359ea	0.04769317
44	0xbec8157d	-0.39078894
45	0x3ea22e77	0.31676075
46	0xbe9af872	-0.30267674
47	0xbc6524aa	-0.013985792
48	0x3e7f71c0	0.24945736
49	0x3e906746	0.2820379
50	0xbe9715fc	-0.2950896
51	0x3e48a49b	0.19594042
52	0xbe69ab26	-0.22819194
53	0x3eca4d2d	0.39512005
54	0x3ec60c95	0.38681474
55	0xbdb2653f	-0.087107174
56	0xbc240854	-0.010011751
57	0x3d8b15bb	0.06791254
58	0x3e8e554d	0.27799454
59	0xbecd55f2	-0.40104634
60	0xbd9db37f	-0.07700252
61	0xbe59c586	-0.21266755
62	0xbe1a5fa4	-0.15075547
63	0x3e801d1f	0.25022218

fc2.weight f4 [64, 64]
0	0xbd380796	-0.04492911
1	0xbd0be965	-0.03415813
2	0x3d8788ec	0.06617913
3	0xbd88463c	-0.06654021
4	0x3d14cb19	0.0363265
5	0xbd83153c	-0.064005345
6	0xbdc289c4	-0.09498933
7	0xbec6dae5	-0.38838878
8	0xbe40eaba	-0.18839541
9	0x3e40b33b	0.18818371
10	0x3e80c779	0.25152186
11	0xbe0f7bc1	-0.14012052
12	0xbda6f488	-0.081521094
13	0x3e9833c9	0.2972701
14	0xbe7120f0	-0.23547721
15	0x3d90672e	0.0705093
16	0xbe170039	-0.14746179
17	0x3ce4bad3	0.027921116
18	0x3d61d7ab	0.055137318
19	0xbe03558c	-0.12825602
20	0xbe3cdc67	-0.18443452
21	0xbd9a6bbf	-0.07540082
22	0xbd8bcbb7	-0.06825965
23	0x3ea9e148	0.33179688
24	0xbda93cf3	-0.08263578
25	0x3e94fbc1	0.29098323
26	0x3dd5d7e7	0.10441571
27	0xbe0385c0	-0.1284399
28	0xbe083d43	-0.1330462
29	0x3eaf71ff	0.3426666
30	0x3e8bf81c	0.2733773
31	0x3da39125	0.079866685
32	0xbc4b8a68	-0.012423135
33	0x3d9d9157	0.07693737
34	0x3d823e5c	0.0635955
35	0x3d235194	0.03987272
36	0x3d939b3c	0.07207343
37	0x3d395c85	0.04525425
38	0x3da0cbbe	0.07851361
39	0xbc5df2f3	-0.013546693
40	0xbd256ca5	-0.040386815
41	0xbd4bbd6d	-0.049741197
42	0xbcd3fc29	-0.025877075
43	0xbe6a58d4	-0.22885448
44	0xbd9d2323	-0.076727174
45	0xbe1375bc	-0.14400381
46	0xbdcf06a3	-0.10108688
47	0x3d048a69	0.03235856
48	0xbdec0542	-0.1152444
49	0x3da88866	0.08229141
50	0x3df90726	0.121595666
51	0xbe12d531	-0.14339139
52	0x3ddc6934	0.107622534
53	0xbe79e244	-0.2440272
54	0xbe7a5a99	-0.24448623
55	0x3c9d8524	0.019228525
56	0xbe617754	-0.22018176
57	0xbd9694c8	-0.073525965
58	0x3eb660f9	0.3562086
59	0x3dc4207f	0.09576511
60	0x3c5d37bc	0.013502058
61	0xbacb3412	-0.0015503189
62	0xbd3a4a93	-0.045481276
63	0x3e87d2b0	0.2652793
64	0x3e04f80e	0.1298525
65	0xbe033824	-0.12814385
66	0x3dd0c329	0.10193474
67	0xbe650bf6	-0.22367844
68	0x3d9cdda7	0.07659464
69	0xbd8450cf	-0.064607255
70	0x3d6c0090	0.057617724
71	0x3d145a50	0.03621894
72	0x3d3a0799	0.045417402
73	0xbe1712ba	-0.14753237
74	0xbdfe34bc	-0.12412402
75	0x3c92ffed	0.0179443
76	0xbcd4d1ae	-0.02597889
77	0xbccc7599	-0.024958419
78	0x3e48f0ae	0.19623062
79	0x3e55900c	0.20855731
80	0xbcd829e9	-0.026387172
81	0xbd7bd309	-0.061480556
82	0x3b7583d4	0.003746261
83	0xbde59b4e	-0.11211263
84	0xbbf1c71d	-0.0073784725
85	0xbd8b5e46	-0.068050906
86	0x3d9a513e	0.07535027
87	0xbd9c0606	-0.076183364
88	0xbda3e64d	-0.08002911
89	0xbdb79971	-0.089648135
90	0x3e1f2668	0.15541995
91	0xbd4f591e	-0.0506221
92	0xbd8c0264	-0.068363935
93	0xbe53cd71	-0.20683838
94	0x3e745403	0.23860173
95	0x3e3b4873	0.18289356
96	0xbe50d5bf	-0.20394038
97	0xbdebd078	-0.11514372
98	0x3e43eb8b	0.19132821
99	0x3e19927e	0.14997289
100	0x3d112637	0.035436835
101	0x3dbcbb6b	0.09215435
102	0xbd5d8d5c	-0.05408989
103	0x3bbc5cee	0.005748383
104	0x3d59a809	0.053138766
105	0xbd6d9fbe	-0.05801367
106	0x3d8aa841	0.06770373
107	0xbdc93808	-0.0982514
108	0x3da8aa07	0.08235555
109	0x3e039709	0.12850584
110	0xbe4e0553	-0.20119219
111	0xbd465bc7	-0.04842737
112	0x3d7cea73	0.061747026
113	0x3d257443	0.04039408
114	0x3e4c1383	0.19929318
115	0x3e0c278a	0.13686958
116	0x3c8f22e4	0.017472692
117	0x3d9d84b3	0.07691326
118	0x3cfe3bbf	0.031034349
119	0x3bb7d5df	0.005610212
120	0x3dea1dcc	0.114314646
121	0x3cf51e4f	0.029921679
122	0xbd963f10	-0.07336247
123	0xbe288bda	-0.16459599
124	0xbe0e616b	-0.1390435
125	0xbdd603c5	-0.10449938
126	0xbe109bb3	-0.14121895
127	0xbe499893	-0.19687109
128	0xbd61cb10	-0.055125296
129	0x3d9e996e	0.07744108
130	0x3d35c9a5	0.044381756
131	0xbe41bdc6	-0.18920049
132	0x3e1bfecc	0.15233916
133	0xbd8f554d	-0.06998692
134	0x3dec9d36	0.11553423
135	0x3dcd563b	0.10026213
136	0xbdc03a1d	-0.09386084
137	0xbe0822af	-0.1329448
138	0x3e039f73	0.12853794
139	0xbda3e325	-0.08002309
140	0xbe57e2f0	-0.21082664
141	0xbe0d15e2	-0.13777879
142	0xbe32300d	-0.17401142
143	0x3e3a33a1	0.18183757
144	0x3db9d319	0.09073467
145	0x3cf8f7ea	0.030391652
146	0xbe0177a9	-0.12643303
147	0xbd106540	-0.03525281
148	0xba41b614	-0.00073894975
149	0x3d345096	0.044022165
150	0xbe504daf	-0.20342134
151	0xbc0ebcfc	-0.00871205
152	0x3e7ca1ab	0.24671046
153	0x3decd6c4	0.11564401
154	0xbdabb975	-0.083849825
155	0x3e5963b3	0.21229438
156	0xbdcef057	-0.10104435
157	0x3e607cf4	0.21922666
158	0xbe371bed	-0.17881747
159	0xbe5f03ce	-0.21778795
160	0x3e2d41c0	0.16919613
161	0x3e61aa4b	0.22037618
162	0xbd7a1cbc	-0.06106256
163	0xbe3dbbe6	-0.18528709
164	0x3e12a892	0.14322117
165	0xbd1b6025	-0.037933487
166	0x3d9f3771	0.077742465
167	0xbdc4fdb9	-0.09618706
168	0xbdf68004	-0.12036136
169	0x3d8b0187	0.06787401
170	0xbe2b980f	-0.16757225
171	0x3e4f06ce	0.2021744
172	0x3cb56f4e	0.0221478
173	0x3dea3262	0.11435391
174	0x3c8b369b	0.016993811
175	0xbdbbb694	-0.091656834
176	0x3d259a76	0.04043051
177	0xbe01edb6	-0.12688336
178	0x3bb58e3b	0.005540637
179	0xbd95debc	-0.07317874
180	0xbe0f723c	-0.1400842
181	0x3d099d3f	0.033597227
182	0xbe239767	-0.15975724
183	0x3d8c48c5	0.06849817
184	0xbdb02ee1	-0.086026914
185	0x3d3017ff	0.042991634
186	0x3d8d83c9	0.06909902
187	0x3e1cb5f7	0.15303789
188	0xbe86c0d5	-0.26318994
189	0x3e15051f	0.14552735
190	0x3d951fdd	0.07281468
191	0x3dd7ffbe	0.10546826
192	0xbdf25d43	-0.118341945
193	0x3da64e5b	0.08120414
194	0xbe5af399	-0.21381988
195	0x3d638e4f	0.055555638
196	0x3d88a778	0.06672567
197	0xbd23eb62	-0.0400194
198	0x3e0ec915	0.13943894
199	0xbd1b9de3	-0.03799237
200	0xbe2c43df	-0.16822766
201	0xbe07d632	-0.13265303
202	0x3e0a863b	0.13527767
203	0xbe9e9bfd	-0.30978385
204	0xbde5c31a	-0.11218853
205	0xbd551307	-0.0520201
206	0x3d756522	0.0599109
207	0xbd0aebfb	-0.033916455
208	0x3d8658b3	0.06559887
209	0x3e1fa9ea	0.15592161
210	0xbc866827	-0.016407086
211	0x3e222c9f	0.15837334
212	0x3e37d59f	0.17952584
213	0xbd43a3c5	-0.047763605
214	0xbdf1c4cd	-0.11805115
215	0xbcc5571e	-0.024089392
216	0x3e16b6a3	0.14718108
217	0xbe0f4db0	-0.13994479
218	0xbe2b94f3	-0.16756038
219	0xbdaf3ea9	-0.08556873
220	0x3c4a574d	0.012349916
221	0x3e596b1e	0.21232268
222	0x3d23ccc5	0.039990205
223	0x3e38243c	0.17982572
224	0x3e6c8758	0.23098505
225	0xbe1b51b8	-0.15167892
226	0x3d927d93	0.07152858
227	0x3e130504	0.14357382
228	0x3d223e60	0.039610267
229	0xbe032e22	-0.12810567
230	0xbc04baf2	-0.008101212
231	0x3d9cef0e	0.076627836
232	0x3cf53e3c	0.029936902
233	0xbe009127	-0.12555371
234	0xbe2aa661	-0.16665031
235	0x3dd02c91	0.1016475
236	0x3d947d2a	0.07250436
237	0xbc85fb7f	-0.016355274
238	0x3e6dcacb	0.2322189
239	0xbd9c02e7	-0.07617741
240	0xbe32943d	-0.17439361
241	0x3dddb13a	0.10824819
242	0xbe059c84	-0.13047987
243	0x3c6b0e8b	0.014346729
244	0xbe8b4baa	-0.27206165
245	0x3c957167	0.018242551
246	0xbd2b9063	-0.041885745
247	0x3d20258e	0.039098315
248	0xbc6c832e	-0.014435573
249	0x3d23aebc	0.03996156
250	0x3c31cef8	0.010852568
251	0xbcb23a20	-0.021756232
252	0x3d3177e1	0.043327216
253	0xbdc5c551	-0.09656776
254	0x3e78657e	0.24257466
255	0x3d8777ce	0.06614648

fc2.bias f4 [64]
0	0xbbc70172	-0.0060731703
1	0x3eacc0d7	0.33740875
2	0xbd914e5c	-0.07095024
3	0xbe4aabed	-0.19792147
4	0x3d15e888	0.036598712
5	0xbe136de7	-0.14397393
6	0xbd880b4b	-0.06642779
7	0x3e39027c	0.18067354
8	0xbe329d2a	-0.17442766
9	0x3cac865c	0.021060161
10	0x3e98aeeb	0.29820952
11	0x3e16d44c	0.14729422
12	0x3db985ef	0.09058749
13	0x3d30eb21	0.043192986
14	0x3e8baddd	0.27281085
15	0x3dccd145	0.100008525
16	0x3e4decbb	0.20109837
17	0x3c99f7a0	0.018794835
18	0xbd58c031	-0.052917663
19	0xbd12149b	-0.035664182
20	0xbe92ced8	-0.28673434
21	0xbca37156	-0.019951504
22	0x3c8b0c40	0.016973615
23	0xbdc1d739	-0.094648786
24	0x3ce76413	0.028245961
25	0x3db5602c	0.08856234
26	0xbd06ac86	-0.032879375
27	0x3e1e213e	0.15442368
28	0xbdae1f05	-0.0850201
29	0xbd19aa6b	-0.03751604
30	0xbd24cfa5	-0.040237088
31	0x3e4d290b	0.20035188
32	0x3d2f862a	0.04285256
33	0xbddd10d8	-0.10794228
34	0xbdb443a5	-0.08801965
35	0x3cbcced8	0.02304785
36	0x3e0015ca	0.12508312
37	0xbe08a117	-0.13342701
38	0xbc89fae5	-0.016843269
39	0x3df7160f	0.12064754
40	0xbce597e5	-0.02802653
41	0xbe270139	-0.1630906
42	0x3d3e4c72	0.046459623
43	0x3e5c42b6	0.21509823
44	0x3e12fa79	0.1435336
45	0xbd8c085d	-0.06837533
46	0x3dd5da9b	0.10442086
47	0x3d012115	0.03152569
48	0xbe2e131e	-0.1699948
49	0x3d8fb507	0.0701695
50	0xbd6c8e2e	-0.05775278
51	0x3d857f9d	0.06518481
52	0x3da677de	0.081283316
53	0xbd84e1e8	-0.06488401
54	0x3e931054	0.28723395
55	0x3ce01883	0.027355438
56	0x3d1eaabb	0.03873704
57	0xbdf00091	-0.11718858
58	0x3e5ef9eb	0.21775024
59	0x3e6dfedc	0.23241752
60	0x3a54697c	0.00081028766
61	0xbd4b9eeb	-0.049712103
62	0x3ed50353	0.416041
63	0xbe466314	-0.19373733

mean_out.weight f4 [6, 64]
0	0x3d0f8dfa	0.03504751
1	0x3d8029f3	0.06258001
2	0xbb782565	-0.0037864086
3	0xbdc7bdb7	-0.09752982
4	0x3df6211a	0.12018032
5	0x3bade5d6	0.0053069396
6	0xbd7a77bf	-0.061149355
7	0x3d1ebac0	0.038752317
8	0x3cc1bde1	0.023650112
9	0x3e1d9e8b	0.1539251
10	0xbd867cbd	-0.06566761
11	0xbd945bdd	-0.07244084
12	0xbc600a7f	-0.013674377
13	0xbccc07a9	-0.024905996
14	0x3dcd39a0	0.10020757
15	0x3d9620c5	0.07330469
16	0xbd063bae	-0.03277176
17	0x3e01b62f	0.12667154
18	0x3e2ee101	0.1707802
19	0xbda1584e	-0.07878171
20	0xbd1407e9	-0.036140356
21	0x3e1bbc7e	0.15208623
22	0xbdd8e0f5	-0.10589782
23	0x3c1750c7	0.009235567
24	0x3d714b44	0.05890967
25	0xbd2b519d	-0.04182588
26	0xbc1b03b4	-0.009461332
27	0x3d323cce	0.04351502
28	0xbc894568	-0.016756728
29	0xbd1d75a3	-0.038442265
30	0xbb8e5bee	-0.004344455
31	0xbd324059	-0.043518398
32	0x3db0bac0	0.0862937
33	0x3e2e157c	0.17000383
34	0xbcc1d361	-0.023660364
35	0xbac7943c	-0.0015226672
36	0x3d2ac111	0.04168803
37	0xbb26b222	-0.0025435765
38	0xbdf29165	-0.11844138
39	0xbb43abfb	-0.0029857147
40	0xbde31150	-0.110872865
41	0xbdc68529	-0.09693367
42	0xbd3dda1b	-0.04635058
43	0x3cf97b43	0.030454284
44	0x3d1d5522	0.038411267
45	0x3da46cad	0.08028541
46	0xbd79d2c4	-0.060992017
47	0xbcd8e3ba	-0.026475776
48	0xbd9497ce	-0.07255517
49	0x3dfb04f5	0.12256805
50	0x3ccd98cb	0.025097271
51	0xbda2380b	-0.079208456
52	0xbd6a51a1	-0.057206754
53	0xbd6bd6f7	-0.057578053
54	0x33e9955f	1.08770784e-07
55	0xbcb888ac	-0.022526108
56	0x3d8b4189	0.06799609
57	0x3d75f66a	0.060049452
58	0xbd89f8ff	-0.06736945
59	0xbd08d47e	-0.033405773
60	0xbc95c887	-0.018284095
61	0x3e349d0b	0.17638032
62	0x3e381195	0.17975457
63	0xbe30f465	-0.17280729
64	0x3e24b78b	0.16085641
65	0x3c63f603	0.013913634
66	0x3d817db4	0.06322804
67	0x3d94e390	0.072699666
68	0x3e193651	0.14962126
69	0xbd26348f	-0.040577468
70	0x3d10c0c1	0.035340074
71	0x3e17e10a	0.1483194
72	0xbbd6ff7c	-0.006561218
73	0xbe0825be	-0.13295648
74	0x3e4d6000	0.20056152
75	0x3d90bdc8	0.07067448
76	0x3d48c593	0.049016546
77	0xbe37e394	-0.17957908
78	0x3da1e1f0	0.07904422
79	0x3d858dab	0.06521162
80	0xbd352ebc	-0.044234022
81	0xbe198f14	-0.14995986
82	0x3e16a4e4	0.14711338
83	0x3cc49c20	0.024000227
84	0xbca5782d	-0.020198906
85	0xbd879c40	-0.06621599
86	0xbd5b8b07	-0.053599384
87	0x3d51fd7d	0.051267136
88	0x3d12c2c5	0.035830278
89	0x3dd64c74	0.10463801
90	0xbd81ec46	-0.06343894
91	0xbb9f8d78	-0.0048691593
92	0xbcbbf910	-0.02294591
93	0xbb57a4a6	-0.0032904535
94	0x3dbbda76	0.091725275
95	0x3d7e1761	0.062034015
96	0xbd9a46d1	-0.075330384
97	0xbd0c2cfc	-0.034222588
98	0x3d74d803	0.059776317
99	0x3c664242	0.014053883
100	0xba4f850d	-0.00079162495
101	0x3e591f51	0.21203353
102	0x3db27a65	0.08714751
103	0xbd9709a7	-0.07374888
104	0x3e05bcea	0.13060346
105	0xbdc1c101	-0.09460641
106	0xbc298676	-0.010346999
107	0x3d9c4907	0.07631116
108	0xbd5a7d0a	-0.053341903
109	0xbd0de478	-0.034641713
110	0x3d4a12c9	0.04933432
111	0xbca5aaef	-0.020223109
112	0x3cbe8e9b	0.023261359
113	0x3d630b7c	0.055430874
114	0xbbba447e	-0.0056844344
115	0x3da8985a	0.08232184
116	0x3d2c8938	0.04212305
117	0xbc099ab8	-0.008398704
118	0x3d8e4e6e	0.06948553
119	0x3d73a578	0.059483975
120	0x3d84ea2f	0.064899795
121	0xbda87ae9	-0.08226568
122	0x3da35f5e	0.07977174
123	0x3e0daab2	0.13834646
124	0x3d46d1d0	0.048539937
125	0x3ceb3d4d	0.028715754
126	0x3db90e59	0.0903594
127	0x3dcb6275	0.099308886
128	0xbcbad17a	-0.022804964
129	0x3d91737c	0.07102105
130	0xbc288bcf	-0.010287239
131	0xbcb6d993	-0.022320544
132	0xbdbfe475	-0.093697466
133	0xba130da7	-0.00056096393
134	0x3e13de1a	0.14440194
135	0xbdd3a4d4	-0.10334173
136	0xbe5c9f1e	-0.21545073
137	0x3dd8595d	0.1056392
138	0xbd5b4c94	-0.053539827
139	0x3d87dee3	0.06634309
140	0x3d256b91	0.040385786
141	0xbd49cc63	-0.049267184
142	0x3daf8b3f	0.08571481
143	0xbbf2db47	-0.007411394
144	0x3d764007	0.060119655
145	0x3a5bbc1a	0.00083822163
146	0x3d8fadf6	0.07015602
147	0xbbaca8d2	-0.0052691484
148	0x3cea8ad1	0.028630646
149	0x3e20665a	0.15664044
150	0x3c9267b5	0.017871717
151	0xbe03cd8c	-0.12871379
152	0x3ceeae45	0.029135833
153	0xbd99f787	-0.07517915
154	0x3c200f1e	0.009769229
155	0xbdf77f54	-0.12084833
156	0xbdc54fcf	-0.09634363
157	0x3dbcc33f	0.09216928
158	0xbde197c0	-0.11015272
159	0x3c18aecf	0.009319021
160	0xbc9cf02d	-0.019157493
161	0x3e0e7ee1	0.13915588
162	0xbbdc290d	-0.006718761
163	0x3cf3086a	0.029667098
164	0xbda8458f	-0.08216392
165	0x3df80f9d	0.12112353
166	0xbd6134b6	-0.05498191
167	0x3dd8e5e4	0.10590723
168	0xbd865fd3	-0.06561246
169	0xbdfddafc	-0.123952836
170	0xbc638691	-0.013887064
171	0xbd2a4496	-0.041569315
172	0xbb18d265	-0.0023318764
173	0xbd4772a1	-0.048693303
174	0xbd0c8dea	-0.034315027
175	0xbd076fdf	-0.033065673
176	0xbda828fd	-0.08210943
177	0x3d062cf9	0.032757733
178	0x3e0924e8	0.13392985
179	0x3d6c8883	0.057747375
180	0x3dd488e5	0.10377673
181	0xbd8c600e	-0.068542585
182	0x3d3a1888	0.04543355
183	0x3d42dc02	0.047573097
184	0xbd63e76f	-0.055640634
185	0x3e131362	0.14362863
186	0x3e3f1296	0.18659434
187	0x3ca043a2	0.0195635
188	0xbe0f0ff0	-0.13970923
189	0x3df3d876	0.11906521
190	0x3e254b58	0.16142023
191	0xbe20e812	-0.15713528
192	0x3d64008f	0.055664595
193	0x3d498307	0.049197223
194	0xbdd46cc8	-0.10372311
195	0xbd9e99c8	-0.07744175
196	0x39299714	0.00016173377
197	0xbce46954	-0.027882256
198	0xbda87b6c	-0.08226666
199	0xbde420ba	-0.111390546
200	0xbdf41682	-0.119183555
201	0xbd04fbe0	-0.03246677
202	0xbe2ed4df	-0.17073391
203	0xbd9cc1ad	-0.07654128
204	0x3cbaf827	0.022823406
205	0xbd88fb2d	-0.06688533
206	0xb9839e3a	-0.00025104155
207	0x3d9609d3	0.073260926
208	0x3e15f600	0.14644623
209	0xbc592a8c	-0.013254773
210	0xbe2fd4ef	-0.17171071
211	0xbc4b97d9	-0.01242634
212	0xbce9ea98	-0.028554246
213	0x3e25f220	0.16205645
214	0xbdb34ef8	-0.087552965
215	0x3d658d8c	0.056043193
216	0xbe09d2ce	-0.13459322
217	0x3ca4c910	0.020115405
218	0x3c38b5a2	0.011273773
219	0xbd827862	-0.063706174
220	0x3dae1d40	0.08501673
221	0x3cf0ded2	0.029403124
222	0x3dbe3ff0	0.09289539
223	0x3d31ae8c	0.04337935
224	0xbd800ac8	-0.06252056
225	0xbd811be6	-0.06304149
226	0xbd330b33	-0.043711852
227	0xbaf22f29	-0.001847719
228	0x3b31b8c0	0.0027118176
229	0x3dc18d79	0.09450812
230	0x3e135434	0.1438759
231	0xbdff5716	-0.12467782
232	0xbd511223	-0.051042687
233	0xbd2153ff	-0.039386746
234	0xbcb9bdea	-0.022673566
235	0x3c4a0518	0.012330316
236	0xbd45d5fb	-0.04829977
237	0xbe243461	-0.16035606
238	0x3cddbb5a	0.027066875
239	0x3b04c36c	0.0020258082
240	0x3dd48de0	0.10378623
241	0x3ce6057c	0.028078787
242	0xbdb38dbe	-0.087672696
243	0x3d95926c	0.073033184
244	0xbd69ebef	-0.05710977
245	0x3cdbb51d	0.02681976
246	0xbcc5e325	-0.024156163
247	0xbd8ff5d1	-0.07029308
248	0x3e59936a	0.2124764
249	0xbbf88cd0	-0.0075851455
250	0x3e390e9e	0.18071982
251	0x3e9ffd52	0.31247956
252	0x3d5dc786	0.05414536
253	0x3e24ee4b	0.16106527
254	0x3e07f347	0.13276397
255	0xbd5d3f21	-0.054015283

mean_out.bias f4 [6]
0	0x3e65d038	0.2244271
1	0x3d1646ab	0.036688488
2	0x3e02e684	0.12783247
3	0xbd22613c	-0.03964351
4	0x3d351f5f	0.04421937
5	0x3d05d881	0.032677177
