pretrained_model/Hopper-v2.pt (torch, 22675 bytes, 7 tensors)

log_std f4 [3]
00000000: c91c 0dc0 05cb 09c0 4f29 1cc0
-2.204882 -2.1530163 -2.4400213

fc1.weight f4 [64, 11]
00000000: b329 853d f875 86bd 8627 28be 385c 84be
00000010: 53ed dabe 7ff0 513e b3c6 fa3d 30f2 2a3e
00000020: 85a5 813d f45e 1fbe ab3f a93c cc5c 12be
00000030: 06e9 093f 716d acbd 1fe0 05bf 9928 3ebd
00000040: 6f5b 6e3d 346e 923d 785d 373f 43fa e23d
00000050: 66a4 17be 7c4d 25be 622f 65be 6cc6 27bc
00000060: 2b68 5ebe 3391 60be e859 023e 5bd6 173e
00000070: e83f 83be 42c2 653e 2866 1a3d 6064 2c3f
00000080: 9444 dfb9 ce99 c2be 1ef5 e4be c30c 48be
00000090: d0ab d23e 3e23 36bd 9ea3 c43d 9930 16be
000000a0: befa d83d d672 9bbe 8469 f03e c989 a9bc
000000b0: 29f9 c9bd 729b de3e 115d cbbd 0417 383f
000000c0: 6917 92bd 0c5f 2bbd 07bb d6be 1ce9 19be
000000d0: bab2 b53e 87e7 06be 9567 823e 72a6 bd3e
000000e0: 58aa 103e bb54 25be f42f 063f 04b3 ea3c
000000f0: c24d 55be 1228 043e e4f7 ca3e c2f9 e53e
00000100: 8420 96be f162 01bd 4b42 cabd b73a 333f
00000110: d296 84be 8f79 9cbe d0e0 663e a4f2 863a
00000120: f8cc b83d f054 d93e 1242 853d bb9a 7b3e
00000130: 200d 84bc d73d cf3d 0d96 58bf 31b2 ff3d
00000140: 7001 04bf e3d7 82be d364 f5bc 576e 0b3e
00000150: 2d70 ab3d 4a84 6dbe fb54 f7be 1d65 133d
00000160: ded5 42bd beec db3e 6013 913e 2539 bd3e
00000170: 3468 04bc 048f bcbc f6f4 3ebe f5fc 85bc
00000180: d52e 943e 96a6 993e e0be 86bd aca3 15be
00000190: bbb8 7e3f 0fcd 8fbc b79f b63e 042a 3a3e
000001a0: 99d1 a9bd cfc4 c4be 6d0d f13e 18f7 f5bd
000001b0: bfd9 903e 72b7 8e3c ebc7 aabd 6f16 1f3f
000001c0: 76ac ec3e d581 1cbf 0151 cf3d 8e38 123e
000001d0: 0670 a33e a1e5 d23e 8d57 99be 2bdf 30be
000001e0: 217e dabd 8656 a13d fd0c 723f 21eb 5ebe
000001f0: 4297 213e 3df7 86be ebd5 44be 1353 8bbd
00000200: efc2 ee3e 92ae a43e 84ca 8bbe 0c15 76bd
00000210: 2a5f 303e f801 b23d a722 803e 1220 273f
00000220: bb85 3a3d 920f b5bb 9cba 48be 0360 33bf
00000230: 8bb2 b0bd 0574 043e 0d10 6dbd 4cca 0a3d
00000240: 31c4 403f a492 043e 964e ea3e 5593 323e
00000250: c6ea fa3d d563 853e f95f 323e b3aa bf3e
00000260: 3736 1ebd 91c1 3f3d cd55 88be 7e5d d23e
00000270: df67 72be 33a6 38bd ed70 ae3d 169a 7d3d
00000280: 59bf 98be 5299 ad3e 5127 943d ba7e a83e
00000290: ad7e 18bd 19dc b43b 2e21 19bf f44b 58be
000002a0: b162 a3be f6e1 6dbe 9b7c 39be 0b4a 003e
000002b0: 0a26 1a3b e712 38be 382a 023f ba7a 013e
000002c0: 4d41 923e c6a3 083f 3310 11be 0a02 893f
000002d0: 9640 c83c 0d9e f83d 0d2a e2be 57ce c83d
000002e0: 7f55 90bb fa2e 9e3e f5f4 89be 3463 abbe
000002f0: 3359 f63d da01 babe afff 0abf 205b 48be
00000300: f2d4 e7bd 4063 8d3d 9a6f 4e3e 2e4e bdbe
00000310: 17e0 6d3d f119 363e 9270 9d3e d731 5fbf
00000320: 29e1 1b3e 9797 6dbe ed7c 743e 5d12 91be
00000330: 7e50 2f3e 66f6 4abe 158f 523d 77d4 61be
00000340: fbf7 233d f812 643d d651 d23e 78e8 993e
00000350: cc22 12bf 0f2e d13e 4d46 423e eddd 7e3e
00000360: e3ef 283f 59b9 3abe c7f2 9bbe 2b54 3e3e
00000370: bc24 7fbe f795 333f 950e bcbe 8c9f 0abf
00000380: 6d00 2c3e a910 0ebd ecbe 92bd 04dd 3c3f
00000390: dac6 7a3e 2eab af3e 09a6 4ebd 52d8 33be
000003a0: 4429 523e cf7f 1bbe 07f4 d6be 9e30 af3d
000003b0: 1f6c 3ebe 27a2 0e3e 9b26 c83e f6b0 3dbe
000003c0: 3f4a 00bf b3bb fe3c 83d9 c53d 6ffb fa3e
000003d0: 5803 6bbe acdd 39be 0815 b3be 53a4 04be
000003e0: 1616 b0bd b21e 1e3f f11e aa3e 89a3 673d
000003f0: 2399 9ebd 0626 143e 0f04 123f 27a7 4bbd
0.06502094 -0.065654695 -0.16421327 -0.25851607 -0.4275919 0.20501898 0.1224493 0.1669395
0.063303985 -0.15563565 0.020660242 -0.14293212 0.5387119 -0.08419312 -0.52295107 -0.046425436
0.058192667 0.07149926 0.71626997 0.1108289 -0.14808807 -0.16142839 -0.22381356 -0.010240179
-0.21719424 -0.21930389 0.12729609 0.14827864 -0.25634694 0.22437385 0.03769508 0.6734066
-0.0004258497 -0.3800797 -0.4471826 -0.19536118 0.41146708 -0.044467203 0.0960152 -0.14666976
0.105947 -0.3036105 0.46955502 -0.020695584 -0.09861977 0.4347797 -0.099298604 0.7191012
-0.071333714 -0.04183869 -0.41939566 -0.1503033 0.3548792 -0.13174258 0.25469652 0.3704105
0.14127481 -0.16145603 0.5241692 0.028649814 -0.20830444 0.1290591 0.3964225 0.44917113
-0.29321682 -0.0315885 -0.09875926 0.70011467 -0.25896317 -0.30561492 0.22546697 0.0010295701
0.0902347 0.42447615 0.065067425 0.24570744 -0.01611954 0.10119217 -0.8460396 0.12485159
-0.51564693 -0.25555333 -0.029955303 0.1361631 0.08371005 -0.23194996 -0.48307022 0.0359851
-0.04756724 0.42954057 0.28335094 0.3695766 -0.008081485 -0.023017414 -0.18648133 -0.01635597
0.2894198 0.30009907 -0.06579375 -0.14613217 0.99500626 -0.017553834 0.35668728 0.1818009
-0.08291931 -0.38431403 0.47080556 -0.1201002 0.28291127 0.017421458 -0.083389126 0.62143606
0.46225327 -0.6113561 0.10122872 0.14279386 0.31921405 0.41190818 -0.29949608 -0.17272632
-0.106685884 0.07877831 0.9455107 -0.21769382 0.15780357 -0.26360503 -0.19222228 -0.068029545
0.46633098 0.32164437 -0.27302945 -0.060078666 0.17223802 0.08691782 0.25026438 0.6528331
0.04553769 -0.0055255378 -0.19602436 -0.7006838 -0.08627804 0.12934883 -0.057876635 0.03388433
0.75299364 0.12946564 0.4576308 0.17439015 0.12251811 0.26052728 0.17419423 0.3743492
-0.038625922 0.04681546 -0.2662796 0.41086954 -0.23672436 -0.045080375 0.08517633 0.061914526
-0.29833487 0.33906037 0.072340615 0.32909185 -0.037230182 0.0055194017 -0.59816253 -0.21122724
-0.31911233 -0.23230729 -0.1811394 0.12528245 0.0023521208 -0.1797596 0.5084567 0.12644473
0.28565446 0.533749 -0.14166336 1.0703747 0.02444486 0.12139521 -0.44172707 0.09804981
-0.004404723 0.30895215 -0.269447 -0.33474123 0.12028732 -0.36329538 -0.5429639 -0.19566011
-0.11319913 0.06903696 0.2015976 -0.3697371 0.058075037 0.17783333 0.30749947 -0.87185425
0.1522261 -0.23202358 0.2387578 -0.28334323 0.17120549 -0.19820556 0.051405985 -0.22053705
0.040031414 0.055682153 0.4107806 0.30060172 -0.57084346 0.40855452 0.1897213 0.24889345
0.6599104 -0.18234767 -0.30458662 0.18586795 -0.24916357 0.70150703 -0.36729875 -0.541497
0.16797037 -0.034683857 -0.07165322 0.73774743 0.24489918 0.34310287 -0.050451312 -0.17562988
0.20523554 -0.15185474 -0.41983053 0.08554195 -0.18595932 0.13929044 0.39091954 -0.18524536
-0.5011329 0.031095361 0.09660628 0.49019954 -0.22950494 -0.18150967 -0.34976983 -0.1295331
-0.085979626 0.6176559 0.3322673 0.056552444 -0.07744052 0.1446763 0.5703744 -0.049719956

fc1.bias f4 [64]
00000000: ff4d 8bbd ef64 67be 7572 143d 5619 533e
00000010: 38ba 833e f9c9 09be da3f f6bd 2527 a1bd
00000020: 0e22 563e c715 50be 0eea a5be 6b4e 513d
00000030: b3f9 4dbe 14e4 183d e307 8e3d f99f 56be
00000040: dcec 803e 2b9f 133e 59c0 623d 7201 a3be
00000050: 5f20 273e cf2b 963e 2c6a 913d a672 f9bd
00000060: 172d ca3c f76a 52bd b8ab b93e 644d 823e
00000070: b9bb 38bd 696b 62be 1731 2a3e 0a91 693e
00000080: 331e e63d a40e 84be 60d6 893d 12eb 94be
00000090: 4541 cbbe d28c 84be 76a1 6b3d 78d4 1a3c
000000a0: 3d84 dcbe 6082 ed3d f53a ef3e fe65 6c3e
000000b0: 137f ea3d c2d6 18bd e271 7f3e 7e39 263e
000000c0: 2920 4c3e 059a c3bd 9f34 fabd 7731 953e
000000d0: e6f2 be3e 0cf2 483e ca75 6bbe fb4c 96bd
000000e0: e2e3 c1bd f1ac 1bbe 83d2 863e 986d e4bc
000000f0: c2d9 25bd d733 de3d b168 99bd 2e4c 093d
-0.06801986 -0.22597097 0.036241967 0.20615134 0.2572801 -0.13455953 -0.120238975 -0.07868794
0.20911428 -0.20320807 -0.32405132 0.051100176 -0.20114784 0.037326887 0.06935098 -0.20959462
0.2518071 0.14416187 0.05535922 -0.3183704 0.16320942 0.29330298 0.07100329 -0.121800706
0.024679704 -0.05137154 0.36263824 0.2544967 -0.0451009 -0.22111286 0.16620289 0.22809234
0.11236229 -0.2579242 0.06730342 -0.29085594 -0.39698234 -0.25888687 0.057527028 0.009450071
-0.4306964 0.11597133 0.46724668 0.23085782 0.11450019 -0.037314184 0.24945787 0.16232869
0.19934143 -0.09550861 -0.12217068 0.291393 0.37294692 0.19623584 -0.22994152 -0.073389016
-0.09467293 -0.1520269 0.26332483 -0.02788429 -0.040490873 0.108497314 -0.074906714 0.033519916

fc2.weight f4 [64, 64]
00000000: eae5 73bd 8190 a1bd bbc4 aabd d484 9c3d
00000010: 117d adbd 66a7 303c 07c9 8c3d 9735 a0bd
00000020: 58a6 773c 107f 5abe c114 1cbe 9d47 49be
00000030: 97a9 3d3d cb01 603d 929e 26be 8d6b 483d
00000040: 7971 61bd 3783 fabd 765f 943d 01b6 95be
00000050: fcd2 f2bd 69f4 43be 63cf 42be 78c1 08bd
00000060: a339 4b3e 185b efbd af25 50bd f302 473d
00000070: 2344 5d3e bc59 a8bd 19d1 f63d e2e4 bb3d
00000080: 3f50 8cbe 55d7 4d3e 6811 8b3e 34df 3d3e
00000090: 853f 8c3c 3ee7 dbbd 9c7d fdbd 0fe8 49bc
000000a0: b260 fbbe 286d 6fbd fd20 223e 70a2 cabd
000000b0: 97bd 323e b66c 9e3d f1be dfbd 6553 2d3e
000000c0: bda2 4a3e 3bb8 413e 3d16 a83d 1d10 1c3e
000000d0: 9a3d 813e 1501 033e 3898 bdbd 0760 57bc
000000e0: 33e7 a93c cdd1 553e 0f56 253c f4d6 74bd
000000f0: 834f 24bb f908 b8bc 1822 b63d 8217 2e3e
00000100: 44df 8ebc 61b2 43be ccbb 303e 7aae 223e
00000110: ee24 833d 6859 c0be 59ae b3bd c9b8 8dbc
00000120: 367c e93d 520e 04be 8e37 ecbd 5452 58be
00000130: c5bf 943e 9d8d ffbd b1c7 fdbd baa0 c9bd
00000140: c3bc 453e 1019 2abd b1bd 7ebe a826 7fbe
00000150: deb3 6abe bc2b a3be b952 5abe 4078 64bd
00000160: 43c1 a2bd 9d37 71be a149 c5be fc9c 16be
00000170: 11fd c73d 9cc4 293d 9d89 0d3c 2f01 c83e
00000180: 12dd 78be d273 933e 9cb6 283e a784 bebd
00000190: 943e 633e 8653 c4bd 4fa5 66be dcf9 843c
000001a0: db73 49be 1f56 5d3d 70e0 ad3d 9bbd 97bd
000001b0: b21f 07be d943 023e 5369 aabd a581 e93d
000001c0: e6fe 163e 4b09 49be 1aad 213d b856 7e3e
000001d0: a2c8 3a3e 373a d2bd a2a6 2b3e aee8 6cbd
000001e0: 3a3e 0ebd d5e2 9b3e 9906 773e 6322 ddbc
000001f0: 982f 133d 90cd 263d 8918 eb3d 7071 17bd
00000200: 107e 8dbd 036c 583e 237b 4cbd 9fa6 cd3b
00000210: 83cc f3bd b8e2 68bb 903d 5dbc 0e3a d4bd
00000220: 3a8b ea3d 1859 14be c1e0 30bc 4c72 8bbd
00000230: 2339 2ebe 4604 f03d ea6d 8fbc 6769 693d
00000240: e1bc b83d 9659 d33d 7c1b f23d 7c47 3a3e
00000250: fa0b 073e 8c39 73bd 1851 71bd a836 e3bc
00000260: 90f7 793b 140d f03c ec61 e4bd 345f ed3d
00000270: 7c40 23bd 33bb c8bd 2698 0e3d ec8e 813d
00000280: dccd b93d 37e0 c53d 9909 9abc 4d38 27be
00000290: 83a4 adbd 8c6d b93d e7e2 c8bc 0521 8b3d
000002a0: 8c00 9c3d 65bc f2bd 208e 97bd fd43 223d
000002b0: 503c 20bd 73b1 aa3d 69a9 e63d fffc c03d
000002c0: 4904 0d3e d36e 653d 0e4e 05be 1358 113d
000002d0: 8362 d13d c935 fb3d 7cc7 263e 0c6a 00be
000002e0: d1c8 733d 1f30 963d 0df8 98bc 53fd 62bd
000002f0: 7e0d 573e 10d2 463d 1890 e93c 0568 4cbc
00000300: 294d d73b 0111 b6bc 1304 a6bc 06d1 34bd
00000310: 2ecf 053e c541 3c3e 4158 f83d bb23 39bd
00000320: 9ecb c23d 4d09 ed3c 5f98 043e 3d05 c03d
00000330: 9613 c0bd 572c c4bc 3f8d a6bd 5690 bcbd
00000340: 3443 953d 3f49 38bd 4af4 b5bc 317a e23d
00000350: 8fbc 2c3e 3886 2f3c d0a3 db3d 621d 1a3e
00000360: 58d3 2cbd f80c b53c 0057 68bd 2b0c 08bd
00000370: 5b35 0bbe f57b 54be 6baa cdba 20ae 343d
00000380: 337a 663c d4c6 fbbd 36c6 20be 0dc2 a83e
00000390: 55c3 bebc 135a aebd 2cea 0ebe bd4f b73d
000003a0: 01f2 493d d4b7 8ebd ea3b a7bc bc91 f7bd
000003b0: b561 7abd 9e18 5ebc 02ff e73d 7588 0fbe
000003c0: c726 dfbd 5f12 d3bd 813b d23c 2390 b03d
000003d0: 7939 bf3d b730 1f3e a542 243d 5cd4 f13c
000003e0: 1fbf 323e 6094 1dbe b25b b73c 3760 d4bd
000003f0: 7246 18be 1d5b 19bd b7df 04be 0c3c b4bd
-0.059545435 -0.0788889 -0.083383046 0.076425225 -0.0847112 0.010782098 0.068742804 -0.078227215
0.015115343 -0.21337533 -0.15242292 -0.19656225 0.04630431 0.05468921 -0.16271427 0.048930693
-0.055039857 -0.122320585 0.0724477 -0.2924042 -0.11856648 -0.19136204 -0.19024424 -0.03338763
0.19846205 -0.11687297 -0.050817188 0.048586797 0.21608023 -0.082202405 0.12051601 0.09174515
-0.27404973 0.20101674 0.27161717 0.18542176 0.017120132 -0.10737465 -0.12377474 -0.0123233935
-0.4909721 -0.05845371 0.15832897 -0.09894264 0.17455135 0.07735579 -0.10925091 0.16926344
0.19788642 0.18917935 0.082073666 0.15240522 0.2524231 0.12793382 -0.09257549 -0.013145453
0.020740127 0.20880814 0.010091319 -0.059775308 -0.0025071807 -0.022465216 0.088932216 0.17001155
-0.017440446 -0.19111015 0.17259139 0.1588687 0.06403528 -0.37568212 -0.087734886 -0.017300026
0.114006445 -0.12896088 -0.11534034 -0.21125156 0.2905256 -0.124781825 -0.12391604 -0.09845109
0.19310288 -0.041527808 -0.24877049 -0.2491709 -0.22920176 -0.31869304 -0.21320619 -0.05577874
-0.07947018 -0.23556371 -0.38532737 -0.14708322 0.097650655 0.041447267 0.008638767 0.39063403
-0.24303082 0.287993 0.1647591 -0.09302645 0.2219184 -0.09586243 -0.22523998 0.016232423
-0.19673102 0.05403721 0.08490074 -0.07409211 -0.13195685 0.12721194 -0.0832087 0.11401681
0.14745674 -0.19632451 0.039471723 0.24837768 0.18240598 -0.1026501 0.16762784 -0.05783909
-0.034727313 0.30446497 0.2412361 -0.026993936 0.03593406 0.040723383 0.11479289 -0.036973417
-0.0690881 0.21134953 -0.04992212 0.0062759663 -0.11904242 -0.0035535526 -0.013503447 -0.103626356
0.114523366 -0.14487112 -0.010795773 -0.0680891 -0.17013983 0.11719565 -0.017508466 0.056985285
0.09020401 0.103198215 0.118216485 0.18191332 0.13188162 -0.059381053 -0.058915228 -0.027736023
0.0038141944 0.029303111 -0.111514896 0.11590424 -0.03985642 -0.098013304 0.03481307 0.06326088
0.09072468 0.09661906 -0.018803405 -0.16330071 -0.08478644 0.090540975 -0.024522258 0.06793407
0.07617292 -0.1185234 -0.07400155 0.03961562 -0.03912002 0.08334627 0.11262781 0.09423255
0.13771166 0.056013893 -0.13018057 0.035484385 0.10223868 0.12266118 0.16287035 -0.12540454
0.059517685 0.07333397 -0.018672967 -0.05541737 0.2100124 0.048540175 0.028511092 -0.012475972
0.0065704775 -0.022224905 -0.020265615 -0.044144653 0.13067314 0.18384464 0.12126208 -0.04520009
0.09511493 0.028935099 0.1294875 0.09375999 -0.09378736 -0.023946924 -0.08132409 -0.092072174
0.072882086 -0.044991728 -0.022211213 0.110584624 0.16868804 0.010713153 0.10724604 0.15050271
-0.04219374 0.02210091 -0.056723595 -0.03321473 -0.13594572 -0.20750411 -0.0015691047 0.04411137
0.0140672205 -0.12293783 -0.15700611 0.3296055 -0.023286501 -0.08513274 -0.13956517 0.08950756
0.04930306 -0.06968656 -0.020414311 -0.120883435 -0.061128337 -0.013555674 0.11327936 -0.14016898
-0.10896068 -0.103062384 0.02566314 0.08621242 0.09337134 0.15545927 0.04010262 0.029520206
0.1745572 -0.15388632 0.02238259 -0.10369914 -0.14870623 -0.037440408 -0.12975965 -0.088005155

fc2.bias f4 [64]
00000000: 0407 1b3d 4f71 b0bd f0c3 8ebd 9562 06bd
00000010: 5f7c 163e 3e3a c4bd d663 66bd bc4a 4abd
00000020: 0ef9 86be 0751 48bc 97df 62bd e74d 733e
00000030: 4fee 13be e9fa e1b9 fda9 683e b942 42be
00000040: a783 153d b8af 93bd 21e3 6a39 877e 7bbc
00000050: 7be1 e1bd 1135 a13d acfd 6f3d c71e eabd
00000060: fede dd3c 4d1a 78bd 1da4 e1bd 5a2e 2e3e
00000070: 3b03 303d 2067 f3bd fb02 9a3d 0caf f2bb
00000080: 9cd4 02bd 8aed a13d c49f 6b3d 77d4 8a3d
00000090: ae69 ebbd 342c f33d c979 aabb c071 6d3d
000000a0: 19dc debd edbe 5dbd 91e6 d73d 045b 2fbd
000000b0: 097e a7bd 4189 fc3d 7777 ca3d 9c3a d93d
000000c0: d853 db3d 57d2 dcbd 00e6 dabd aaf9 a4bd
000000d0: cb11 243d ceb5 9bbb 35a9 a53d 18e9 d03d
000000e0: 81f6 22bb bc44 6a3e d7e5 c63d e273 1d3d
000000f0: 2d4c b43d 6543 23bd 1f05 813d 5cef 2f3d
0.037848487 -0.08615362 -0.06970966 -0.03280886 0.14695881 -0.09581421 -0.056247555 -0.04938768
-0.2636189 -0.01222635 -0.055389013 0.23760186 -0.14446376 -0.00043102287 0.22721095 -0.18970765
0.036502507 -0.0721125 0.00022400591 -0.015349991 -0.11029335 0.0787145 0.05859153 -0.114316516
0.02708387 -0.060571957 -0.1101763 0.17009869 0.04297183 -0.11884904 0.075201 -0.007406121
-0.03194104 0.07906635 0.05752541 0.06778806 -0.11494766 0.118736655 -0.005202506 0.05796981
-0.10881824 -0.05413716 0.10542024 -0.04281141 -0.08178336 0.123308666 0.09886067 0.10606882
0.10709351 -0.10782307 -0.106884 -0.08055432 0.04005603 -0.0047518974 0.08088914 0.10200709
-0.0024866166 0.22877783 0.09711807 0.038440593 0.08803592 -0.039859194 0.06299805 0.04295288

mean_out.weight f4 [3, 64]
00000000: 8328 f13d c21f 053d 78f0 903b d985 0ebc
00000010: 49bd b3ba bd5c 8d3b 8cd5 0dbc 192a 88b9
00000020: b450 97bd 686c 523b 75b8 18bb 79e9 cbbd
00000030: f272 333b 6623 b2bb 1249 1a3e 9d9c a93d
00000040: 3565 35be 668c 9ebb bdc0 37bb 6cc2 1cbb
00000050: e0e6 3bbc 11ec 43bb 83d2 56bc 6125 b839
00000060: 819b b1b9 744a ee3b 26cb bbbc c74c 0bbd
00000070: 572f 2ab8 7f99 cdbd 892f 0e3b 45ad a8bb
00000080: 23ae 8dbc fdd9 153c 8eb1 ca3d 487a ea3a
00000090: f470 02bd 576d 7d3d 3a33 3e3d 60bd 8f3b
000000a0: 4f0c 0b3b d7ab b2b9 bf35 3f3d 5734 37bc
000000b0: 76a6 c2b8 d85d f73a b9c2 243c d147 febb
000000c0: 636f c7bb 9a2c a43b 9a7f bb3b 30e5 52bc
000000d0: 8756 3b3b d652 b43a 6a6b d03b 3d66 dbbd
000000e0: 694c 03bd 5445 153c b7c8 bbbb c010 7b3a
000000f0: 8164 bcbb bf02 cfba 6279 89ba 5b27 373b
00000100: 2e0d 0e3d f2bc 02be 2ee6 58bb 791a 453a
00000110: 7a1d 693d c540 e7ba d01c 70b9 8817 253b
00000120: 71b0 d53c fd32 803b b3b1 153b 24ec b83d
00000130: a3dd 17bb 4fe1 5bbb 40c6 fa3d 4b74 293d
00000140: 3984 183c 1f54 953b 8739 04bb 15b4 4bbb
00000150: 3b35 08be 3a75 1c3b 4a32 dc3b 962d 98bb
00000160: 4a3f 683b 5a40 b23a ecc1 533c 0be3 913d
00000170: 328a 703b e756 a3bc 2a4c 8cbb aaba a2b8
00000180: 7528 343c c022 d3bc 0917 2abd 1b02 143b
00000190: 4cb3 15be 0620 d43d 8556 4cbc c025 9f3b
000001a0: caec 60bb d645 87b8 9ed0 dc3d 46e9 17bc
000001b0: 5b78 3a3a 4073 2b3b 399c a1bb 3164 8abb
000001c0: 179f 5e3b e753 5abb bb56 ac3a ecb9 32bd
000001d0: 16b0 f73a e2f8 123b b434 713b 673d 47b9
000001e0: 4ebe 3abd e8d5 cc3d fb91 afba 5733 123b
000001f0: 355f d8bb dbce cfb9 556b 35bb 2fd0 82b8
00000200: 84f8 f93c ce0a b43d 3424 1cbc b5bd 063b
00000210: 49ae 983d 50de 0ebc 0cdf 19bc b179 703a
00000220: 1976 d7bd 4eea cfbb a0bf 9abb dc6b 0b3e
00000230: a5f8 99bb 7e7e 863b 78f2 533e e1e2 b33d
00000240: b96c b0bc 5af6 80bb 3f6f b33b 6e84 b03b
00000250: 97ec 27bc 7fac 853b 7052 243c aeb2 2cbb
00000260: fb2b c6bb d63f 063c de85 a03b f06a d4bd
00000270: 5f1f 44bb a34a 0c3d 8e72 b33b 8415 53ba
00000280: 5b30 123c cd42 083e 3848 353e 5d4a 06bc
00000290: 4506 f23d 29ef 143e e12b 17be 5d70 723b
000002a0: 92b9 563a af6a 94bb f810 05be bd22 843b
000002b0: da14 893b 0942 adbc b140 8cbb 2eb1 323c
000002c0: 2796 fbba 1343 5e3b c851 ab3b b414 bb3c
000002d0: 9276 f73a 1484 ca3a 1467 4c3b 6712 1d3c
000002e0: 7f7b d5bb e4a3 a53d 3dac e3bb 3b2d b23b
000002f0: 5da6 dfba a5b9 3bba 5adb 2d3b b216 6cbb
0.11775305 0.03250099 0.0044231974 -0.008698904 -0.0013713028 0.004314034 -0.008656871 -0.00025971307
-0.0738844 0.0032108072 -0.0023303304 -0.09956641 0.0027381745 -0.0054363487 0.15066937 0.08281825
-0.17714389 -0.004838514 -0.0028038465 -0.0023919595 -0.011468619 -0.0029895345 -0.013111713 0.00035123064
-0.0003387593 0.007272059 -0.022924017 -0.034008767 -4.0575247e-05 -0.10039043 0.0021695814 -0.0051476085
-0.017294949 0.009146211 0.09897147 0.0017889226 -0.031846 0.061871853 0.046435572 0.004386589
0.0021217053 -0.00034078836 0.046682116 -0.011181912 -9.2816466e-05 0.0018872572 0.010056191 -0.007760026
-0.0060862764 0.0050101997 0.0057219984 -0.012872025 0.002858551 0.0013757597 0.006360461 -0.1071286
-0.032055292 0.009110767 -0.005730714 0.0009577386 -0.0057492857 -0.0015793665 -0.0010488445 0.0027947042
0.034680538 -0.1276739 -0.0033096182 0.00075188983 0.056912877 -0.0017643204 -0.00022898917 0.0025191028
0.02608511 0.0039123283 0.0022841513 0.09029415 -0.0023172877 -0.0033551042 0.122448444 0.04137067
0.009308868 0.004557147 -0.002017589 -0.003108268 -0.13301556 0.0023873583 0.006719862 -0.004644106
0.0035438114 0.00135995 0.012924653 0.07123383 0.0036703465 -0.0199389 -0.0042815404 -7.759531e-05
0.010995974 -0.025773406 -0.041525874 0.0022584263 -0.14619178 0.103576705 -0.0124718 0.004856795
-0.0034320825 -6.4503096e-05 0.10781978 -0.009271925 0.0007113271 0.0026161224 -0.0049319533 -0.0042233695
0.0033969337 -0.003331417 0.0013148406 -0.04363434 0.0018897082 0.0022426178 0.0036805095 -0.00019000993
-0.045591645 0.10001737 -0.0013394946 0.0022308433 -0.0066031464 -0.00039636236 -0.0027682383 -6.23766e-05
0.03051401 0.08791123 -0.009530116 0.0020559852 0.07455117 -0.008719996 -0.009391557 0.0009173407
-0.10520572 -0.00634507 -0.0047225505 0.13615364 -0.00469883 0.0041044345 0.20697963 0.08783508
-0.021536218 -0.0039356174 0.005475908 0.0053868806 -0.0102492785 0.004079401 0.01002942 -0.0026351619
-0.0060477233 0.008193931 0.0048987707 -0.10371959 -0.0029925925 0.034250867 0.0054763025 -0.00080522173
0.008922662 0.13306732 0.1770333 -0.0081964405 0.11817602 0.14544357 -0.14762832 0.0036993243
0.0008191104 -0.0045293192 -0.12994754 0.0040324614 0.004183394 -0.021149652 -0.0042801728 0.010906501
-0.0019194529 0.003391449 0.005228255 0.02283702 0.0018879941 0.0015450739 0.003118937 0.009586907
-0.006514966 0.080879 -0.0069480226 0.005437521 -0.001706313 -0.0007161147 0.0026528449 -0.003602427

mean_out.bias f4 [3]
00000000: 6b68 efbc 0253 0b3d 8b5f 48be
-0.029224595 0.03401471 -0.19567697
