pretrained_model/Humanoid-v2.pt (torch, 119827 bytes, 7 tensors)

log_std f4 [17]
00000000: 7a2c 8bc0 acdc 6ebf ca62 acbf c559 27c0
00000010: e37b 8dc0 2e11 89c0 f6eb 0ac0 cbf6 21c0
00000020: 647b c2bf 5e2d bebf 9b61 32c0 b12e 03c0
00000030: afb7 85c0 e547 c1bf 3a76 a4bf d4c9 40c0
00000040: 5f90 a6bf
-4.3491793 -0.9330547 -1.3467648 -2.614854 -4.421373 -4.283347 -2.170652 -2.530688
-1.5193906 -1.4857595 -2.7872074 -2.0497248 -4.1786723 -1.5100065 -1.284858 -3.0123186
-1.3012809

fc1.weight f4 [64, 376]
00000000: 414a 323d 780a cebd e45b 18bd 2751 c43d
00000010: 8ab9 89bd 9fef be3d 5887 16ba ab12 5b3c
00000020: 3d98 0f3e 6a7d 47bd 329a 08bd 85dd 3e3d
00000030: 4a22 35bd 9f1c 11be 4f7d bdbc a868 67bd
00000040: b510 263c 6d31 9e3a 3cba 3d3d 4063 0abc
00000050: 252c ddbd c4f7 91bd 8f02 983d 1655 50bd
00000060: d957 753d 8a9e c63c 12c1 9b3d c2e7 3bbc
00000070: e4f2 dabd d4d7 1d3d 26d2 fc3c 6048 503e
00000080: ba42 653e c90b 96bd ac96 26bd 488d 72bd
00000090: 6831 80bd 2f24 253c 62e4 a33d 4dfe 50bd
000000a0: 4be6 ae3d 54ff bdbb 13e4 803c 5670 c4bc
000000b0: 1194 b4bb eb27 d93c 7341 e0bc 3c80 783c
000000c0: 8cfb 73bc e044 b9bb 3214 4bbd 126d c9bc
000000d0: 263f e53c c362 4dbc 8e66 523d 5552 403d
000000e0: 8c93 ea3b 699d 6cbd 3ebc 563e 3111 a3bd
000000f0: c5a2 39bd 4810 013e 45d2 103d 8a0d 7f3d
00000100: 04d0 f0bc e27d 0a3d c017 d23d f22e 413c
00000110: 4c87 37be 5466 3abb 6790 6a3d ae40 2fbd
00000120: 6b0f 72bb 467c 823d 05b4 473c 0bca a93c
00000130: bc8a 0bbe 90c9 67bc 1ccc 673b 50dd c93d
00000140: 6452 0bbd b787 02be e04b eebb aa15 5b3d
00000150: 52f7 e83c ae8e 96bd 709e 31be c162 9d3d
00000160: d3a0 44bd f5d0 19bc ad92 bfba 932b 60bd
00000170: aec3 bebc 51aa 153e e228 18bd 03b8 b63c
00000180: 172e ad3d 737b 853d 004b f53c aa6d a7bc
00000190: ad78 403d 0ffc 63bb 5f92 253d 2836 eebc
000001a0: b753 1abd d02c 273c ec24 043e d0c8 04bc
000001b0: bc6a 163e 75a4 cfba d1fe 373d 3054 5f3d
000001c0: e6f9 f53d 056e e3bd efd3 c53a a6c8 be3d
000001d0: a14e 953a ea36 9f3c 7b9a ab3c ae5c 9cbd
000001e0: 3f1c 333d 48ca 71bd f7cd ab3d 39e5 64bd
000001f0: a4ab cb3c cfe5 57bd 191c 96bd 6b26 99bd
00000200: 6ead 6b3d 07ac d23c 3683 05bd 0cfa d1bc
00000210: 5d6e 6f3d aa7b 053d ebbc e33c 439c 16bc
00000220: 781a 4c3c 878d 85bd 44a5 2abc 5e78 8bbd
00000230: f047 ccbd fa12 4cbd 26d2 d6bd 7296 e33c
00000240: 8695 343c 9d6a c53c 0cd4 8b3d 5df5 57bd
00000250: c1ae 273d 16e2 d53b 9b8d ec3a 2588 4d3d
00000260: 901a 6e3d ae7d 423d 9337 5cbd c331 53bd
00000270: 0510 d2bc 0956 c7bd 705c 713d b506 06bd
00000280: 1d47 3dbd 3b48 1f3d 0261 a83d a715 493d
00000290: d712 03bd 07a3 b3bc 7631 bc3b 11de 4bbc
000002a0: 7f10 91bd 6c11 c5bd 67a9 953c 0038 c63d
000002b0: c4d2 7abc d4d7 243b 5dff 3d3d 7dbe ae3c
000002c0: ecb0 ca3d e919 c43c 3ad3 2ebd 5424 0c3c
000002d0: 2364 353d 8703 f93c 259a c0bd 375f 09bc
000002e0: b502 1ebd ed1a 423d ff9d 36bd 73a7 24bd
000002f0: 3f87 e5ba a76f e4bc 2e2a 973c 5c2f 7ebc
00000300: 2cd0 06bc d50f ccbb 0cd1 d23d 2b73 85bd
00000310: 6491 c93d 4896 b93d cfde 073e d2d2 01be
00000320: 3d45 8abd 796b dcbc a871 063e ffbb 2d3d
00000330: a2c1 903d 24b3 a7bd b177 3cbd 695e de3c
00000340: 00b2 9c3d 549c 73ba 4ce4 ab3d fb9b 643d
00000350: c827 29be e936 e63d d219 f93d 0e9f 533e
00000360: 646e 8d3d 6246 163d c1ff 38bd 0488 8cbd
00000370: 54a1 5cbd fae0 573e 31b1 1dbc d0e9 193d
00000380: 6b45 5bba 3ac5 1abe b344 d8bc d587 eb3d
00000390: ad87 2f3e 2a4a ba3c c121 06bd 7287 853d
000003a0: e9e6 113e 55e8 6e3c 2241 efbc 66f6 083d
000003b0: 2b4c d4bd df85 a43d 3300 9f3b 6f89 7bbc
000003c0: cb39 4ebd cff0 853c e924 3cbd 1616 383d
000003d0: 359f 5bbd 4d84 09bc b1be a2bd d659 d0bc
000003e0: 939d 593d 77e8 ac3d 1685 153e 4ffb 943d
000003f0: 07a1 e9bc f333 ac3c 1a0a f93d 809b d9bc
0.043527845 -0.100605905 -0.03719701 0.09585791 -0.06724842 0.09323048 -0.00057422137 0.01337115
0.14022918 -0.04870359 -0.033350177 0.046597976 -0.044222154 -0.14171074 -0.02313104 -0.056496292
0.010135819 0.0012069173 0.046320185 -0.008446515 -0.107994355 -0.07127336 0.07422363 -0.050862394
0.05989823 0.02424552 0.076051846 -0.01146883 -0.10690859 0.038535908 0.030861925 0.20340109
0.22388735 -0.073264666 -0.040671036 -0.059216768 -0.062594235 0.010079428 0.08002545 -0.05102377
0.08540019 -0.0057982598 0.015733754 -0.023979347 -0.005510815 0.026508292 -0.027374959 0.015167292
-0.014891516 -0.0056539625 -0.049579807 -0.024588142 0.027984213 -0.012535754 0.051367335 0.046953518
0.0071587022 -0.057767306 0.20970246 -0.079622634 -0.045321245 0.12603867 0.03535678 0.06226877
-0.029396065 0.033811457 0.10258436 0.011790978 -0.17922705 -0.002844234 0.05726662 -0.042786293
-0.003693546 0.063713595 0.012188916 0.020726224 -0.13627142 -0.014147177 0.0035369461 0.09856665
-0.03401412 -0.12747084 -0.0072722286 0.053487457 0.028438244 -0.07351433 -0.17345595 0.076848514
-0.048004936 -0.009388198 -0.0014615856 -0.054729056 -0.023286667 0.14615752 -0.037148364 0.02230454
0.084560566 0.06517687 0.02994299 -0.020438034 0.046990085 -0.003478769 0.040422793 -0.029078558
-0.037677493 0.010203555 0.1290471 -0.008104518 0.14689153 -0.0015841859 0.044920746 0.054523647
0.12010555 -0.11104969 0.0015093068 0.093156144 0.0011391231 0.019435365 0.020947685 -0.07634865
0.04372811 -0.0590308 0.08388894 -0.055882666 0.024862118 -0.052709397 -0.07329578 -0.07478031
0.057538442 0.025716795 -0.032595836 -0.025631927 0.05845486 0.03258864 0.027800044 -0.009192529
0.0124574825 -0.06521135 -0.010415379 -0.068100676 -0.099746585 -0.049822785 -0.104893014 0.027781699
0.011021977 0.024098689 0.06827554 -0.05272423 0.040938143 0.0065271957 0.0018047573 0.050178666
0.0581308 0.04748314 -0.053763937 -0.05156113 -0.025642404 -0.09733207 0.058926046 -0.03272124
-0.046210397 0.038887244 0.08221628 0.049092915 -0.03200039 -0.021928323 0.005743201 -0.0124430815
-0.070832245 -0.096224636 0.018269254 0.0967865 -0.0153090395 0.0025153058 0.04638611 0.021331066
0.098970264 0.023938136 -0.04268191 0.008553583 0.04428495 0.03039719 -0.09404401 -0.008384517
-0.0385768 0.04738896 -0.04458427 -0.040198755 -0.001751162 -0.027885271 0.01845273 -0.015514221
-0.008228343 -0.0062274733 0.10293779 -0.06516107 0.09842184 0.09061867 0.13268588 -0.12678078
-0.067514874 -0.026906716 0.13129294 0.042415615 0.070681825 -0.08188465 -0.046012584 0.027144628
0.07651138 -0.0009293009 0.083931535 0.055812817 -0.16519082 0.11240942 0.12163128 0.20666143
0.06905821 0.036688216 -0.04516578 -0.068618804 -0.053864792 0.21081915 -0.009624765 0.037576497
-0.0008364531 -0.15114298 -0.026399946 0.11500517 0.171416 0.022740442 -0.032747034 0.06519975
0.14248241 0.014581759 -0.029205862 0.03343811 -0.103660904 0.080333464 0.0048523187 -0.015352591
-0.050348084 0.016350178 -0.045933638 0.044942938 -0.05361863 -0.008393359 -0.07946528 -0.025433462
0.05312879 0.08442777 0.1460155 0.07274496 -0.028519167 0.021020865 0.1216013 -0.026563406

fc1.bias f4 [64]
00000000: 82de 5c3c 59ca a03c f935 cf3c 2ce7 923d
00000010: db4a 283d e976 cf3d f6cb 593d cb4b c7bc
00000020: a9ba 11be ddc5 c73c 17a6 a9bd a14a 04be
00000030: 3c79 683d d2d2 3ebd 1b70 10be 19ec e33c
00000040: 944d 37bc a037 ab3d 2c65 003d d93d ccbd
00000050: 8885 2e3c b07f c4bc 599d 4a3d 938f 30bd
00000060: 1766 813c 6ce1 98bc 92bc 533d b5d0 ac3d
00000070: fb35 783d e871 9f3d 511f 9c3d 185b 1f3c
00000080: 457c 273d a6b1 0fbe 8a23 36bd 7416 94bc
00000090: 6ffa 513d b89b b2bd 8d25 d43a 839c 2c3d
000000a0: 3ab9 9d3d cb00 6dbd de73 023c 373b bc3c
000000b0: fb95 d5bc 976d a1ba 2e51 3cbd 770b 8ebd
000000c0: 34ae b9bd cbce 143c c431 b73b 8864 d03c
000000d0: 40e5 3f3d 0f0a 59bd 2c4c afbd dc92 983d
000000e0: 038c e2bb c45c dbbd c10c af3b a948 463d
000000f0: c13a 753a 7f08 82bd b209 02be 8a8b cbbd
0.013480784 0.019627737 0.02529429 0.07172999 0.041087013 0.10130102 0.053173028 -0.024328133
-0.14231361 0.02438634 -0.08283632 -0.12919094 0.056756243 -0.046587773 -0.14105265 0.027822541
-0.01118793 0.08360219 0.031346485 -0.09972734 0.0106519535 -0.023986667 0.049466465 -0.043105673
0.01579575 -0.018662177 0.051693507 0.08438245 0.060598355 0.07785398 0.07623161 0.009726308
0.040889997 -0.14032611 -0.044467486 -0.018077113 0.051264223 -0.08721107 0.0016185507 0.04214145
0.07701345 -0.057862084 0.007962195 0.022977455 -0.026072493 -0.0012315986 -0.045975856 -0.069357805
-0.0906643 0.009082506 0.0055906493 0.025438562 0.04684949 -0.05298811 -0.085594505 0.07449886
-0.0069136634 -0.10711053 0.0053420966 0.048409138 0.00093547633 -0.06349277 -0.12699011 -0.09938724

fc2.weight f4 [64, 64]
00000000: 792b b9bd bec1 903d 0483 983d 4b06 5e3d
00000010: 1b39 47bc 6e69 dc3c 4680 603d e3e5 613d
00000020: 3041 cdbd 3dde 9cbd dab5 f0bd c4ac 53bd
00000030: 1c7d 76bd cb65 e83d 3d0a d53d 93f8 69bd
00000040: 16f0 99bd d430 f33d 7897 143d 4d24 be3d
00000050: 5c03 143d 928e 90bd 011d bc3d c1b8 b6bd
00000060: 4302 7bbd 8429 a0bd 58a2 b13d f821 e5bc
00000070: d874 b83d d961 d03d 7064 9b3d bc65 8bbd
00000080: a854 d23a e773 0cbe ecd3 5fbd d2dd 9fbd
00000090: fdec c3bd 0538 83bc dfbf 193d 0807 90bd
000000a0: 3166 17bc 5c14 f33d 02f4 f0bd e3e6 f93d
000000b0: 9b94 833d 33b8 883c e8f0 86bd aded 0cbe
000000c0: cc0c a8bd ea8b 953d 6d69 9e3d 06ca 1fbd
000000d0: a7b9 d43d 3f43 fe3c a203 a8bd f4ac 003c
000000e0: c5a9 b73c 8c92 8bbc 8b74 88bd a4ff 69bd
000000f0: b473 52bd 4730 11bd 5f18 9d3d 5c98 883d
00000100: 19df 12be 3f49 89bc b723 a1bd f87d f23c
00000110: a6fa 233c 9f85 22be 2faf c03c a01c 973d
00000120: 6d23 c4bd b5a8 bfbd 9477 e7bc efb0 9f3d
00000130: 92b5 efbd 55d9 ebbd 11c6 25bc 976a ab3d
00000140: d302 5bbd 6f78 f83d 6cee 963d 2378 aa3d
00000150: 0746 b03d 9ff4 9f3d 90a7 8fbd b6ed 073e
00000160: 09da 11be b87f 8cbd ebc0 debd 7899 643c
00000170: 329c 68bc 5b8d 91bc e46c 093c df8a c03d
00000180: 909d a5bb cc3a e1bd 4544 4c3c 270a d43d
00000190: 3c43 763c 4659 ad3c 42f5 9a3d da3b 3e3d
000001a0: eefd b93d 5e03 2cbe b62c 373e 5024 bd3d
000001b0: 9b06 93bd 618b 063d 59f1 663c 90a9 8b3d
000001c0: b718 4d3d 61bc 69bc d1b4 d33d 2b97 6abd
000001d0: 8212 b03d f102 eb3d 9698 c8bd da6d 063e
000001e0: 0ffb 9f3d 22a2 fbbb 669f cfbd af67 4fbb
000001f0: 2ba0 cfbc 79f0 d4bc 382d 00be b2af 3d3d
00000200: e814 b23c 566e 023e 69a7 0fbc 3cec 16be
00000210: 763e f5bd 7d4f 723d a61a 363d 07f2 973d
00000220: f519 a4bd 4dad eabd 9730 143d 60a7 9a3c
00000230: 2d9c ff3d 3083 f53c 6335 143d 2680 8e3d
00000240: e619 6bbd 545b 8cbd cebb 6ebc 75af 703c
00000250: 38e5 1fbd 3e17 903c 12fd 98bc 0c55 acbd
00000260: c8c0 0a3e a894 b4bc 5f48 aa3d c00b d5bd
00000270: 3033 a43d 3b47 70bd e6e7 0fbc 65b0 443d
00000280: 6aaf 9d3b 2990 4ebd 8a22 f6bd 76e5 c53c
00000290: 1679 b73d 116a 19bc 9aa2 acbd 8145 98bb
000002a0: 54b8 c13d adfe a03d dff8 08be b2b9 853d
000002b0: f680 cbbd 05cd b5bd 6945 02be 2911 313b
000002c0: d727 ed3d 8b17 db3d 3976 54bd 94ee c63c
000002d0: 9f1a 24bc edc6 c13d b865 a4bd ba68 bebd
000002e0: dc0f a43d 0a6e 14bc eebf 2c3d 2963 993d
000002f0: ccaa debd 9a54 e43d b1cb 623d b14e e83d
00000300: 9874 e1bc 9bbb 04be d631 133d 11f3 643c
00000310: a3cc 63bd 8b70 32bd bd3a 65bd 4603 143e
00000320: 8729 c23b 8e20 de3b 853d 9c3d d83b b23d
00000330: 468e 103e b7b3 483d df94 31bd 0603 02be
00000340: 8f7c 9bbb d633 b1bc d11d 91bc 7243 babb
00000350: 93a6 0f3e 245f a2bc 6c90 b53d 6c4c afbd
00000360: ba03 a4bc 2931 9ebd 5b2d 403d 8a9e 253c
00000370: e40c 9abd 1ae8 25bd c165 a83d 8595 cb3d
00000380: 4992 163e 7c05 47bd 131b fabc 0ef7 5ebd
00000390: b97b c1bd 88f6 62bd e193 a63c bf55 39bd
000003a0: 5dd3 f5bc 05f0 403d 098b c03d 4a01 50bd
000003b0: bf73 2f3d 1ef7 e9bc 96c7 be3d 5f1c 423d
000003c0: e097 933c 451a 0d3e ed1d 8ebd f333 493d
000003d0: ab83 223e c510 8b3d a48f 37bd 0348 703d
000003e0: 48cb 4ebc 23d3 be3d d7dc 34bd 6c2f 38bd
000003f0: c06e 5e3c abee 6bbc 5b23 b73d 0d8a b13c
-0.09041495 0.070682034 0.07446864 0.05420522 -0.012159611 0.026905742 0.05480983 0.055150878
-0.10022199 -0.07659576 -0.117534354 -0.051678434 -0.060177907 0.113475405 0.104023434 -0.057121824
-0.07516496 0.118745476 0.036277264 0.092842676 0.036136016 -0.07058443 0.091852196 -0.08921958
-0.061281454 -0.078204185 0.08673543 -0.0279703 0.09006661 0.10174913 0.07587516 -0.06806514
0.0016046958 -0.13716088 -0.054645464 -0.07805981 -0.09566686 -0.016017923 0.0375365 -0.07032591
-0.009240673 0.118691176 -0.11765291 0.12202241 0.064248286 0.016689396 -0.06588918 -0.13762541
-0.08205566 0.07302077 0.07734952 -0.039011024 0.10386973 0.031037925 -0.08203818 0.007853735
0.02241982 -0.017037652 -0.06662854 -0.057128564 -0.051379874 -0.03544643 0.07670664 0.06669685
-0.14342918 -0.01675856 -0.0786814 0.029601082 0.01000849 -0.15871285 0.023521034 0.07378507
-0.095770694 -0.0935835 -0.028255261 0.07797419 -0.11704554 -0.11516062 -0.0101180235 0.0836994
-0.05346949 0.12132346 0.07369694 0.083236955 0.08607107 0.0781033 -0.07014382 0.13274273
-0.1424333 -0.06860298 -0.1087664 0.013952605 -0.014197396 -0.017767599 0.008387778 0.094014876
-0.0050541833 -0.10997543 0.012467449 0.10353499 0.015030678 0.021160733 0.075663105 0.046443798
0.09081636 -0.1679816 0.1788815 0.09235442 -0.07178994 0.032847766 0.014095628 0.06819451
0.050072398 -0.014266104 0.10337222 -0.05727307 0.0859728 0.114751704 -0.097947285 0.13127843
0.078115575 -0.00767924 -0.10137825 -0.0031647494 -0.025344929 -0.025993573 -0.1251725 0.046310134
0.021738485 0.12737402 -0.008767941 -0.14738554 -0.11974804 0.059157837 0.044459008 0.0741921
-0.080127634 -0.11458836 0.03617915 0.018878639 0.1248096 0.029969782 0.036183726 0.06958036
-0.057397746 -0.06853357 -0.014571143 0.01469027 -0.03903696 0.017589208 -0.01867536 -0.08414659
0.13550103 -0.022043541 0.08314585 -0.10402632 0.08017576 -0.05866168 -0.008783316 0.048019785
0.0048121708 -0.05043045 -0.120183066 0.024157267 0.08958642 -0.009363667 -0.08429451 -0.0046469574
0.09458986 0.078610756 -0.13376187 0.06529559 -0.09936707 -0.08876995 -0.1272179 0.0027018285
0.115798645 0.1069785 -0.05187056 0.024283685 -0.010016113 0.0946177 -0.08027214 -0.09297319
0.080108374 -0.0090594385 0.042175226 0.074896164 -0.10872421 0.11148949 0.055370037 0.11343134
-0.027521417 -0.12962191 0.0359362 0.013973967 -0.05561508 -0.04356436 -0.05596422 0.14454374
0.0059253606 0.006778783 0.076289214 0.087028205 0.14116773 0.048999514 -0.043354865 -0.12696466
-0.004745073 -0.021631163 -0.017714413 -0.0056843096 0.14028387 -0.019820757 0.08865437 -0.08559498
-0.020021308 -0.0772422 0.046918254 0.010108599 -0.0752199 -0.040504552 0.08222533 0.09940628
0.14704241 -0.048589215 -0.030530488 -0.05443483 -0.09447426 -0.05541089 0.020334186 -0.04524779
-0.030008012 0.0471039 0.09401519 -0.05078248 0.042834993 -0.028560217 0.09315412 0.047390338
0.018016756 0.13779552 -0.06939302 0.04912181 0.1587054 0.06790308 -0.04481472 0.058662426
-0.012621708 0.09317615 -0.04415592 -0.0449671 0.01357621 -0.014400165 0.089422904 0.021672273

fc2.bias f4 [64]
00000000: a6f7 f43d 004a e339 8f5c 7fbd 15c2 cfb6
00000010: d0e7 093c 44ea b93d 70f3 333c a958 9d3d
00000020: 012f aa3b 8151 7c3d b9af 423d a588 e0bd
00000030: 9eec eebd 4ac3 123d a0b5 2f3d 972a cf3d
00000040: 6b53 58bd 8725 cebd ea7d f43c dfae 86bd
00000050: 79c4 45bd c2fd 1e3d c9f1 363d dd03 413d
00000060: 00e3 4f3d 0ae3 ddbd 218a c7bd 2c2d f83d
00000070: b94d 28bc bd09 893d 0024 ac3c a5ad 173d
00000080: 2b00 79bc edf1 e4bb 9c49 c3bc 6810 05ba
00000090: 7e1a 7dbd b834 a93d 73ef aabd c323 c93d
000000a0: bee1 a6bd 23cb f13d 2071 aabc 6563 dc3d
000000b0: 9991 cc3d 5b02 223e 215a 5eb9 92cb 323c
000000c0: 9420 b43d cd7f 89bd 074e b03c 8c36 e03d
000000d0: 6dd5 cfbc 2e36 e73d 9ac0 8a3c ebc0 e8bc
000000e0: 10fb eebc 650c 213d 6a68 acbd a5c5 a4bd
000000f0: 948d 173d a299 69bd f731 bebc 8c0f 6dbd
0.11961298 0.00043351948 -0.06234413 -6.191675e-06 0.008417085 0.09077886 0.010983333 0.07682926
0.0051935916 0.061601166 0.047530863 -0.10963563 -0.11666225 0.035830773 0.04289782 0.10115545
-0.05281393 -0.100657515 0.029845197 -0.06576323 -0.048283074 0.03881622 0.044664178 0.047122825
0.050753593 -0.1083432 -0.09743143 0.12117991 -0.010272437 0.066913106 0.02101326 0.037030835
-0.015197794 -0.0069868476 -0.02383881 -0.0005075992 -0.061792843 0.082620084 -0.083464526 0.09821274
-0.08148526 0.118063234 -0.020805895 0.107611455 0.09988708 0.15821211 -0.00021205145 0.010912793
0.08795276 -0.06713829 0.021521581 0.10947904 -0.025370324 0.11289631 0.016937543 -0.028412303
-0.02917245 0.03931846 -0.08418353 -0.0804551 0.037000254 -0.05703128 -0.023217184 -0.057876155

mean_out.weight f4 [17, 64]
00000000: 995f 13bd 7ffb 273d 47d2 8cbc 6c5b 8a3b
00000010: 3c98 94bc cb13 37bc 0961 cdbc ae3e 9b3b
00000020: 69da 3b3d 969a 9c39 008e 50b9 dca5 36bb
00000030: aa15 1bba 087d 4c3a 1ae4 293a b79b 81bc
00000040: ff43 173c a953 d23c 9e3f 2f3a 0bda 2b3c
00000050: ac12 293c 73ff d739 5f92 eebc ec3d 5739
00000060: 4305 db3c e1f7 d7bc 78d2 81bb 3d85 803d
00000070: dfab 843a 3865 453c bae3 65bc 3048 0d3d
00000080: 9f22 44bd 004e 6bba c906 323a 18cc 973a
00000090: 2e48 f2bb 2573 c4bb db6d 65ba 44ce c2bb
000000a0: bd88 eb3a dada 97bd e020 543c dbdb 75bd
000000b0: f89d d33c 4ad8 09bb c155 43ba 8ecd cd39
000000c0: eedc 8bbb 95eb 2b3c c8a1 95bc 86eb 983c
000000d0: c46d c1bc 5142 e7bc 3037 6e3b b009 6b3c
000000e0: 2de3 89bc 6ab7 b639 9a28 ce3c c0cb 8f3c
000000f0: 99e3 42bb bfaa e9b9 87f4 0a3c bb1c cb3b
00000100: 7b2a 7f3d 8d93 21bd 71c8 243e 0fe2 12bc
00000110: 7a72 f2bd 6b0a 43bd cf1a 3e3d 3cee 203d
00000120: 6431 21bd 9fc5 9c3d 3cc6 073e 4de7 59bd
00000130: 1101 073e 760f 1d3e a0df dfbd ec80 b23c
00000140: c74d a4bd 8ece a43d 45c8 e73c 5ef9 f6bc
00000150: 109b 27bd 287f 7fbd efb4 da3d af5e d9bc
00000160: e5f1 a73d bbc8 d2bc 6f79 9d3d ee28 02bd
00000170: 7921 c8bc fb5a 0d3c a615 a4bd 3c09 053e
00000180: 2f21 c83d 9c3f 29be 77dc 2cbe 43a8 59bd
00000190: 5482 eebd 7993 91bd 16bb 8bbd 73eb 93bc
000001a0: bafd 433d 2525 28be 7d77 46bd 0d9f 4d3d
000001b0: a84f 09bd 5292 e13d 21b3 363e 017a 5b3d
000001c0: 6c3f c83d ca8d 073e 8150 d9bc 6241 babb
000001d0: 2ea7 14be 8c16 943d 09d0 db3d 5676 e03d
000001e0: b5e1 953d 1502 12bd e2cb a4bd 0fbd bcbd
000001f0: a3b8 3cbd 2e87 8c3d 144d 2a3e 1fc8 833b
00000200: 2c37 02bd 6886 81bd c48c 16bd 3d70 a0bd
00000210: 46a8 08be 5db3 7c3d 9048 debd 3a5f 8bbd
00000220: 3781 213d 6fd5 383d e770 ef3c 3617 493d
00000230: b8ac 733b a209 09bd 419d c9bd 862b 48bd
00000240: f6ff 133d 3a8f b43d df1c a0bc 9ed9 d7bc
00000250: c26d 8ebd ade1 823d b4de d9bd 618e 35bd
00000260: e962 32bd 2afa ac3d 12da e03b 50f2 b1bc
00000270: 7229 20bd ee76 52bb 3907 6abd a459 d2bd
00000280: 342c 553b 9527 353d 8135 733d bc0e 763b
00000290: 237b 073c 6676 72bc 7f25 95bd da01 11be
000002a0: 54d0 ebbd 1486 04be 89e1 aabd 51a3 c2bd
000002b0: 5d14 4c3d bb9c 853d 9094 81bd 0666 3c3d
000002c0: 7303 153d 3b27 e93d 5b79 9abd ae0d 34bd
000002d0: 098c 603d d0a1 273d bce7 eabd b6d1 243d
000002e0: 0321 143e 1f53 35bc 1aa5 8d3c 148f 333d
000002f0: b0f6 5ebd ae93 123c be51 49bd c8c9 163d
00000300: daee 44bc f5e6 78bd 9699 6ebd 7301 7abd
00000310: c3f8 f4bd c1de a43c 1b12 d0bc 1415 c43c
00000320: 0ec2 95bd 1cd5 8ebc 4f94 633d b4ad c93d
00000330: 96e2 d0bc d48b c43c 6bdf cb3c 4e73 6dbd
00000340: ab06 6c3d 79fd 8d3c 30b5 0cbd 4d84 8dbd
00000350: ce1d 42bd 5172 21bc b9f6 b23d 304d 18bb
00000360: a8b8 8ebc d0a3 36bd 40a9 173c 898a 0a3e
00000370: 545d 003b 369b 383d 71ad 2f3d b16b 0e3d
00000380: 83a0 72bd c0a7 96bc 9ec0 b73b 896a a93b
00000390: e5c6 2e3d ed41 5ebb ce45 d13c 75fa 3dbc
000003a0: 272c 70bd 47b0 a93c 1dae aa3d 6cc3 f4bc
000003b0: 36f1 cebb bae5 993c de48 3b3d 291e 0b3d
000003c0: a748 933d 7653 47bc b186 b2bc 2270 5a3d
000003d0: aef0 6e3d 5480 f6bc 302a d1bc 15ee 3f3c
000003e0: 2045 943d 13e2 76bc 41a5 33bd f69c c83d
000003f0: ef9c 8c3c 0f41 363a 3b10 983d bfb8 75bd
-0.03597984 0.04101133 -0.017190112 0.004222324 -0.018138997 -0.011174153 -0.025070684 0.0047376966
0.04586259 0.00029869814 -0.00019889325 -0.0027869856 -0.0005916009 0.00078006135 0.0006480828 -0.015821321
0.00923252 0.025674658 0.00066852 0.010488997 0.010319393 0.0004119832 -0.02912253 0.00020527065
0.026735907 -0.026363315 -0.0039618574 0.06275413 0.0010122022 0.012048058 -0.014031345 0.03449267
-0.04788458 -0.00089761615 0.0006791172 0.001158121 -0.0073938584 -0.0059951716 -0.00087520265 -0.005944999
0.0017969828 -0.074147895 0.012947291 -0.060024124 0.025832161 -0.002103346 -0.0007451438 0.00039253797
-0.00426828 0.010493179 -0.01826562 0.018666994 -0.02361191 -0.028229864 0.0036348812 0.014345571
-0.016831959 0.000348504 0.025165845 0.01755321 -0.002973771 -0.0004456844 0.008481151 0.0061984933
0.062296372 -0.039447356 0.16092087 -0.008965029 -0.11838241 -0.047617357 0.046412285 0.039289698
-0.039353743 0.07654881 0.13259214 -0.0531991 0.13184 0.15337929 -0.10931325 0.02178999
-0.08022647 0.0804721 0.028293738 -0.030148204 -0.040919363 -0.062377125 0.106790416 -0.026534406
0.082004346 -0.025730481 0.07689177 -0.031777315 -0.024430024 0.008627648 -0.080119416 0.12991804
0.09771954 -0.16528171 -0.16880976 -0.053138983 -0.11645952 -0.07108206 -0.06822793 -0.018056607
0.047849394 -0.1642042 -0.048453797 0.05020051 -0.03352323 0.110142365 0.1784177 0.05358315
0.09777722 0.13237682 -0.026527645 -0.005684064 -0.14516899 0.07230863 0.10733039 0.10960071
0.07318441 -0.035646517 -0.080467 -0.092157476 -0.04607452 0.06861721 0.16630965 0.004021659
-0.031790897 -0.06324464 -0.03675534 -0.07833908 -0.13345441 0.06169449 -0.10853684 -0.068052724
0.03942987 0.04512542 0.02922864 0.0490944 0.0037181806 -0.033456452 -0.09844447 -0.048869632
0.036132775 0.08816381 -0.019545017 -0.026348885 -0.069545284 0.063907005 -0.106381804 -0.044325236
-0.04355136 0.084461525 0.0068619335 -0.021721989 -0.039102025 -0.0032114345 -0.057135794 -0.10271004
0.0032527568 0.0442272 0.059377197 0.0037545403 0.008269104 -0.014798736 -0.072825424 -0.14160863
-0.11514345 -0.12941772 -0.08343799 -0.095038064 0.049824107 0.065240346 -0.06327164 0.045995735
0.036380243 0.11384436 -0.07542678 -0.04395836 0.054821048 0.0409258 -0.11469981 0.04023906
0.14465718 -0.011067181 0.01729064 0.04383762 -0.05443448 0.008946342 -0.04915022 0.036813527
-0.012019837 -0.060767133 -0.05825194 -0.06103654 -0.1196151 0.020125749 -0.025399258 0.023935832
-0.073124036 -0.017435603 0.05556136 0.09847584 -0.02549867 0.023992456 0.024886807 -0.05797129
0.057623547 0.01733278 -0.03435248 -0.0691 -0.047391705 -0.009853915 0.08738465 -0.0023239367
-0.017422035 -0.044589818 0.009256661 0.1352941 0.0019586878 0.045069896 0.042890016 0.03477067
-0.059235107 -0.018390536 0.0056076786 0.0051701707 0.04267015 -0.0033913807 0.02554598 -0.011595358
-0.058635857 0.020713938 0.08333991 -0.02987834 -0.0063153757 0.0187863 0.04572379 0.03396431
0.07191592 -0.012165895 -0.021792741 0.053329594 0.058335 -0.030090488 -0.025532812 0.011714478
0.07239747 -0.015068549 -0.04385877 0.09795563 0.017164676 0.00069524435 0.07424971 -0.05999064

mean_out.bias f4 [17]
00000000: 8ec7 953d 56a2 b93c 2052 cebd a3f2 2b3b
00000010: 7bf6 69bd 3dc7 57bc 4e42 923d 7dee 20be
00000020: 1da8 c8bd dd2f 3e3d f13b 103e 00a9 c5bc
00000030: 5385 bb3b 99ba d83d e777 60bd be80 923d
00000040: ffc1 363e
0.07313453 0.022660416 -0.10074258 0.0026237152 -0.057119828 -0.013170061 0.07141553 -0.15715976
-0.0979769 0.046432365 0.14085366 -0.024128437 0.0057226806 0.10582466 -0.054801848 0.07153462
0.17847441
