pretrained_model/InvertedPendulum-v2.pt (torch, 20371 bytes, 5 tensors)

fc1.weight f4 [64, 4]
0.26437142 -1.0424018 -0.04262295 0.100347035 -0.3953568 1.0315844 0.029146643 0.25819802
0.09179239 0.79102373 0.13383226 0.07868037 0.114523776 -1.0579747 -0.0730582 -0.06563928
0.1455116 0.6004245 0.4748473 0.19673155 -0.21734335 -1.1531097 -0.1742043 -0.24957019
-0.26844496 0.5854937 0.49012437 0.23020785 -0.46296963 1.0163335 0.29686025 0.46725163
0.32347244 -1.2843447 -0.53523105 -0.2623578 0.45358974 0.7051974 0.20632373 -0.17885299
0.21784267 -0.741695 0.34974477 0.17065875 -0.36966085 0.99088264 -0.053016797 0.0556573
-0.16766593 -0.84248585 -0.5538756 -0.27885225 0.4249166 0.6866803 0.5990593 0.42124736
-0.07224956 -1.239156 0.28846383 0.12107773 -0.2135062 1.0348151 0.44015434 0.41048747
-0.32138142 -0.95244795 -0.00795419 0.018181255 -0.44969422 -1.2052234 0.18071803 -0.109238185
0.3042705 0.87315637 0.20855366 0.14958367 0.23785588 1.0344685 -0.22204101 0.13690376
-0.43189725 -1.1926413 -0.006480689 -0.100372374 0.23039067 -1.0503752 -0.5288708 0.29882157
-0.06444015 1.1176953 0.14992394 -0.27832624 0.19954789 -0.045335438 -0.4978789 -0.2071667
0.1069642 -0.58066726 -0.33124027 -0.13602613 0.56642884 0.8132117 0.3591989 0.27107716
-0.36430454 -1.289733 0.4099851 0.026849257 0.436097 0.9377174 0.29931355 0.3618802
0.22565804 -1.2718534 0.14763293 0.16487348 0.3945406 1.2122675 -0.38246247 -0.3033842
-0.39967 -0.6551806 0.3170171 -0.2384756 0.4096044 -0.8834336 -0.47385046 -0.19833891
0.489598 1.1441718 -0.21036671 0.070406534 0.53543615 1.2468963 0.43781424 0.3824273
0.4108173 0.31140387 -0.6263954 -0.27446827 -0.30443567 -0.8509116 -0.29914635 0.12888755
0.24933998 0.6798833 0.25073406 0.16214052 0.36631027 1.1082572 0.021716418 0.45933172
-0.09565798 -0.8205953 -0.5654535 -0.3451461 -0.38838992 -1.0392132 0.22315525 -0.11802435
-0.40587312 0.88744205 0.35215208 0.2366024 0.0017543761 1.0133693 -0.28292534 -0.121501185
-0.46122742 -1.0059607 -0.19122425 0.18980335 0.29101285 0.8647401 0.6428901 0.49372587
0.27583513 -0.6367544 -0.07364525 -0.042264666 -0.034832746 0.9021589 -0.4345607 -0.21343347
-0.034634843 1.4285007 -0.50159985 -0.30507228 -0.08671718 -1.1003678 0.056083433 -0.1552254
-0.32744074 -0.7279607 0.123602875 -0.22749738 0.34302887 0.53048664 0.39064983 -0.22126758
0.026737023 -1.1473472 0.2805908 -0.15267734 0.50197846 -0.20864676 -0.13873857 -0.07283817
0.124239065 1.1024059 0.14982906 0.16384181 -0.41551766 1.1294354 0.5429369 0.4602055
0.1338163 -1.225751 0.0069974083 0.18137039 -0.12299901 1.4327712 -0.47302234 -0.25289354
0.07582667 -1.095032 -0.23589788 0.3699632 0.53619266 1.1288555 -0.103070445 -0.35522765
0.55509245 -0.57505244 -0.10091987 -0.08013903 -0.27219298 0.9689444 0.12461949 -0.28421137
-0.50508267 -0.7335487 0.1921346 0.05879285 0.07727131 0.7753829 -0.6319102 -0.310188
-0.23403893 1.2478439 0.51200145 -0.121729486 0.22533852 0.9220239 -0.20003897 -0.16122545
00000000: b15b 873e 6c6d 85bf 6795 2ebd bf82 cd3d
00000010: 356c cabe f50a 843f f1c4 ee3c 8832 843e
00000020: a6fd bb3d 8880 4a3f 530b 093e 2c23 a13d
00000030: 718b ea3d b76b 87bf 8a9f 95bd e36d 86bd
00000040: fe00 153e 6cb5 193f 2f1f f33e ff73 493e
00000050: 418f 5ebe 1999 93bf 9d62 32be 548f 7fbe
00000060: 9e71 89be eae2 153f 95f1 fa3e 9bbb 6b3e
00000070: 5b0a edbe 3717 823f 11fe 973e 9b3b ef3e
00000080: 2e9e a53e 6865 a4bf e704 09bf c353 86be
00000090: ea3c e83e d187 343f 8746 533e 3d25 37be
000000a0: 2612 5f3e b9df 3dbf bf11 b33e 2bc1 2e3e
000000b0: 3044 bdbe 7caa 7d3f 2428 59bd e9f8 633d
000000c0: 9eb0 2bbe 27ad 57bf cbca 0dbf b9c5 8ebe
000000d0: ab8e d93e 48ca 2f3f f35b 193f bcad d73e
000000e0: 94f7 93bd aa9c 9ebf 88b1 933e 9af7 f73d
000000f0: 5fa1 5abe d274 843f e95b e13e 6a2b d23e
00000100: 1b8c a4be a1d3 73bf 4a52 02bc dbf0 943c
00000110: 523e e6be c344 9abf 260e 393e 45b8 dfbd
00000120: 58c9 9b3e 2d87 5f3f 178f 553e 762c 193e
00000130: 7e90 733e 7769 843f b85e 63be 8030 0c3e
00000140: a321 ddbe 78a8 98bf f65b d4bb 0890 cdbd
00000150: 88eb 6b3e b272 86bf 1464 07bf 24ff 983e
00000160: 33f9 83bd a410 8f3f a985 193e c780 8ebe
00000170: 4856 4c3e a7b1 39bd fce9 febe 8223 54be
00000180: 0c10 db3d 9ca6 14bf 5398 a9be 6f4a 0bbe
00000190: 7b01 113f a42e 503f ebe8 b73e a0ca 8a3e
000001a0: 2086 babe f915 a5bf 91e9 d13e f9f2 db3c
000001b0: 1b48 df3e 3f0e 703f a03f 993e 5d48 b93e
000001c0: e712 673e 18cc a2bf 162d 173e 98d4 283e
000001d0: 3a01 ca3e 952b 9b3f 1fd2 c3be 2d55 9bbe
000001e0: 8ca1 ccbe eab9 27bf 1150 a23e f332 74be
000001f0: abb7 d13e b428 62bf 879c f2be 5b19 4bbe
00000200: 97ac fa3e 3974 923f 5f6a 57be 4d31 903d
00000210: 5812 093f 4c9a 9f3f 3029 e03e 83cd c33e
00000220: a556 d23e 5470 9f3e 735b 20bf 1b87 8cbe
00000230: fede 9bbe 58d5 59bf b629 99be 19fb 033e
00000240: fb52 7f3e d50c 2e3f 3760 803e 2a08 263e
00000250: 058d bb3e 5fdb 8d3f a1e6 b13c 872d eb3e
00000260: 55e8 c3bd 8912 52bf 90c1 10bf fdb6 b0be
00000270: 0bdb c6be f004 85bf cf82 643e c0b6 f1bd
00000280: 9ace cfbe 672f 633f 474d b43e e647 723e
00000290: 18f3 e53a 16b6 813f 97db 90be 9dd5 f8bd
000002a0: 0026 ecbe 52c3 80bf 4ad0 43be cf5b 423e
000002b0: a3ff 943e 9b5f 5d3f 7294 243f a3c9 fc3e
000002c0: 433a 8d3e 5602 23bf 52d3 96bd b71d 2dbd
000002d0: c8ac 0ebd e3f3 663f bd7e debe 4e8e 5abe
000002e0: 44dd 0dbd 1cd9 b63f d968 00bf 6f32 9cbe
000002f0: c798 b1bd dad8 8cbf beb7 653d 68f3 1ebe
00000300: 50a6 a7be a25b 3abf 8123 fd3d 13f5 68be
00000310: 7ba1 af3e f9cd 073f 4103 c83e f893 62be
00000320: 9a07 db3c 46dc 92bf 99a9 8f3e 7357 1cbe
00000330: a981 003f 7fa7 55be 7c11 0ebe 2e2c 95bd
00000340: 0d71 fe3d a31b 8d3f ca6c 193e 26c6 273e
00000350: bbbe d4be 5791 903f eafd 0a3f 0ea0 eb3e
00000360: 2407 093e 69e5 9cbf 844a e53b 29b9 393e
00000370: e8e6 fbbd 0c65 b73f fc2f f2be 437b 81be
00000380: 034b 9b3d 022a 8cbf 378f 71be d16b bd3e
00000390: ec43 093f 567e 903f 9916 d3bd 66e0 b5be
000003a0: 8a1a 0e3f a336 13bf 14af cebd ef1f a4bd
000003b0: e15c 8bbe bd0c 783f 8138 ff3d 2784 91be
000003c0: 194d 01bf d9c9 3bbf efbe 443e c5d0 703d
000003d0: 6c40 9e3d 7e7f 463f dec4 21bf f6d0 9ebe
000003e0: e7a7 6fbe 59b9 9f3f 8712 033f 4f4d f9bd
000003f0: 24bf 663e c209 6c3f 04d7 4cbe 4918 25be

fc1.bias f4 [64]
0.1669237 0.28540367 0.026447129 -0.051959213 0.10654655 0.2925604 -0.022070441 0.42611212
0.052363805 -0.20030794 0.2677108 -0.19037266 0.20530574 -0.143914 0.0733415 0.15284958
0.023141488 0.27929074 -0.077108175 -0.12807529 -0.3642619 -0.05078725 -0.12392435 -0.13803114
-0.040535 0.1161026 0.32316008 0.14373305 -0.018824114 -0.11008547 -0.37717414 0.12377061
-0.04139754 0.100285105 -0.0745762 -0.22085385 0.16071086 0.27806953 -0.033569217 -0.233185
-0.089411974 -0.10399827 -0.27017424 -0.15112045 0.10955255 -0.17949486 0.050544787 -0.11392568
-0.06427282 -0.0040406846 -0.36708075 0.1629252 0.09472893 0.39781585 -0.014406947 -0.13239454
-0.405098 -0.06703368 0.19798644 -0.17971738 -0.08070122 -0.12390594 0.22580752 0.07199357
00000000: 0cee 2a3e 6e20 923e a6a7 d83c 2fd3 54bd
00000010: 1435 da3d 7aca 953e 12cd b4bc 5e2b da3e
00000020: 6e7b 563d 861d 4dbe 6411 893e 0df1 42be
00000030: ab3b 523e 315e 13be 1134 963d 9a84 1c3e
00000040: 3893 bd3c 32ff 8e3e e4ea 9dbd 2b26 03be
00000050: 8980 babe 4b06 50bd 0dcc fdbd 0958 0dbe
00000060: 0708 26bd 33c7 ed3d 3d75 a53e c22e 133e
00000070: 0735 9abc 7e74 e1bd f81c c1be 727b fd3d
00000080: 7890 29bd 4762 cd3d 68bb 98bd 8327 62be
00000090: 6391 243e 215f 8e3e e07f 09bd 0cc8 6ebe
000000a0: a01d b7bd 0cfd d4bd 4754 8abe 52bf 1abe
000000b0: 165d e03d 80cd 37be 0d08 4f3d de51 e9bd
000000c0: 78a1 83bd b867 84bb 02f2 bbbe ddd5 263e
000000d0: 3e01 c23d 85ae cb3e 1e0b 6cbc 6f92 07be
000000e0: 0169 cfbe f448 89bd f5bc 4a3e d507 38be
000000f0: ae46 a5bd 66c2 fdbd 163a 673e 5d71 933d

fc2.weight f4 [64, 64]
-0.017942974 -0.059592675 -0.28890744 0.1797525 0.003884721 0.023877336 -0.040889148 -0.020008126
0.05133151 -0.048672903 0.16336153 0.053119864 0.13599378 -0.1488061 0.17369547 -0.11943915
0.07460924 0.015567356 -0.065647304 -0.037652105 0.06601573 0.0075303544 -0.16815087 0.024791552
-0.015894443 -0.21786639 0.03451021 -0.1898868 -0.063496105 -0.16281396 0.098615594 0.01352162
-0.21529318 -0.29292238 -0.009438794 0.16427973 0.034246713 -0.03131704 0.19650877 0.08851147
-0.069304444 -0.31150037 0.20108624 -0.09429454 0.12630187 -0.048283525 -0.22327414 0.054086983
0.05407534 -0.092170425 -0.06407219 0.03347332 -0.23710138 -0.11287871 0.12176078 -0.09254861
0.0021581026 -0.00072641904 0.15111549 -0.0037733088 0.20306529 -0.17283584 0.022606298 -0.12245922
-0.07374125 0.11165928 0.33023846 -0.11563025 -0.012744003 -0.12129743 -0.012657689 0.12829813
-0.040691342 -0.027194018 0.04991509 -0.010550349 0.05738221 0.11851353 -0.07070482 0.1316326
-0.24625093 -0.025905741 0.12777516 -0.027499681 -0.13978851 -0.16089848 -0.020471534 0.06593055
0.13572815 0.20730199 -0.12608284 0.21240479 0.06121752 0.032987744 0.006298073 0.07685416
0.11228654 0.36972177 0.06259737 -0.11320757 -0.027044754 0.1971826 -0.10418438 -0.0057180063
-0.018953063 0.1899896 -0.15993997 -0.0061872145 0.014952113 0.09721606 0.04730587 -0.17815338
-0.047684353 0.09301759 -0.010264518 -0.09001235 0.2907098 0.048249237 0.07371308 0.16616274
-0.113755025 0.24374758 -0.14527334 0.06845949 -0.26369384 0.11259542 -0.04660908 0.13064325
-0.06317919 -0.13251022 -0.12203152 0.2193726 0.11411479 0.0683942 0.18612841 0.052158512
-0.006285001 -0.12811588 0.14053556 -0.05891977 0.09936818 -0.19355448 0.26042098 -0.04231096
0.13658486 0.16522919 -0.19933712 -0.10207546 0.11353814 -0.009131502 -0.08210737 -0.16649051
0.07203081 -0.16224681 0.20903115 -0.06372743 -0.10594006 -0.05018785 0.06471707 -0.13850643
-0.1556627 -0.38644424 -0.075923726 0.118382104 0.0524929 -0.14309087 0.06693493 0.21349744
0.0874804 -0.05354473 0.18099256 -0.14499955 0.048874423 -0.17052624 -0.061308432 0.15870517
0.12070021 -0.13043563 -0.048725348 -0.027612578 -0.3293129 -0.15575401 -0.071097 -0.12735613
0.008349519 -0.18416993 -0.09692521 -0.12866226 0.3757552 -0.09888392 -0.12670903 -0.0800732
-0.05439018 0.17010102 0.25977176 -0.32444763 0.03829343 -0.07944504 -0.064293586 0.121275134
-0.29591596 -0.107511446 0.2094684 -0.12413359 -0.032489236 -0.07021032 0.035220467 0.19580026
-0.118255265 -0.075073466 0.061265316 0.023929792 -0.1273248 -0.07651709 0.012686442 -0.2977844
-0.014892559 0.2807377 -0.06405795 0.32228124 0.028661435 -0.109531984 -0.113784745 -0.049989983
0.050789256 0.45064571 -0.2647441 -0.015645696 0.08832186 0.19831413 -0.30807447 -0.15945578
0.067460835 -0.25615215 -0.24650899 0.081792906 0.18276495 -0.25040865 -0.04186448 -0.20109656
-0.07642847 0.03931736 -0.10847114 -0.059764028 0.32365263 0.14642774 -0.14695801 -0.17100893
-0.074778974 0.04633034 0.16627891 -0.0030920396 -0.22125417 -0.19440973 0.11068395 0.060279187
00000000: 25fd 92bc 7317 74bd adeb 93be 0a11 383e
00000010: ce96 7e3b 679a c33c 617b 27bd 15e8 a3bc
00000020: fd40 523d 3d5d 47bd 3f48 273e 3794 593d
00000030: f441 0b3e a060 18be 3add 313e 839c f4bd
00000040: bbcc 983d 390e 7f3c 1872 86bd 1839 1abd
00000050: 4133 873d 31c1 f63b be2f 2cbe a717 cb3c
00000060: 1035 82bc 5e18 5fbe 945a 0d3d af71 42be
00000070: 3f0a 82bd b4b8 26be f9f6 c93d c989 5d3c
00000080: d175 5cbe ecf9 95be 2ca5 1abc f238 283e
00000090: 4846 0c3d 4c46 00bd 9839 493e 8045 b53d
000000a0: 7def 8dbd fa7c 9fbe 8de9 4d3e 7f1d c1bd
000000b0: 4755 013e f2c4 45bd faa1 64be 508a 5d3d
000000c0: 1b7e 5d3d d9c3 bcbd 4838 83bd 521b 093d
000000d0: b4ca 72be f42c e7bd b75d f93d 208a bdbd
000000e0: f46e 0d3b 286d 3eba 05be 1a3e 9e49 77bb
000000f0: 59f0 4f3e e1fb 30be d830 b93c e6cb fabd
00000100: a705 97bd 9fad e43d 0415 a93e 8dcf ecbd
00000110: 39cc 50bc c96a f8bd 3262 4fbc 9660 033e
00000120: f7ab 26bd fdc5 debc c473 4c3d 5fdb 2cbc
00000130: 9c09 6b3d 39b7 f23d b0cd 90bd b2ca 063e
00000140: 3429 7cbe 4738 d4bc 7ed7 023e 0347 e1bc
00000150: b824 0fbe 92c2 24be ebb3 a7bc 9906 873d
00000160: 52fc 0a3e f946 543e dc1b 01be a480 593e
00000170: 39bf 7a3d 281e 073d 1160 ce3b b765 9d3d
00000180: 7cf6 e53d 2c4c bd3e 0d33 803d 5fd9 e7bd
00000190: f68c ddbc 3cea 493e 9f5e d5bd 1d5e bbbb
000001a0: 7443 9bbc a28c 423e 4ec7 23be 1ebe cabb
000001b0: b5f9 743c 3719 c73d cdc3 413d d76d 36be
000001c0: ab50 43bd 0280 be3d 822c 28bc 6558 b8bd
000001d0: ead7 943e fea0 453d e2f6 963d 9126 2a3e
000001e0: 65f8 e8bd f798 793e 89c2 14be 7d34 8c3d
000001f0: e102 87be 6d98 e63d 2ae9 3ebd 58c7 053e
00000200: 1764 81bd c2b0 07be a9eb f9bd 36a3 603e
00000210: 04b5 e93d 4212 8c3d 7298 3e3e 2aa4 553d
00000220: 69f2 cdbb cf30 03be 8ee8 0f3e db55 71bd
00000230: 8b81 cb3d 2533 46be e655 853e 424e 2dbd
00000240: e7dc 0b3e d731 293e 081f 4cbe f00c d1bd
00000250: af86 e83d 4c9c 15bc e927 a8bd 7d7c 2abe
00000260: e484 933d 0724 26be 430c 563e 8783 82bd
00000270: 1af7 d8bd c691 4dbd 628a 843d a1d4 0dbe
00000280: 0b66 1fbe 05dc c5be e67d 9bbd 5172 f23d
00000290: cc02 573d 6a86 12be 2e15 893d 139f 5a3e
000002a0: ed28 b33d b851 5bbd 1d56 393e c37a 14be
000002b0: 8c30 483d 6e9e 2ebe 8d1e 7bbd 9c83 223e
000002c0: ac31 f73d eb90 05be 3b94 47bd c633 e2bc
000002d0: b39b a8be fb7d 1fbe 4e9b 91bd a569 02be
000002e0: 6ccc 083c 0b97 3cbe b980 c6bd 0ac0 03be
000002f0: fc62 c03e a783 cabd 03c0 01be 6bfd a3bd
00000300: 3dc8 5ebd f62e 2e3e ce00 853e 001e a6be
00000310: 92d9 1c3d 15b4 a2bd 5bac 83bd 195f f83d
00000320: 4c82 97be f62e dcbd e27e 563e c039 febd
00000330: 6f13 05bd 6eca 8fbd 5643 103d dd7f 483e
00000340: d12f f2bd 1ec0 99bd 57f1 7a3d 6908 c43c
00000350: 6f61 02be feb4 9cbd cbda 4f3c 3277 98be
00000360: ebff 73bc dabc 8f3e d130 83bd 0c02 a53e
00000370: 63cb ea3c 4e52 e0bd fa07 e9bd 4cc2 4cbd
00000380: 6508 503d 09bb e63e 8a8c 87be 672b 80bc
00000390: 17e2 b43d dc12 4b3e f0bb 9dbe 6048 23be
000003a0: e828 8a3d 6026 83be da6c 7cbe 0a83 a73d
000003b0: bc26 3b3e 9035 80be 177a 2bbd 42ec 4dbe
000003c0: 8886 9cbd 3d0b 213d 1e26 debd 20cb 74bd
000003d0: ccb5 a53e 27f1 153e 297c 16be f71c 2fbe
000003e0: b825 99bd e2c4 3d3d 0545 2a3e d1a3 4abb
000003f0: 7490 62be 5813 47be 44ae e23d 4fe7 763d

fc2.bias f4 [64]
-0.04685885 -0.06362715 -0.07188233 0.10039172 -0.041288074 0.00337311 -0.017305262 -0.12391292
0.028483788 0.010184147 -0.101439364 -0.060827814 0.051518105 0.063284025 0.09699616 -0.022943417
-0.09171934 0.094699 0.090870455 0.012390482 -0.07311715 -0.00026052998 -0.002817431 0.056812294
-0.13163167 0.020668626 -0.031626545 0.12894133 -0.047967594 0.11579012 0.10857829 0.09068462
-0.029816275 -0.03310108 0.028154809 -0.09733324 -0.0032341357 0.030078739 -0.01522976 0.17587636
-0.15343258 -0.14579956 -0.051282752 -0.092885375 0.048256844 0.04949927 -0.12224678 -0.06555157
-0.109399594 0.04110441 0.024631891 0.009288556 -0.0153773045 0.07578032 0.10943757 -0.11562114
-0.07155893 0.08431696 -0.09055718 0.0011879773 0.04647217 -0.08083692 0.11783202 -0.1291751
00000000: 11ef 3fbd f44e 82bd 0b37 93bd 2d9a cd3d
00000010: af1d 29bd 650f 5d3b c4c3 8dbc 0fc6 fdbd
00000020: d556 e93c 69db 263c 71bf cfbd 9626 79bd
00000030: a604 533d 0e9b 813d eca5 c63d d5f3 bbbc
00000040: 59d7 bbbd 8df1 c13d 4a1a ba3d 7301 4b3c
00000050: 72be 95bd be97 88b9 a6a4 38bb 02b4 683d
00000060: 74ca 06be 4051 a93c d68a 01bd 3209 043e
00000070: ab79 44bd 5f23 ed3d 4b5e de3d dcb8 b93d
00000080: 4341 f4bc 0095 07bd eaa4 e63c a656 c7bd
00000090: cbf3 53bb b067 f63c 3e86 79bc ef18 343e
000000a0: 6e1d 1dbe 7b4c 15be dd0d 52bd b03a bebd
000000b0: f8a8 453d bfbf 4a3d 855c fabd e73f 86bd
000000c0: e50c e0bd 195d 283d d2c8 c93c 072f 183c
000000d0: 17f1 7bbc b632 9b3d ce20 e03d c7ca ecbd
000000e0: 7d8d 92bd 5fae ac3d 0b76 b9bd e7b5 9b3a
000000f0: 9a59 3e3d d48d a5bd ea51 f13d 7a46 04be

mean_out.weight f4 [1, 64]
-0.02697139 0.043612022 -0.12175679 0.17833085 -0.024937093 0.018899558 -0.15944885 -0.014895376
0.042149324 0.072518595 0.045847166 -0.048481915 0.08596848 -0.078028135 -0.13290396 0.13556628
-0.08841934 -0.02562748 0.009299372 0.010336523 0.01017279 -0.0049244436 -0.07938355 0.0787507
-0.061104633 0.031420078 -0.075566255 0.28060928 0.020544764 -0.04330391 0.281434 0.2270679
0.030038226 0.123761564 -0.022813514 -0.09569342 -0.0017899848 -0.09000306 -0.07856137 0.15984301
-0.21804793 -0.12997411 -0.056303944 0.062737815 -0.12754263 0.029604785 -0.08144499 -0.08470338
0.1375629 -0.016148714 0.17311133 0.048159346 0.04306398 -0.17029214 -0.051170588 0.023259426
-0.043727785 0.058204796 -0.20020938 -0.07535993 0.045969807 -0.004601535 0.075350724 -0.10471627
00000000: 1bf3 dcbc 85a2 323d a05b f9bd 5d9c 363e
00000010: e048 ccbc 3fd3 9a3c 8f46 23be bc0b 74bc
00000020: c5a4 2c3d a184 943d 3dca 3b3d f994 46bd
00000030: 3e10 b03d 37cd 9fbd fa17 08be e3d1 0a3e
00000040: 3315 b5bd b9f0 d1bc 655c 183c 855a 293c
00000050: c6ab 263c 3a5d a1bb d893 a2bd 0c48 a13d
00000060: da48 7abd 57b2 003d 7bc2 9abd 05ac 8f3e
00000070: 7e4d a83c 715f 31bd 1e18 903e 7d84 683e
00000080: ba12 f63c b476 fd3d 68e3 babc e9fa c3bd
00000090: ec9d eaba 8653 b8bd c9e4 a0bd e3ad 233e
000000a0: f547 5fbe ef17 05be f79e 66bd af7c 803d
000000b0: 899a 02be bc85 f23c a2cc a6bd f778 adbd
000000c0: 4add 0c3e 4f4a 84bc 1944 313e bc42 453d
000000d0: db63 303d 1061 2ebe 4098 51bd 8d8a be3c
000000e0: e81b 33bd 2768 6e3d b003 4dbe 4f56 9abd
000000f0: d64a 3c3d 79c8 96bb 7b51 9a3d 7c75 d6bd
