pretrained_model/InvertedDoublePendulum-v2.pt (torch, 22163 bytes, 5 tensors)

fc1.weight f4 [64, 11]
00000000: 13dc af3c 0e2c ffbd f1dd d3be 1812 613e
00000010: fdc4 69be e540 81bb 6db3 553d f014 973d
00000020: 4c00 82be a537 17bd e044 ab3d ad1a ba3d
00000030: 6444 813e 3714 543f 5c2d 893c c796 cc3b
00000040: 04ac 113d 043b 1a3e a1fd 8f3e 90cc 053d
00000050: 86f5 e5bd bd78 3abe b1ee 9ebc e4be 9fbe
00000060: 14c8 35bf a3b0 0cbe 0b3d 123d 43ac 4bbd
00000070: 9430 13be 7e99 c2bd 06bb fb3d a06e 923e
00000080: baca 4b3e 3f60 a9be 4cb8 b0be 86f0 5dbf
00000090: 8116 5a3e f91f dbbd 52a4 2d3d 2abe 3abe
000000a0: fb15 5c3e fe8a 37be 9989 673e 42fd 693b
000000b0: 2e2a 06be 76d3 35bd b908 96bf db00 1e3d
000000c0: 2b53 0abe 6ddd 00be 0f57 a7be 283a 88be
000000d0: fd58 d73e 5c19 96bd 93c3 993e 5591 f23d
000000e0: 875f fa3c b9b3 8f3f 7876 1b3e 1c1c 523d
000000f0: 11ba 79be d777 8d3e 52e5 a33e 57b5 503e
00000100: 4b12 2dbe 6d49 4bbd 1472 d33d 66df 813d
00000110: e445 18be c10e 3abe eb57 553e 6716 073b
00000120: 6dc1 e03d a18c 8d3d e8d6 713e bcc7 873d
00000130: 5a85 e03d 9e41 0d3e 39dd 37bc 882a 873f
00000140: 2786 76bd 9370 b4bd 69ef 76bc 4e53 dd3d
00000150: 88bd 6a3e ee80 d8be 4c3c 89be 67b2 603e
00000160: 1757 32bd 5225 06be 7659 54bf 6a9b 78be
00000170: 6753 403d 1072 a0bd 55ed 82be bb47 8bbe
00000180: 3f65 b13e f436 5d3d 3155 03be f44d 283d
00000190: 829e a13e 8636 663f 7e4b 2f3e 5da6 003e
000001a0: 2bac 30be 93a4 21be 1c4b e23e 3492 d2bd
000001b0: 30a2 533e c6ed 7f3d 4ddb 2c3e 510f da3e
000001c0: 1820 9a3f 122e 2bbe 2d5a 873d 8f41 a23e
000001d0: d76b 913e d1e6 8b3e 6b5e d6be 9954 5ebe
000001e0: c8b8 3abe 31c4 983c ebdf 093f b3a7 a53e
000001f0: e5d0 3a3e 8367 16be f419 853c 6e29 aa3d
00000200: 03ed ba3d 1535 cf3e 87be 3fbe de00 863d
00000210: 951a 903c 2947 ae3e af44 9bbe e56e e23d
00000220: a887 a63d 7e9e 88bd 2cd9 93be aef6 0fbe
00000230: 20a8 9dbe 40cf 0fbd 5f3f 3dbe f73d 4c3e
00000240: 4ac9 bf3e 2d24 b23d ca26 153a 283b 7fbb
00000250: 531d 5f3e af42 4f3e 8f6a 1dbc 4885 013f
00000260: 43c6 0ebd a2b7 29bc 2780 42be 2fe6 1dbf
00000270: 90af dcbe 232b 2bbe e3e3 383e ea32 f0bd
00000280: af19 46be e8fa 01be 0e97 b73d 13f9 473e
00000290: afc4 1fbe 22f5 e83c 811f c93d 456c 85bf
000002a0: dd8d 6dbe 898b e4bd 093f 84bd 7828 0f3e
000002b0: e159 6cbd f850 263e d014 9a3e fb74 963e
000002c0: a05b c33d 7496 b2be 6065 49bf d85a 2c3e
000002d0: 9592 12be 4f51 31be 42b6 8dbe 6d56 59be
000002e0: 527d 89be e2da 8d3e 9c75 85be baea acbe
000002f0: d000 ec3e 98d0 1f3f 0322 34bc e48a 6dbe
00000300: 318d 31bc 71ba 303e 06cb 503e db0f c9be
00000310: 65fd 103e 2d5a 463e 9687 9d3e e9b5 20bd
00000320: 459c 883f 34e7 59be 0cb3 843e ae17 07bd
00000330: 55e1 403e 6436 6a3e 400d a8be 919f 1dbc
00000340: 0af1 513d 3444 573e 04ff 793e 1f9a 853f
00000350: e13f 7abe 9582 763e 489e ab3e 0c05 ac3e
00000360: d59d 973e e33d d1be cee7 e4bd 841d 883e
00000370: 8933 6ebe 14e6 0b3e 99f6 a4bf 7c0c 6dbe
00000380: 8bf5 0b3e 2339 8bbe 9d2d b1bd 3c0f 483d
00000390: fcb0 f43e faff 913e e399 7abd 89ec 96bd
000003a0: 503e 1f3f f7f7 883d 95a3 6fbe c50f 05bd
000003b0: 6ee4 3d3d d3f4 683e 301e 3a3e c3f3 0dbd
000003c0: c698 7dbe 8a5c d8bc a109 793e f72e bb3d
000003d0: b51e 443f 8539 b03d 59a2 5cbe f2d8 65be
000003e0: 4f56 ddbd 5996 d33e 6c2b 813e 1abe d1bd
000003f0: 1c8f 5d3c 8150 8d3e 975b a4bb 1655 2a3f
0.021467244 -0.12459575 -0.41380265 0.21979558 -0.22829051 -0.0039445036 0.052173067 0.073770404
-0.25390851 -0.0369183 0.08362746 0.09087119 0.2524749 0.82843345 0.016745262 0.00624356
0.035564438 0.15061575 0.2812319 0.03266579 -0.112284705 -0.1821012 -0.019400926 -0.31200325
-0.7100842 -0.13739257 0.035702746 -0.04972483 -0.14374 -0.095019326 0.12291531 0.28600025
0.19901553 -0.33081242 -0.34515607 -0.86695135 0.21297647 -0.10699458 0.042393036 -0.18236604
0.2149276 -0.17924115 0.22611083 0.0035703932 -0.13102028 -0.044391118 -1.1721412 0.038575035
-0.13508289 -0.12584467 -0.32683608 -0.2660687 0.4206008 -0.07329056 0.30032024 0.11844126
0.03056313 1.1226722 0.15181911 0.05129634 -0.24387385 0.27630493 0.32010895 0.20381676
-0.1690151 -0.04963057 0.10324493 0.06341438 -0.14870411 -0.1816969 0.2083432 0.0020612718
0.10974393 0.069115885 0.23617136 0.06629893 0.10962935 0.13794562 -0.011222177 1.0559855
-0.06018653 -0.08810534 -0.015071728 0.10806905 0.22923863 -0.42285866 -0.26803815 0.21943055
-0.043540087 -0.13100174 -0.82949007 -0.24278036 0.04695454 -0.07834256 -0.25571695 -0.27203164
0.34647557 0.054007486 -0.12825467 0.041089967 0.31566244 0.89926946 0.17118642 0.12563463
-0.17253177 -0.15785436 0.4419793 -0.10281792 0.20667338 0.062482618 0.16880532 0.4258981
1.2041044 -0.16716793 0.066089965 0.31690642 0.28402588 0.27324536 -0.4186891 -0.21711959
-0.18234551 0.018648239 0.53857297 0.32354507 0.1824375 -0.14687924 0.016247727 0.08308683
0.09127238 0.40470186 -0.18725024 0.06543134 0.0175908 0.34038666 -0.3032584 0.11056308
0.08131343 -0.06670855 -0.28876626 -0.14058945 -0.30792332 -0.03510976 -0.18481205 0.19945513
0.3745826 0.08698306 0.0005689679 -0.0038945172 0.2178853 0.20240282 -0.009607925 0.50593996
-0.034857046 -0.010358723 -0.18994199 -0.6167936 -0.43102694 -0.16715674 0.18055682 -0.11728461
-0.19345735 -0.1269337 0.08964358 0.19528608 -0.15602373 0.028437201 0.09820462 -1.0423666
-0.23198648 -0.11159427 -0.064573355 0.13980281 -0.057702903 0.16241825 0.30094004 0.29386124
0.095389605 -0.34880412 -0.7867031 0.16831529 -0.14313729 -0.17316173 -0.27678114 -0.21224375
-0.26853424 0.27706057 -0.2606629 -0.33772832 0.4609437 0.62427664 -0.010994437 -0.23197514
-0.010836885 0.17258622 0.20389947 -0.3926991 0.14159162 0.19370337 0.30767506 -0.039235983
1.067269 -0.21279603 0.25917852 -0.032981567 0.18835957 0.22872311 -0.3282261 -0.009620563
0.051255263 0.21022111 0.24413687 1.0437659 -0.2443843 0.2407325 0.33519197 0.335976
0.29612604 -0.40867528 -0.11177026 0.2658502 -0.23261847 0.13661987 -1.2887756 -0.23149294
0.13667886 -0.2719203 -0.08651278 0.048842654 0.47791278 0.28515607 -0.061181914 -0.07369334
0.62204456 0.066879205 -0.23402245 -0.032485742 0.046360426 0.22749643 0.18175578 -0.034656297
-0.2476531 -0.026411314 0.2432008 0.09139817 0.76609355 0.08604721 -0.21546306 -0.2244604
-0.10807478 0.41325644 0.2522844 -0.10241337 0.013522889 0.27600482 -0.005015801 0.6653608

fc1.bias f4 [64]
00000000: b9b8 3c3d 8e22 97bd 2830 293d ade3 6c3e
00000010: f506 383e 79af 89be 107c bcbc cfa6 ae3d
00000020: a4ab 7b3e 0877 24be 4a19 18be 5db2 bb3c
00000030: 1cb2 35be 73f8 fc3b 0b55 8b3b c76f 1cbe
00000040: 4815 1a3e 8a4b 953d 7562 893d 5b9a 81be
00000050: f317 083e baed c43d 8cde 1b3e 504e d9bd
00000060: 9028 15bd 1ab1 a6bd f8ae 243e 1e7a 913e
00000070: 03d5 ecbc 6f12 4ebd 7334 4c3e 4ef7 243e
00000080: e7a2 25bc 2d3d 2ebe 885a b63c 52e8 85bd
00000090: 4f10 64be 157a 22be 158e e0bc 5a73 f53c
000000a0: e584 7cbe 5f12 68bd 4cb5 493e cf26 583e
000000b0: 700e 1e3c 969b fbbb 4ef6 7b3e 0d98 b23e
000000c0: 22e6 dc3d 1982 6bbe eb9e 0c3e 132d 563e
000000d0: 222f 343e 2771 343e 1cf0 d1bc bb43 fbbc
000000e0: 5a23 3ebe 7028 f7bd e3a3 343e 75af 35be
000000f0: bdf2 37bd f7c8 4c3d e358 7dbd 2228 8a3d
0.046074603 -0.07379638 0.04130569 0.23133726 0.17971404 -0.26891688 -0.023008376 0.0852791
0.24577194 -0.16061032 -0.14853397 0.022912199 -0.17743725 0.007720047 0.0042520813 -0.15277015
0.1504718 0.072897986 0.06708232 -0.25313076 0.13290386 0.09615655 0.15221614 -0.1061064
-0.036415637 -0.08139248 0.1608237 0.2841348 -0.028910166 -0.05031055 0.19941883 0.16109964
-0.01010964 -0.17015524 0.022259966 -0.06538452 -0.22271846 -0.15866883 -0.0274115 0.02996223
-0.2466007 -0.056658145 0.19698066 0.21108554 0.009646997 -0.0076784594 0.24605677 0.3488163
0.10786082 -0.22998847 0.13732497 0.20915632 0.17596105 0.17621289 -0.025627188 -0.030671945
-0.18568173 -0.1206826 0.17640643 -0.17742713 -0.044909228 0.049996343 -0.061852347 0.06745936

fc2.weight f4 [64, 64]
00000000: b5f7 f1bd c251 1fbd 123f a2bb 8b81 89bd
00000010: 38b9 023d 82a6 2cbd 734e 323e a109 7abd
00000020: 9ab5 163e 120c dabd 6197 a0be baf4 9dbd
00000030: fb52 18be 8d20 88bc 4602 013e 7971 3b3d
00000040: 820b 13bd 32f0 06be f5df 0ebe 2855 95be
00000050: 5f51 193e 2955 85bd d8b3 26be 594b a0bd
00000060: a5ae bebd 1eb5 9bbd 3891 f33d 6ae4 003e
00000070: 9f0d 123e 50da 58bd 000f 113d e60a f03b
00000080: c513 283d 74b7 1d3e 4d5a 3f3e 4779 be3c
00000090: 6f57 8fbd 42c3 91bc d692 30bc 4cc9 363e
000000a0: 811a 2abe d059 1cbe b84a 963d 4eaa 09be
000000b0: 818e 133d e0e3 4c3e 052f 873a f91a e13d
000000c0: 70c7 5d3e 8a88 4d3e a018 0a3c e794 9b3d
000000d0: ccb1 6f3e 00f7 2b3d 900a 13be 2ff0 a7bc
000000e0: ea2e 00be e441 dfbd ee85 94bd f8e3 0c3c
000000f0: 890d 04be 4709 9bbd cd77 1c3e 3a24 483e
00000100: 682a b73d 5170 1fbe 730e d93d 6d9c 77bd
00000110: 9587 463e 1082 79be f4a9 d6bc 463a ff3d
00000120: ac8b 983d e126 54bd cdb0 9bbe b6fb afbd
00000130: 1c71 e93d 750b 96bd ae7c e0bd 58b0 44bc
00000140: fa1f a43d 6868 84bc 5496 9bbc 83b9 37be
00000150: fd85 b3bd 00f8 91bd c589 70bd 883c 423d
00000160: a942 7ebe 918a 8fbe 36ab 1cbd bc0a 1abd
00000170: d22e be3d 9ce6 293b e282 753c a79a f73c
00000180: ed4a 623b 6ced 913d d8ea 313d 4535 e2bd
00000190: 61a7 103d ab7d b33b fa6e 9ebd f023 743d
000001a0: 7e1d 253e 924c 603d ade3 b13d f493 80bd
000001b0: 6816 9dbc fc81 833e 140e 0dbe d01f 1ebe
000001c0: b83b 2a3c b31e 29bd d7d2 d23c 7c0a 2c3e
000001d0: d522 123e 7ff0 8fbb 4673 513d 40c1 f7bd
000001e0: 79dc 5abe f2df b23d 2c9c 513c 5734 303d
000001f0: 18af f13b 500b 943d 0c97 39bd c2c6 30bc
00000200: 0462 0ebc e81d f13d ca3e 013d 01b7 613c
00000210: 4acb e2bd b068 80bc b9ac a13b f38f d5bd
00000220: eb7f 293e 6023 c7bd 5243 1e3d 4bc9 f9bd
00000230: d540 e0bd c7aa de3d feb3 2bbd 80a7 2f3c
00000240: b27f de3d aaef c03d ff74 edbb 2829 183e
00000250: 508f b83d d628 c93c 9e38 9cbc 8441 69bc
00000260: dd12 4a3d a9f6 de3d 8695 6fbd 4be9 143e
00000270: 71a8 513a 9011 18be 72c9 683b b8fa 463d
00000280: 8217 803d 6cab 5b3d 3fd0 3e3c 3a4c 14be
00000290: 051d 023a 48dd 87bd a5e3 c23b 4bdc c53d
000002a0: 7160 963d 4345 4c3c da0e 22bc 1cf9 893d
000002b0: 5b49 0bbd b802 df3b da0e a73d 6d8e 4a3d
000002c0: 3403 ff3d 3dd0 88bd 9bcb c7bd 882b 5cbb
000002d0: 576f a5bc 0ff0 6c3d 2efc 033e eba5 73bc
000002e0: 506f bbbc 90ac 263e 7515 5abd f6d6 80bd
000002f0: ddba df3d 760b bd3d 9cd4 bd3c 9069 d1bd
00000300: 9b83 463d 6f97 92bd b948 9abd 18f9 17bd
00000310: 312e 063d a841 7d3e 97ab 61bd 6ad8 b93c
00000320: f442 893d 11ee 1abc 41fc 2d3e 88cd 08be
00000330: 2493 01bd 4614 ddbd 7334 613d 0494 6cbe
00000340: d9c1 ff3d efa5 a2bc 33b6 053e 6cba 213e
00000350: 2c58 cabd 47cf 42bd 7013 a23d c712 313e
00000360: 4ab0 e83d a26c 3d3e a910 a73d 5250 893e
00000370: 61db 75be 13de 48bd 1091 113c f658 323e
00000380: fe78 373e 0e1f 91be ff53 18be d9ec 6f3d
00000390: 804d 57b7 e1b7 8dbd 1f24 7c3d ace7 113e
000003a0: 01f1 c7bc f765 1ebe 7464 05be f89d 36be
000003b0: 3c33 b8ba 5402 babd 8e0d 313e 1ba0 01bc
000003c0: 41e7 d0bd 39a5 8bbe 39fb 5d3e fbac 163e
000003d0: b28a 673e 73eb e73c c72e adbd e58e 81ba
000003e0: a35b 1d3e bf12 01bd 835b 333e a025 3abe
000003f0: a442 3dbe 6284 743d 8b3f 4abd cb54 55be
-0.118148245 -0.03889633 -0.004951366 -0.067141615 0.03191492 -0.04215098 0.17412739 -0.06104434
0.14717713 -0.106468335 -0.31365493 -0.077126935 -0.14875405 -0.016617084 0.12598523 0.045762513
-0.035899647 -0.13177565 -0.1395262 -0.29166532 0.14972447 -0.06510384 -0.16279542 -0.078268714
-0.093106546 -0.07602905 0.11892933 0.12587133 0.14263009 -0.052942574 0.035414696 0.007325518
0.04103448 0.15402013 0.18686791 0.023251189 -0.069990985 -0.017793301 -0.010777196 0.17850226
-0.16611673 -0.15268636 0.0733847 -0.13443872 0.036024574 0.20008802 0.0010313696 0.10991473
0.2165811 0.20071617 0.008428723 0.0759676 0.23407668 0.041983604 -0.14359498 -0.02050027
-0.12517896 -0.109012395 -0.072521076 0.008599274 -0.12895788 -0.07570129 0.15280075 0.1954507
0.08943635 -0.15570189 0.10598459 -0.060451914 0.19387658 -0.24366021 -0.026204087 0.12462287
0.07448515 -0.05179489 -0.30408326 -0.08592932 0.11398527 -0.07326404 -0.10961281 -0.012004934
0.080139115 -0.016163066 -0.01899258 -0.17941861 -0.087657906 -0.0712738 -0.058725137 0.04742101
-0.24830116 -0.28035405 -0.038249217 -0.037607893 0.09286274 0.0025924807 0.014984818 0.030225111
0.0034529523 0.07125363 0.043436855 -0.110453166 0.035315875 0.0054776273 -0.07736011 0.059604585
0.16124532 0.054760523 0.08686004 -0.0627822 -0.019175723 0.25685108 -0.13774902 -0.15441823
0.010390215 -0.041289043 0.025735302 0.16800874 0.142711 -0.004392683 0.051135324 -0.120974064
-0.21373166 0.087341204 0.012793582 0.043018665 0.007375609 0.0722872 -0.045310065 -0.010789575
-0.008690361 0.11773282 0.03155402 0.013776542 -0.110739306 -0.015674919 0.00493392 -0.10427847
0.16552703 -0.09723544 0.03863842 -0.12196597 -0.10949866 0.10872417 -0.0419197 0.010721087
0.108642 0.09420712 -0.007246613 0.1485945 0.0901171 0.024555605 -0.019069966 -0.014236812
0.049334396 0.108868904 -0.058492206 0.14542119 0.0007997817 -0.1485045 0.0035520461 0.048578948
0.06254484 0.053630278 0.011646329 -0.14482203 0.00049634307 -0.06634003 0.0059475475 0.09661158
0.073426135 0.012467685 -0.009891236 0.06736967 -0.034005504 0.006805744 0.081571296 0.049452234
0.12451783 -0.06680343 -0.097556315 -0.0033595283 -0.020194693 0.057846125 0.12889168 -0.014871101
-0.022880226 0.16276765 -0.05324312 -0.062910005 0.10924313 0.092307016 0.02317267 -0.102252126
0.048465353 -0.0715779 -0.07533402 -0.03710279 0.032758895 0.24732077 -0.05509528 0.022686202
0.067022234 -0.0094561735 0.16990758 -0.13359654 -0.031634465 -0.107948825 0.05498166 -0.23103338
0.124881454 -0.019854514 0.13057785 0.1579377 -0.09880099 -0.047560956 0.07913864 0.17292319
0.113617495 0.18498471 0.081574745 0.26819092 -0.24009468 -0.04903991 0.008884683 0.17416748
0.17917249 -0.28344005 -0.14875792 0.058575485 -1.2833043e-05 -0.06919838 0.061557885 0.14248532
-0.024406912 -0.15468584 -0.13026601 -0.17833698 -0.0014053355 -0.09082475 0.17290327 -0.007911707
-0.10200358 -0.27274492 0.21677865 0.14714424 0.22611502 0.028310513 -0.08456188 -0.0009884505
0.15366988 -0.03151202 0.17515378 -0.18178415 -0.18482453 0.059696563 -0.049377006 -0.20833127

fc2.bias f4 [64]
00000000: e924 2ebb 5c18 b9bd 35ef c9bc 3dff a53d
00000010: 4bca fd3d d20b a1bd 7617 05bd 6b3a e73b
00000020: 423c b4bd ec1a 81bc 0dde bfbc 34be 063e
00000030: c481 f8bc fdee 50bc bf3e 743d 1c74 74bb
00000040: 8cfd 043e e9ae 9ebb ecb1 933b 98ce 46bd
00000050: 3d1d 40bd f56b 713d c910 15bb c8ee cabd
00000060: 3306 6c3d 6f30 25bd 9ecb 3ebd 5156 d83a
00000070: cab9 173d 4f00 9bbd 2051 303d b860 fc3c
00000080: 7a7d 53bc 462b 5b3d 6c52 0cbb 985c 8b3d
00000090: 5508 bcbc 2c8b 253d f04b c03c 82e8 1b3d
000000a0: 4c0a 9dbd 2b24 34bd 5bb5 7b3d b1ce 53bd
000000b0: 7f34 68bd 27b5 9e3d ff5b 023d 7dc4 a03d
000000c0: d8c1 103d 9ed3 9a3c 1987 56bd a3f2 4abd
000000d0: 03d6 d53c 80af e0bc 4b2f b13d e898 d93c
000000e0: d2ab b63c 242b d33d b227 723c 0475 d93c
000000f0: 07fe ae3d 4a56 1aba 0b0c fb3c e357 07bd
-0.0026572293 -0.09037849 -0.024650196 0.081053235 0.123921 -0.07863583 -0.032493077 0.0070565245
-0.08800556 -0.015759908 -0.023421312 0.13158494 -0.030335315 -0.012752292 0.05963015 -0.0037300652
0.12987345 -0.0048426283 0.004507294 -0.048536867 -0.046902884 0.058940846 -0.00227456 -0.09908825
0.0576231 -0.040329393 -0.046580903 0.0016505216 0.037042417 -0.07568418 0.043046117 0.030807838
-0.012908334 0.053508066 -0.0021411432 0.0680477 -0.022953192 0.040415928 0.02347371 0.038063534
-0.076679796 -0.043979805 0.06145225 -0.05171079 -0.05669069 0.07749396 0.031826016 0.07849977
0.035341114 0.018899735 -0.052374933 -0.049547803 0.026103025 -0.027427435 0.086515985 0.02656217
0.022298727 0.10310963 0.014779972 0.026545055 0.085445456 -0.0005887492 0.030645391 -0.0330428

mean_out.weight f4 [1, 64]
00000000: 192f f43d d839 2e3d 22cd abb8 4fb6 e9bd
00000010: 02d1 42ba ed00 23b9 1451 2539 4b4b 773d
00000020: c592 30be ad6b 8bb7 0040 753b 09f4 9939
00000030: fcb4 42ba 54d8 7cbb c86e 083a cde7 88b9
00000040: 38b4 52bd b1f3 b5b9 f9c9 4239 3dde 833c
00000050: 5f70 af3a 531a 2538 22ca 823a 427d 4039
00000060: 8034 0d39 ccdb 143a 41ec 5db9 69ad 913a
00000070: 99ad 0d3b a9cf 2639 e953 5e39 3f29 8a3c
00000080: caf2 7bb8 9339 bc38 bd6b 6e3d a678 e838
00000090: 617a 743b 3e75 8cb9 fa55 cb3a a441 43ba
000000a0: c04e 6e39 24ce dc38 4eb6 69b8 9839 d539
000000b0: dd07 9c3c 41e5 f5b8 70f8 84bb a1d9 ca39
000000c0: a5c3 7b3b 4c36 e6bd 40bf 5237 25af 93b8
000000d0: b926 0ab9 dbb2 f3bb 758f 2839 3cd2 6dbe
000000e0: 99cb 5439 02c7 9039 715a bdb9 d594 54ba
000000f0: e9cd d13a 7d05 02b9 a9e8 21ba 8dde 2a3a
0.11923046 0.042535633 -8.1921244e-05 -0.11411726 -0.0007431657 -0.00015545236 0.0001576583 0.06037454
-0.17243488 -1.6620232e-05 0.003742218 0.00029364254 -0.00074274815 -0.003858109 0.0005204496 -0.00026112646
-0.0514414 -0.00034704575 0.00018576522 0.016097182 0.001338493 3.9363582e-05 0.0009978453 0.00018357209
0.00013466366 0.0005678504 -0.00021164214 0.0011114302 0.0021618365 0.00015908353 0.00021202829 0.01686537
-6.006918e-05 8.9752626e-05 0.058208216 0.000110850946 0.0037304389 -0.00026790233 0.0015513294 -0.0007448441
0.00022726785 0.00010528814 -5.5721313e-05 0.00040669437 0.019046718 -0.00011725212 -0.0040579364 0.0003869059
0.0038416174 -0.11240825 1.2561504e-05 -7.0421294e-05 -0.00013175131 -0.0074370927 0.0001607517 -0.2322473
0.00020293742 0.00027614093 -0.00036116273 -0.0008109336 0.00160068 -0.0001239981 -0.00061763317 0.0006518148
