pretrained_model/Reacher-v2.pt (torch, 22419 bytes, 7 tensors)

log_std f4 [2]
-1.4393054 -1.464915
00000000: 293b b8bf 5682 bbbf

fc1.weight f4 [64, 11]
0.13178524 -0.124115065 -0.2634693 0.31797794 -0.48608115 0.62938756 -0.04062737 0.058559902
0.441858 -0.7055061 0.08362746 0.107403494 0.16396442 -0.17173676 -0.14023611 0.44750625
-0.35231468 -0.047225896 0.0807758 -0.2586011 0.24351354 -0.1821012 0.14215459 0.010055426
-0.0022330799 0.04589503 0.49732575 0.36165023 -0.13337734 0.707944 0.3995099 0.040343273
0.19901553 -0.33522403 -0.37315416 -0.23643026 0.16222772 -0.5773625 0.021680854 -0.0683062
0.18433955 0.03434691 0.3623166 0.0035703932 -0.5901826 -0.035794538 -0.076189846 -0.0130991405
-0.07485858 0.69928426 -0.25375023 -0.29151276 -0.14709331 -0.8510222 0.30032024 0.19352926
-0.10735954 -0.56248647 0.17306536 -0.51823074 0.041201685 0.08840211 0.070775904 0.60096884
-0.3269955 -0.04963057 -0.04123454 0.24351215 -0.36803594 -0.20211092 0.48514217 -1.6697818
0.004691122 -0.009464376 -0.4115651 1.5893606 0.10962935 -0.0678447 -0.4872816 0.11780706
-0.43311775 -0.41716933 -0.13154837 0.004463097 -0.085608765 -0.20832942 -0.42609423 0.21943055
-0.42006168 0.15859513 0.055426598 -0.19615278 -0.35236457 0.87839735 -0.2841828 -0.03735105
0.58068925 -0.80035245 -0.12825467 0.34759176 0.35614148 -0.31303927 0.48945537 0.63227457
0.27668434 -0.42321658 0.5469463 0.41888702 -0.18270077 0.062482618 0.42459983 0.4581851
0.36868355 -0.15265417 0.14335856 -0.12597585 -0.16449197 0.32405272 0.055019636 -0.078397684
-0.18234551 -0.104059756 0.44024494 -0.044168282 0.1831272 0.7597539 0.61231714 -0.013267386
0.015357472 -0.7788792 -1.2825907 0.06543134 0.59992737 0.2126691 -0.09525709 0.23001404
1.3288364 -0.8525729 -0.12383209 -0.2452954 -0.8981526 1.0735965 -0.18481205 0.18339022
0.012838561 0.055495992 0.11490908 -1.06542 0.57174027 0.008397016 -0.049959484 1.3509425
-0.41840628 -0.010358723 -0.62483114 0.052014165 -0.32524443 -0.5438775 1.0064005 -1.1539053
-0.33540493 -0.08325133 -0.23017126 1.0099584 -0.15602373 0.2472377 -0.17211354 -0.21436523
-0.5056173 -0.7303445 0.02322731 0.084510624 -0.037034567 0.54916286 0.3933893 0.29386124
0.016270759 -0.08550166 -0.3737787 0.3216512 1.4811325 -1.1741133 -0.25003728 -0.12305913
-1.1478355 1.0017705 -0.2606629 -0.43303126 0.009438907 -0.13841854 0.29228076 0.3153117
-1.1837693 -0.0058458345 0.012726743 -0.5682969 1.3238397 0.19370337 0.47999492 -0.29703468
0.09945436 -0.39012504 0.40075237 -0.50705963 0.04625702 -0.07851622 -0.06752244 0.6183514
0.051255263 0.1686748 0.31049818 0.18218127 -0.5443174 0.5616451 1.1869433 0.24634746
0.22430645 -0.14927332 -0.99042743 0.2658502 -0.5146926 0.43365058 -0.35232177 0.12267409
-0.12341272 -0.6879465 -0.013132895 0.0874729 0.945768 1.0354631 -0.061181914 -0.17112657
0.60338676 0.11090287 -0.050126165 -0.21000452 -0.6133926 0.003119143 0.288826 0.016308809
0.2999041 -0.026411314 0.5462712 0.12525226 -0.30986193 0.19782817 0.35573742 -0.423431
-0.15718119 0.6210865 0.24921703 -0.0016785212 0.013522889 0.53769296 0.20181979 -0.21826193
00000000: b6f2 063e 0a30 febd 73e5 86be 01ce a23e
00000010: a1df f8be 8b1f 213f e368 26bd 82dc 6f3d
00000020: 363b e23e 0c9c 34bf e044 ab3d 5df6 db3d
00000030: 4ae6 273e c3db 2fbe 0e9a 0fbe 8a1f e53e
00000040: 9762 b4be f16f 41bd c86d a53d 5d67 84be
00000050: 9d5b 793e bd78 3abe f990 113e 83bf 243c
00000060: dd58 12bb 6dfc 3b3d 7ba1 fe3e 382a b93e
00000070: 1294 08be d13b 353f 908c cc3e fd3e 253d
00000080: baca 4b3e 7ca2 abbe 100e bfbe c61a 72be
00000090: 061f 263e 07ce 13bf 0c9c b13c 1fe4 8bbd
000000a0: 82c3 3c3e 58af 0c3d 9081 b93e 42fd 693b
000000b0: 3516 17bf 4b9d 12bd 6c09 9cbd c79d 56bc
000000c0: 754f 99bd 4b04 333f 8deb 81be 2941 95be
000000d0: a19f 16be 97dc 59bf 93c3 993e 892c 463e
000000e0: 52df dbbd 1dff 0fbf 0c38 313e c5aa 04bf
000000f0: 19c3 283d 2a0c b53d f5f2 903d 18d9 193f
00000100: f46b a7be 6d49 4bbd 8de5 28bd 405b 793e
00000110: 356f bcbe 2af6 4ebe 8e64 f83e 69bb d5bf
00000120: fcb7 993b 7810 1bbc a9b8 d2be 2b70 cb3f
00000130: 5a85 e03d 29f2 8abd f97c f9be d444 f13d
00000140: 9cc1 ddbe 3897 d5be 9eb4 06be 2c3f 923b
00000150: a653 afbd 4f54 55be 0629 dabe 67b2 603e
00000160: 5312 d7be c366 223e 0007 633d 46dc 48be
00000170: 2169 b4be a6de 603f 6880 91be 6afd 18bd
00000180: 0da8 143f e6e3 4cbf 3155 03be 8cf7 b13e
00000190: 2d58 b63e af46 a0be e599 fa3e bfdc 213f
000001a0: 92a9 8d3e d8af d8be ac04 0c3f 5c78 d63e
000001b0: e915 3bbe c6ed 7f3d 2665 d93e 3d97 ea3e
000001c0: 17c4 bc3e 6051 1cbe 96cc 123e d0ff 00be
000001d0: 9570 28be 3dea a53e 455c 613d f78e a0bd
000001e0: c8b8 3abe 481d d5bd c967 e13e cde9 34bd
000001f0: b285 3b3e 3b7f 423f d1c0 1c3f 735f 59bc
00000200: e89d 7b3c a164 47bf ef2b a4bf de00 863d
00000210: d794 193f eec5 593e 2616 c3bd cd88 6b3e
00000220: 5017 aa3f 3842 5abf ae9b fdbd b82e 7bbe
00000230: 54ed 65bf 9c6b 893f 5f3f 3dbe a5ca 3b3e
00000240: d458 523c c44f 633d 7455 eb3d af5f 88bf
00000250: 925d 123f a393 093c 51a2 4cbd afeb ac3f
00000260: 5939 d6be a2b7 29bc eff4 1fbf ce0c 553d
00000270: 7086 a6be 8e3b 0bbf bbd1 803f 2bb3 93bf
00000280: 32ba abbe ac7f aabd 04b2 6bbe 5146 813f
00000290: afc4 1fbe e12b 7d3e 883e 30be 8f82 5bbe
000002a0: 2370 01bf dbf7 3abf 3347 be3c e813 ad3d
000002b0: 8fb1 17bd f095 0c3f 536a c93e fb74 963e
000002c0: 414a 853c 7f1b afbd ec5f bfbe 77af a43e
000002d0: c095 bd3f 5849 96bf e304 80be 6d06 fcbd
000002e0: 46ec 92bf 043a 803f 9c75 85be 46b6 ddbe
000002f0: a5a5 1a3c 97bd 0dbe d3a5 953e 8970 a13e
00000300: c185 97bf 6a8e bfbb d483 503c e87b 11bf
00000310: 9473 a93f 2d5a 463e e5c1 f53e ee14 98be
00000320: baae cb3d 78be c7be 6a2f cd3e a9ce 01bf
00000330: 0078 3d3d 1dcd a0bd 3449 8abd 474c 1e3f
00000340: 0af1 513d 16b9 2c3e 9ef9 9e3e ba8d 3a3e
00000350: 6358 0bbf f9c7 0f3f c2ed 973f 8242 7c3e
00000360: 97b0 653e 1bdb 18be a78c 7dbf 841d 883e
00000370: e5c2 03bf 7307 de3e 8563 b4be 8e3c fb3d
00000380: cfbf fcbd 431d 30bf 5b2b 57bc fe24 b33d
00000390: da1d 723f 0e8a 843f e399 7abd ce3b 2fbe
000003a0: 8e77 1a3f 0b21 e33d 1851 4dbd 6d0b 57be
000003b0: 4c07 1dbf 896a 4c3b 00e1 933e 0d9a 853c
000003c0: 088d 993e 8a5c d8bc 6ed8 0b3f 2142 003e
000003d0: 39a6 9ebe 7893 4a3e 3723 b63e f3cb d8be
000003e0: 1bf4 20be 86ff 1e3f c032 7f3e d301 dcba
000003f0: 1c8f 5d3c 3fa6 093f d9a9 4e3e 0e80 5fbe

fc1.bias f4 [64]
0.0515375 -0.18381952 0.4514343 0.2347658 -0.014786889 -0.6325774 0.019721353 -0.4000314
0.23054823 0.25602308 0.030537916 0.0076462454 -0.10834105 0.08667002 0.09128625 -0.46725494
0.41244805 0.4545247 0.068521015 -0.42360613 0.27076736 0.22002468 0.34853524 -0.13345817
-0.0060716355 -0.56721735 0.54986495 0.31640616 -0.39740655 -0.117374174 0.33403495 0.35606498
0.21937704 -0.45662436 0.18920912 -0.25421295 -0.360704 -0.16345973 0.32898018 0.22597404
-0.4930376 0.5250274 0.5413925 0.24078815 0.5350414 0.00043042246 0.2369986 0.13840163
0.10149939 -0.2678878 -0.48855036 0.44191605 0.027498309 0.52651757 -0.2134044 0.118470654
-0.56746125 -0.22376046 0.28328785 -0.16185679 -0.25662348 -0.10316108 -0.2631516 -0.315635
00000000: fc18 533d 2f3b 3cbe 6622 e73e 7266 703e
00000010: b544 72bc 98f0 21bf ad8e a13c ead0 ccbe
00000020: d614 6c3e 7515 833e a72a fa3c 5b8d fa3b
00000030: eae1 ddbd 0d80 b13d 49f4 ba3d 0a3c efbe
00000040: 642c d33e 76b7 e83e bf54 8c3d e7e2 d8be
00000050: 05a2 8a3e 264e 613e 3673 b23e 42a9 08be
00000060: 92f4 c6bb 2835 11bf f3c3 0c3f fdff a13e
00000070: df78 cbbe df61 f0bd a106 ab3e 264e b63e
00000080: 60a4 603e abca e9be 09c0 413e 3328 82be
00000090: 32ae b8be fd61 27be 1770 a83e bd65 673e
000000a0: 6d6f fcbe 3268 063f b398 0a3f 2b91 763e
000000b0: 79f8 083f 53aa e139 c3af 723e 28b9 0d3e
000000c0: eade cf3d 9728 89be 4623 fabe d242 e23e
000000d0: 2244 e13c dbc9 063f af86 5abe bea0 f23d
000000e0: 2445 11bf 7621 65be 1b0b 913e c9bd 25be
000000f0: 2764 83be 1e46 d3bd cebb 86be e99a a1be

fc2.weight f4 [64, 64]
-0.21395199 0.10271 -0.32197222 0.026211336 -0.04352676 0.21955933 0.21223378 0.08835433
0.0021615059 -0.109236985 -0.13208035 -0.2793475 -0.2043116 0.049939692 -0.14859734 0.41986558
-0.2671191 -0.2910275 -0.056099698 0.018434068 -0.025799807 0.04916663 -0.30912098 -0.057245743
0.08735011 0.25035506 0.01919516 -0.23805544 0.22546832 0.07565935 0.002109218 -0.1774722
-0.17251417 0.2556356 -0.01212417 0.5394254 -0.05565616 -0.021184953 -0.27588013 -0.007716089
-0.0818912 -0.22223303 -0.11785819 0.08197137 -0.07546778 -0.16597746 -0.06685309 0.046125837
0.08409192 0.44204462 0.42746222 -0.4354743 0.18411481 0.064848594 0.06827738 0.23279144
0.3188556 -0.13833843 -0.048147675 0.010523726 -0.22147362 -0.04881568 0.15408188 0.13115297
0.008850357 -0.048596498 0.016268289 -0.038610857 0.1996743 -0.23062405 -0.08180401 -0.018078791
0.21579593 -0.013787517 -0.089225255 0.33433694 0.1959997 -0.27883956 -0.12054053 -0.06832296
0.053387627 -0.03947785 -0.34862134 0.11738274 0.023487914 -0.016537054 -0.08446212 0.08705651
-0.38356537 -0.13260688 -0.18412875 -0.18288375 0.15884542 0.0894824 -0.044243105 -0.015835296
0.059823487 0.10218038 0.029282622 -0.24569945 0.35317037 0.4868362 -0.08922629 -0.021695446
0.23959632 0.09370777 -0.08115713 0.073715 -0.22918175 0.07227005 -0.08377013 -0.009406079
-0.34725103 -0.19371301 0.065641664 0.013774625 -0.2056355 -0.27979618 0.07180993 0.1612075
-0.06490644 0.04167687 0.0042663044 0.22826202 -0.02254205 -0.034315996 -0.036359992 -0.016629795
-0.09414862 0.107840195 -0.027322404 0.0015235791 -0.18752658 -0.08844592 0.020951198 -0.13153112
0.19057254 -0.22071344 0.00577542 -0.0033477684 -0.17128786 0.1016689 -0.03601158 0.014533711
0.104957186 0.13248925 0.028311247 0.16940382 0.21047573 0.05030231 -0.06850847 -0.0118489945
0.087242946 0.09379744 -0.042623956 0.14269917 0.01001118 -0.09823379 0.07742206 0.21269572
-0.03909649 0.1214085 -0.025282038 -0.07887373 -0.06838819 0.12514164 -0.07937425 0.059118222
0.034276158 0.056193147 0.014140679 0.093601644 -0.061907016 0.004502347 0.093783125 0.11517619
0.10474811 0.03429168 -0.13465637 0.07188923 -0.06821343 0.13543835 0.15627305 -0.11479812
0.0074271276 0.1370028 -0.10434018 -0.029089114 0.16352712 0.05394819 0.0242054 -0.06688894
-0.05769719 -0.10062136 -0.18858695 -0.19298567 0.035370916 0.088714585 0.10594839 -0.087295525
0.05695763 -0.14817922 0.13959844 -0.0075998977 -0.017818432 -0.05251258 0.036232397 -0.23959278
0.08691668 0.02462506 -0.021887893 0.04550038 -0.00090180064 0.08301179 -0.030159341 0.08430244
0.030481966 0.049077395 -0.038134318 0.035492003 -0.10004898 -0.10231212 -0.0020050162 0.30207288
0.061234348 -0.08814541 -0.14875522 0.14915328 0.022596117 -0.10018612 -0.00019268191 0.044872213
0.0030789727 -0.19965175 -0.1264109 -0.084702045 -0.01684569 0.07758969 -0.04397998 -0.06270386
-0.018501684 -0.08655731 0.18390316 0.11531942 0.04851136 0.10268441 -0.06282654 -0.014919978
0.05701393 -0.034547873 0.03830842 -0.24925497 -0.11744942 -0.034693696 -0.09889337 -0.12712392
00000000: 3b16 5bbe 9f59 d23d 8bd9 a4be 28b9 d63c
00000010: 1e49 32bd 29d4 603e d053 593e 1df3 b43d
00000020: 0da8 0d3b a4b7 dfbd 1240 07be a306 8fbe
00000030: 0f37 51be 908d 4c3d e729 18be 9ff8 d63e
00000040: d6c3 88be 8e01 95be ccc8 65bd 0b03 973c
00000050: 1e5a d3bc f362 493d 1b45 9ebe 837a 6abd
00000060: 9de4 b23d 8a2e 803e 2b3f 9d3c cec4 73be
00000070: 2be1 663e 4af3 9a3d ce3a 0a3b 46bb 35be
00000080: 8ea7 30be abe2 823e 74a4 46bc c817 0a3f
00000090: b7f7 63bd 118c adbc 2940 8dbe 3fd7 fcbb
000000a0: 93b6 a7bd 0e91 63be a25f f1bd 9be0 a73d
000000b0: da8e 9abd fff5 29be 46ea 88bd 72ee 3c3d
000000c0: 6238 ac3d ac53 e23e 54dc da3e 7df6 debe
000000d0: 9888 3c3e 57cf 843d 03d5 8b3d e160 6e3e
000000e0: 0b41 a33e 97a8 0dbe 7f36 45bd b56b 2c3c
000000f0: fbc9 62be f3f2 47bd a4c7 1d3e f74c 063e
00000100: 1601 113c 1f0d 47bd 1345 853c 6b26 1ebd
00000110: 6b77 4c3e b628 6cbe dc88 a7bd f919 94bc
00000120: 9cf9 5c3e 0ae5 61bc bbbb b6bd 362e ab3e
00000130: 25b4 483e 0fc4 8ebe f4dd f6bd e8ec 8bbd
00000140: fcac 5a3d 87b3 21bd 7f7e b2be 5d66 f03d
00000150: ba69 c03c b778 87bc 7afa acbd af4a b23d
00000160: ae62 c4be 19ca 07be 3f8c 3cbe e145 3bbe
00000170: 60a8 223e 8c42 b73d 4238 35bd 06b9 81bc
00000180: 7909 753d f243 d13d 1ce2 ef3c a398 7bbe
00000190: bfd2 b43e 9842 f93e 46bc b6bd a6ba b1bc
000001a0: bd58 753e dce9 bf3d b635 a6bd e4f7 963d
000001b0: 9fae 6abe 5202 943d ad8f abbd f41b 1abc
000001c0: e3ca b1be b45c 46be 236f 863d f7ae 613c
000001d0: 1d92 52be 7241 8fbe 1611 933d 9413 253e
000001e0: abed 84bd 5eb5 2a3d 5bcc 8b3b 85bd 693e
000001f0: 1baa b8bc ee8e 0cbd 37ee 14bd 353b 88bc
00000200: fed0 c0bd 52db dc3d 3cd3 dfbc d5b2 c73a
00000210: f806 40be 2223 b5bd d9a1 ab3c 18b0 06be
00000220: 7325 433e b402 62be bc3f bd3b 3c66 5bbb
00000230: 1666 2fbe c937 d03d e180 13bd cd1e 6e3c
00000240: cbf3 d63d 43ab 073e fdec e73c 3278 2d3e
00000250: f386 573e cc09 4e3d 2b4e 8cbd 4922 42bc
00000260: 6eac b23d df18 c03d 7596 2ebd bb1f 123e
00000270: ef05 243c cc2e c9bd 758f 9e3d e8cc 593e
00000280: a423 20bd 05a5 f83d 471c cfbc 8d88 a1bd
00000290: 1b0f 8cbd 2125 003e f78e a2bd f325 723d
000002a0: 2865 0c3d c92a 663d 4eae 673c 38b2 bf3d
000002b0: 3692 7dbd 6d88 933b 5e11 c03d 7fe1 eb3d
000002c0: 2d86 d63d 6f75 0c3d 5ce3 09be a93a 933d
000002d0: 7cb3 8bbd 5ab0 0a3e 0b06 203e 471b ebbd
000002e0: 435f f33b 764a 0c3e 4eb0 d5bd 4b4c eebc
000002f0: a773 273e c7f8 5c3d 674a c63c 12fd 88bd
00000300: e453 6cbd 9212 cebd f01c 41be 099e 45be
00000310: 18e1 103d feaf b53d 78fb d83d ffc7 b2bd
00000320: 674c 693d 4bbc 17be e5f2 0e3e 9008 f9bb
00000330: f6f7 91bc 6e17 57bd 6c68 143d cf57 75be
00000340: 5f01 b23d 7eba c93c 3d4e b3bc 9b5e 3a3d
00000350: d166 6cba 1602 aa3d b910 f7bc c2a6 ac3d
00000360: 51b5 f93c 6105 493d bb32 1cbd 1060 113d
00000370: 7be6 ccbd 0489 d1bd 9766 03bb 4ca9 9a3e
00000380: ded0 7a3d 9585 b4bd 4a53 18be a3bb 183e
00000390: 7e1b b93c 612e cdbd a80a 4ab9 edcb 373d
000003a0: 97c8 493b 8271 4cbe dc71 01be 4478 adbd
000003b0: f9ff 89bc 58e7 9e3d 5a24 34bd e26a 80bd
000003c0: d890 97bc f544 b1bd 1c51 3c3e 972c ec3d
000003d0: d9b3 463d 344c d23d 33ab 80bd ec72 74bc
000003e0: 7087 693d 1282 0dbd 4ae9 1c3d b23c 7fbe
000003f0: 5289 f0bd fa1a 0ebd 9b88 cabd c62c 02be

fc2.bias f4 [64]
-0.22786213 -0.23578583 -0.023293646 0.02384463 0.0010949014 -0.14672425 -0.056251083 -0.23317815
-0.26885924 0.101801336 -0.1674866 0.24325056 -0.035360426 -0.10974568 -0.0056483536 -0.015005624
0.08784437 -0.24566118 -0.08260263 0.052080452 0.035861365 0.15084994 0.0065778173 -0.14752257
-0.01915091 -0.08010353 -0.08965066 0.061553154 -0.04261818 -0.08027825 0.25548527 0.009831832
-0.05308032 0.3091192 0.14778608 -0.10788747 -0.2296741 0.080198824 0.06804352 0.083260424
-0.14180434 -0.10949836 0.06740013 -0.10696221 -0.11869311 0.02692228 0.005785158 0.14834568
-0.05040541 -0.0570897 -0.20190248 -0.17464064 0.12672941 0.0012619181 0.18300237 0.11469154
0.09728163 0.14242586 -0.019521775 0.12588397 0.15642376 0.0131668085 0.120488174 -0.042778697
00000000: b154 69be d771 71be 51d2 bebc d055 c33c
00000010: cb82 8f3a e23e 16be 8967 66bd 41c6 6ebe
00000020: eba7 89be 387d d03d 9b81 2bbe ad16 793e
00000030: 18d6 10bd 58c2 e0bd d315 b9bb 26da 75bc
00000040: c0e7 b33d 9b8e 7bbe 912b a9bd 5052 553d
00000050: 5ee3 123d 6878 1a3e bb8a d73b 2810 17be
00000060: 5fe2 9cbc 520d a4bd c49a b7bd 291f 7c3d
00000070: 6790 2ebd ec68 a4bd f7ce 823e b115 213c
00000080: c06a 59bd df44 9e3e 3c55 173e 1bf4 dcbd
00000090: b02f 6bbe 483f a43d 675a 8b3d 7184 aa3d
000000a0: 2835 11be ad40 e0bd 1409 8a3d 010f dbbd
000000b0: 6015 f3bd 1d8c dc3c 6c91 bd3b eee7 173e
000000c0: e775 4ebd e4d6 69bd 86bf 4ebe ffd4 32be
000000d0: 5bc5 013e f266 a53a f964 3b3e 66e3 ea3d
000000e0: 973b c73d 16d8 113e 21ec 9fbc bae7 003e
000000f0: 8d2d 203e 99b9 573c 81c2 f63d b738 2fbd

mean_out.weight f4 [2, 64]
0.1370221 0.14491653 -0.0057703224 0.010213926 -0.0041281055 -0.0054638 -0.0070451614 0.046635374
-0.06786205 0.09082934 0.012120616 -0.1867912 -0.016151285 -0.060964588 0.13980396 0.02106931
0.003383754 0.080352545 0.027325662 0.02812691 -0.008141855 0.02202131 0.03466536 0.0028826145
0.019585485 -0.0027369785 -0.01072507 -0.01640373 0.00028567546 0.0025326742 -0.16349246 0.003532996
-0.001123149 0.01916405 0.10684518 0.0039096177 0.028518664 0.1734713 -0.012057221 0.0023365591
-0.029519971 -0.0089454455 0.004885303 4.8607533e-05 0.010201033 -0.0076093026 -0.097206816 -0.021209966
0.02729485 0.010582909 0.032807566 -0.12555107 -0.005331963 0.01661073 -0.010383664 -0.004912169
0.0014635875 -0.020644339 0.009455205 0.06797007 -0.014676836 -0.013972559 0.012315723 0.012693024
-0.07623595 -0.0070404704 -0.013773596 -0.009102531 -0.04327355 -0.014696532 0.059249006 0.08420473
0.025457248 -0.060928755 -0.042886898 -0.022307785 0.036777064 -0.10658192 -0.030156054 -0.008376825
0.007275364 0.15752828 -0.027529955 0.0075469394 0.008664521 0.052215777 0.0015079766 -0.0020282383
0.020053228 -0.008154487 0.00072612666 0.007237463 -0.014256193 -0.014720612 -0.028306516 -0.011834675
-0.004832459 -0.12331146 -0.03102597 0.15454191 -0.12942328 0.14537717 -0.0061536334 -0.016308058
0.008410757 -0.009067473 0.009315796 0.013979185 -0.04125786 0.014798361 -0.00943909 -0.01727349
0.0120201595 0.0026493173 0.112049565 -0.08767399 -0.0065862876 0.011422267 0.003182338 0.00010266675
-0.034947723 -0.023182722 -0.022168515 0.090003535 -0.0017828483 0.0051101986 -0.057118773 -0.021732254
00000000: 854f 0c3e 0065 143e f914 bdbb 5058 273c
00000010: 0f45 87bb ad09 b3bb 19db e6bb bc04 3f3d
00000020: 42fb 8abd bc04 ba3d 8c95 463c 3146 3fbe
00000030: b34f 84bc 01b6 79bd c528 0f3e 8c99 ac3c
00000040: f9c1 5d3b e08f a43d 11da df3c 686a e63c
00000050: 6a65 05bc 0966 b43c 44fd 0d3d 3fea 3c3b
00000060: bd71 a03c e15e 33bb 34b8 2fbc 1d61 86bc
00000070: b6c6 9539 39fb 253b 916a 27be d689 673b
00000080: a036 93ba edfd 9c3c a5d1 da3d 401c 803b
00000090: f99f e93c 76a2 313e a68b 45bc f520 193b
000000a0: ded3 f1bc eb8f 12bc e414 a03b f1df 4b38
000000b0: 3c22 273c 7557 f9bb 5e14 c7bd 86c0 adbc
000000c0: 7399 df3c f063 2d3c 3a61 063d 7690 00be
000000d0: bfb7 aebb 3a13 883c 3e20 2abc 43f6 a0bb
000000e0: d9d5 bf3a 511e a9bc 01ea 1a3c e433 8b3d
000000f0: 1d77 70bc 29ed 64bc e3c7 493c 67f6 4f3c
00000100: 9821 9cbd bfb3 e6bb a6aa 61bc c822 15bc
00000110: 9b3f 31bd b9c9 70bc 16af 723d 8873 ac3d
00000120: b88b d03c 6e90 79bd 2caa 2fbd d1be b6bc
00000130: 8ca3 163d 9f47 dabd d409 f7bc f33e 09bc
00000140: 2d66 ee3b 184f 213e 8086 e1bc 514c f73b
00000150: a3f5 0d3c 36e0 553d 4ca7 c53a 31ec 04bb
00000160: ab46 a43c 669a 05bc 8959 3e3a 3d28 ed3b
00000170: cf92 69bc b92e 71bc 11e3 e7bc 3ae6 41bc
00000180: 9b59 9ebb b88a fcbd 2d2a febc 3c40 1e3e
00000190: 8987 04be c1dd 143e 6ba4 c9bb 7a98 85bc
000001a0: 46cd 093c bd8f 14bc 48a1 183c f408 653c
000001b0: 00fe 28bd d374 723c 6aa6 1abc 2281 8dbc
000001c0: 34f0 443c 2ba0 2d3b 3e7a e53d 6c8e b3bd
000001d0: c9d1 d7bb 7624 3b3c c68e 503b cb4e d738
000001e0: 5825 0fbd b1e9 bdbc bf9a b5bc c653 b83d
000001f0: 76ae e9ba 7473 a73b 60f5 69bd d707 b2bc

mean_out.bias f4 [2]
0.11774092 0.01922499
00000000: 2722 f13d ba7d 9d3c
