pretrained_model/Swimmer-v2.pt (torch, 21651 bytes, 7 tensors)

log_std f4 [2]
000000 44 36 35 40 7d 0b 3d 40
       2.831437 2.9538262

fc1.weight f4 [64, 8]
000000 0f 44 c2 3e 91 f0 99 be 04 42 00 3f a4 99 2c 3c
       0.3794255 -0.3006635 0.5010073 0.010534678
000010 54 a7 69 bf ac 2c b2 3e 36 52 64 be c0 5f 13 be
       -0.9127095 0.34799707 -0.22296986 -0.14391994
000020 7d 07 0d 3e 80 98 28 be 20 94 04 3e 0a 7d 49 3e
       0.13772388 -0.16464424 0.1294713 0.19676605
000030 bd 4a 07 3f 94 1c 7f bd 37 79 9b 3d 3c 87 07 be
       0.52848417 -0.062283114 0.07591479 -0.13235182
000040 58 57 a8 3d 3a d1 d5 bb 00 1c 69 3f ba 29 ef 3d
       0.082197845 -0.006525186 0.9105835 0.116778806
000050 b1 c1 a5 be 65 9a fd bd 6a 44 9c bd df 0c 89 be
       -0.32374337 -0.12382964 -0.076302364 -0.26767632
000060 01 13 62 be fd 4e d8 3d b3 ec 00 3f 74 90 8e 3e
       -0.22077562 0.10561941 0.50361174 0.27844584
000070 6d ed 5a be f5 2b 45 be 4d 5f 69 3e 08 98 a1 3e
       -0.21379633 -0.1925505 0.2279026 0.31561303
000080 5c ce 9e 3d 84 f5 72 be cf e5 2d bf 94 2b 38 be
       0.07754204 -0.2372647 -0.67928785 -0.17985374
000090 18 ba a6 3f 57 84 a3 bd c9 ec 93 3e 76 49 80 be
       1.3025541 -0.07984226 0.2889159 -0.25056046
0000a0 e3 f4 c3 3e cd 65 1c be e0 9e fd 3e 53 67 ee 3d
       0.3827277 -0.15273209 0.49535275 0.11640801
0000b0 f2 ea 6a bf 1d 29 8c bd a9 5d f7 be 14 fd a6 3e
       -0.9176475 -0.06843779 -0.48313645 0.32614958
0000c0 75 04 ae 3c 1a 51 a4 3c 8a c7 00 bf 37 c3 3d be
       0.02124236 0.020058203 -0.5030447 -0.185315
0000d0 ee b5 80 3e 24 59 14 be a8 2f 0d 3f 9f b0 32 3f
       0.251388 -0.1448713 0.5515084 0.6980075
0000e0 38 80 2e be a5 ab 89 be 3a 38 8b 3e 98 18 30 3e
       -0.17041099 -0.26888767 0.27191335 0.17196882
0000f0 7a 36 16 be ec e1 0e be a6 bf a0 3e 6f a3 df 3e
       -0.14669219 -0.1395337 0.31396216 0.43679377
000100 42 9d 95 be 68 9b b1 bd 6c a1 21 3b 3b 9c f0 3d
       -0.2922154 -0.086722195 0.0024662865 0.117485486
000110 97 99 01 bf c2 fd b9 be c6 ee 39 3d 04 3f e1 bd
       -0.50624985 -0.36326414 0.045393728 -0.109983474
000120 f9 a6 75 3e 4b f6 51 be 4e c1 bc 3c c5 17 75 be
       0.23989476 -0.2050411 0.023041394 -0.23934849
000130 74 9d 0d 3f 1c 6b 84 3e 98 10 56 bf 50 e2 d3 3e
       0.5531838 0.25862968 -0.8361907 0.413836
000140 90 e9 a4 be 60 5a 13 bf 07 62 b1 bd ae 54 05 be
       -0.32209444 -0.57559776 -0.08661275 -0.13020584
000150 ed 30 b3 3d e5 45 a8 be ef 12 8d be 54 fa 92 3d
       0.08749566 -0.32865825 -0.27553508 0.071766526
000160 a8 ad 7a be 93 ea 93 3e e0 4b 80 3e c9 e8 9e be
       -0.24480307 0.28889903 0.25057888 -0.31036976
000170 5e 56 e7 be 91 dd c6 3d 40 91 dc be 6f eb b5 be
       -0.4518308 0.09710229 -0.43079567 -0.35531184
000180 64 33 6f 3e 8b da 2c 3d fc d1 eb bc cb c5 85 3c
       0.23359448 0.042200606 -0.028786652 0.016329667
000190 61 ac 4f 3f 95 c1 a2 bd a2 fd d3 3e b9 f8 92 3e
       0.81122404 -0.07947079 0.41404444 0.28705385
0001a0 e7 ac 9d be 2a 01 01 bf 9a e6 c7 3e 83 ed c0 bc
       -0.30795977 -0.503924 0.39043123 -0.023550754
0001b0 ad 4c 13 3e 80 ed b5 bd 66 1d 64 3d 1c ad 4c 3e
       0.14384718 -0.0888319 0.0556921 0.19987911
0001c0 c5 01 87 3e 97 4e bf 3d 6c 2f 48 3e 5f a4 b1 3e
       0.26368538 0.09341162 0.1954934 0.34695718
0001d0 bd 29 05 3f 1e af af 3e 1a 48 e5 bd fb 67 2a bf
       0.5201681 0.3431329 -0.11195393 -0.6656491
0001e0 b9 5e ac be e9 cf a0 bd f7 8b 84 3f 47 5c 75 be
       -0.33666018 -0.07852156 1.0355214 -0.23960982
0001f0 41 36 b6 3d c7 84 d9 bd 86 35 a5 be 95 2e d2 be
       0.08897067 -0.106210284 -0.32267398 -0.41051164
000200 bc 22 95 3e 70 0d 01 3f 42 33 51 be 92 3c d3 bd
       0.29128063 0.5041113 -0.2042971 -0.10314287
000210 22 bd 8f 3e 84 c8 d6 3e 24 fa 8f 3e e2 33 b2 3e
       0.28073984 0.41949856 0.2812053 0.34805208
000220 5c ab 09 3f ff e1 94 3c 7b 74 61 3e 5d 6f 3a bf
       0.537771 0.01817417 0.2201709 -0.72826177
000230 5e 6d f8 bc 59 85 cd 3d 4e 52 81 be 0c 85 06 be
       -0.030325588 0.100352 -0.25258106 -0.13136691
000240 fa a7 78 3e 50 fb f4 be b5 64 f1 3d 20 72 b7 3e
       0.24282828 -0.47847986 0.117867865 0.35829258
000250 44 de 9a 3e 71 00 1f 3d f9 00 0c be a4 55 a2 3e
       0.302477 0.03881878 -0.13672246 0.31705964
000260 17 bc 62 be 86 ac 4f 3e 43 f4 f9 be 73 91 8f be
       -0.22142063 0.20280656 -0.4881917 -0.28040656
000270 66 00 b5 be 5f 3b 81 3e 29 74 60 3e a9 a8 3a be
       -0.35351866 0.2524061 0.21919312 -0.18228401
000280 03 60 08 bf 10 c5 b5 3e ad 85 48 bd 4d 76 9a 3e
       -0.532715 0.3550191 -0.04895561 0.3016838
000290 3a e0 66 bf 8a f3 66 3e 8a a1 0c be b1 10 a9 bc
       -0.9018589 0.2255384 -0.13733497 -0.020637842
0002a0 09 9a f6 be 26 91 72 be 73 d2 a2 be 87 41 1d 3e
       -0.48164394 -0.23688182 -0.31801185 0.15357028
0002b0 c3 8c 96 3e 21 64 f9 bc 02 9e a2 3e a8 f7 1c 3f
       0.29404268 -0.030443253 0.31761175 0.61315393
0002c0 b9 dc b9 3e 9a 16 9e 3e d1 eb ff 3d b1 97 c3 3e
       0.3630121 0.3087662 0.1249615 0.3820167
0002d0 f8 9a 9f bd af 48 a0 bd 22 65 19 be ab 57 18 be
       -0.0779323 -0.07826363 -0.14979985 -0.14877193
0002e0 b3 28 aa be 4e 9c 1e 3f b7 e8 fc be 9a 75 0d bf
       -0.33234176 0.6195725 -0.49396297 -0.5525757
0002f0 c4 97 5d 3d 00 ef 10 3e 81 c2 ed 3d 47 44 40 be
       0.054099813 0.14153671 0.11609364 -0.18776046
000300 b5 d9 b4 be d6 68 3c 3c e1 f4 bb 3e 89 93 87 be
       -0.35322347 0.011499604 0.36710265 -0.26479748
000310 6c 07 31 3e 7e 4b 54 3e b2 2f 59 3e 88 0a 47 bf
       0.17287987 0.20731923 0.212096 -0.77750444
000320 00 e2 a0 bc 00 72 d2 be 88 fd f8 3e 7a 4f 1d be
       -0.019639015 -0.411026 0.4863093 -0.15362349
000330 6e 30 61 3e e1 66 61 be e3 57 82 bd fa 53 1e bc
       0.2199113 -0.22011901 -0.06364419 -0.009663576
000340 c9 4e 12 3e b5 d6 c5 3e c3 4f 30 3e 5d 5b dc 3d
       0.14287867 0.3864037 0.17217927 0.10759614
000350 17 58 f5 be 10 76 b0 3e 11 e1 be 3e ab 19 b2 3e
       -0.4791877 0.34465075 0.37281087 0.34785208
000360 59 c6 21 3f c1 33 08 bf 75 82 15 3f 99 73 f5 3d
       0.6319328 -0.5320397 0.58402187 0.11984939
000370 33 21 a5 bf c5 01 0e 3f eb 72 1b bf a7 4c dc be
       -1.2900757 0.5547145 -0.60722226 -0.4302723
000380 9b 3d aa 3e 98 c2 19 bf 5c d6 f6 be c8 cd 72 3d
       0.33250126 -0.6006255 -0.48210418 0.05927828
000390 f9 6f aa 3e 2f a6 24 3f 36 d4 bf bd b7 3c e6 be
       0.33288553 0.64316076 -0.09366648 -0.44968197
0003a0 0a 3e bb 3e a0 59 2f be a9 c2 af be 60 70 33 3d
       0.3657077 -0.17124033 -0.343282 0.04380834
0003b0 80 e7 27 3e 51 60 f4 3c fa f2 fb 3e 14 e4 11 bf
       0.16396904 0.029831083 0.49208814 -0.56988645
0003c0 88 06 db be 6d 3a 86 bd 13 60 de 3d 11 7f cc bd
       -0.4277842 -0.065541126 0.108581685 -0.099851735
0003d0 ff 8e 23 bf 72 6b fa 3d 77 6b 2f bf ed 53 05 bf
       -0.6389007 0.12227525 -0.68523353 -0.52081186
0003e0 cd 7a fa be 36 c1 29 3f 97 a3 fc bb 2a 7e 80 be
       -0.48921815 0.6631044 -0.007709931 -0.25096256
0003f0 78 4f a0 3e bc de 53 3e 09 69 51 3e 66 84 a4 be
       0.3131063 0.20690435 0.20450224 -0.32132262

fc1.bias f4 [64]
000000 11 0f 9f be 45 5a f8 3e e3 d1 09 3f 67 1e b3 be
       -0.31066182 0.4850637 0.53835887 -0.34984133
000010 ca 8c a0 3d 3f d2 8a bd 19 3b 92 be 59 c2 7d 3d
       0.078393534 -0.067783825 -0.28560713 0.061952922
000020 0c 85 0f bf 4c 57 f0 bd da 40 2f 3e b7 cb 80 be
       -0.5606239 -0.117354006 0.17114583 -0.25155422
000030 43 14 ca bd 13 6b c5 be a3 54 2c 3d 69 47 ec 3e
       -0.09867146 -0.38558254 0.042072903 0.46148232
000040 50 b8 30 be 4a c6 02 bf 82 8c d2 3d 49 bd 53 3e
       -0.1725781 -0.51083815 0.10280706 0.20677675
000050 ea db ba 3d 32 b9 19 3e fa da 02 bd cf d4 8d be
       0.091239765 0.15012053 -0.031947114 -0.27701423
000060 28 be b6 3e 5e 9b 96 3d d0 79 b4 be e4 65 dd 3d
       0.35691953 0.07353853 -0.35249186 0.1081045
000070 d9 c7 89 3c 4a 7e 5d be 16 fd a4 be a1 c0 85 be
       0.016818928 -0.21630207 -0.3222434 -0.26123527
000080 cf 3e 36 be 9b af 95 3e 98 ce 8d be fd 60 6e 3e
       -0.17797397 0.2923554 -0.2769668 0.23279186
000090 a3 90 ba bd 6b 09 ed 3e 00 93 40 bd 84 26 cf be
       -0.091096185 0.46296248 -0.04701519 -0.40459073
0000a0 be d7 03 3f 24 81 e7 be 4a 48 61 be d5 67 0b 3e
       0.5150107 -0.45215714 -0.22000232 0.13613828
0000b0 32 46 f4 3e 66 ab c5 bd 11 12 11 bf b5 0d c4 be
       0.47709805 -0.09651832 -0.5666819 -0.38291708
0000c0 3d dc 3a be 42 40 88 be 3e 9d ab be 80 04 0a bf
       -0.18248077 -0.26611525 -0.33518404 -0.53913116
0000d0 cb da 35 3e 61 e8 37 3e 32 37 94 be 6b ab a9 be
       0.17759244 0.1795974 -0.2894836 -0.33138594
0000e0 c2 31 96 3d df 20 d9 bc 49 29 e0 3e 34 b1 d6 bd
       0.07333709 -0.026504932 0.43781498 -0.104830176
0000f0 96 41 ce be b0 50 9f be da 10 7e be bf 66 19 bd
       -0.40284413 -0.31116247 -0.24811116 -0.037451502

fc2.weight f4 [64, 64]
000000 d2 e3 8f be 9a 90 32 3d 12 e2 b4 3d 3f 53 cd be
       -0.281035 0.043594934 0.08832182 -0.40102574
000010 75 9c 84 3d f6 d0 f1 bc 2b e0 36 3e fe 1f 43 be
       0.06475154 -0.029518586 0.17858951 -0.19055173
000020 a7 2b c5 be 1c a3 b4 3d cc 78 0a 3f 03 0d 45 3c
       -0.38509867 0.08820173 0.5409057 0.012027028
000030 ae 58 30 3d 89 56 7e 3d 7b c6 ad be 8a e6 0c 3e
       0.04305332 0.062094245 -0.3394049 0.13759819
000040 cc 17 95 3e 01 87 f9 bd 1f 6d 3b 3e b2 75 73 3e
       0.29119718 -0.12183953 0.18303345 0.23775366
000050 ae e6 3d 3d b9 72 83 3e 75 ae 45 bf 09 46 ce 3e
       0.04636257 0.25673464 -0.77219325 0.40287808
000060 59 1f b4 3b 00 c6 76 be 40 c5 cb 3b 0f 3c 5d be
       0.005496901 -0.24098969 0.0062185824 -0.21604942
000070 ab 79 68 3d 85 8b f1 be d8 26 b5 bd fc b6 02 3d
       0.056756657 -0.47176757 -0.088452995 0.03191279
000080 1a d3 90 3e e3 62 b5 3e 42 2d 0f be 26 63 c1 3d
       0.28286058 0.35427007 -0.13982108 0.09442739
000090 0d 28 7c be 56 e6 6b 3f 48 2d 95 bc 13 b1 dd 3e
       -0.24624653 0.9214834 -0.018210068 0.4329916
0000a0 04 70 84 3f e2 0f 62 be 6c 43 39 3e b5 f3 91 bd
       1.0346684 -0.22076371 0.18092126 -0.071265616
0000b0 f0 a4 80 3e 03 a2 08 bd 14 b4 59 3d 6d ce 54 be
       0.25125837 -0.03335763 0.05315025 -0.2078187
0000c0 80 5d 32 bb 00 80 16 3d 63 df 04 bd cd 17 98 be
       -0.0027216375 0.036743164 -0.0324396 -0.2970566
0000d0 59 4d ca 3e b6 80 41 3f 6a a4 94 3e e6 93 ab 3e
       0.39512137 0.7558702 0.29031688 0.33511275
0000e0 cf 68 76 3e b7 7e b4 3e d3 9f ef 3e 1f 14 1c bf
       0.24063419 0.35252926 0.46801624 -0.609682
0000f0 6c ef 9d bd dc 37 fa be 68 8d ab be c4 3d b3 3e
       -0.07711682 -0.48870742 -0.33506322 0.3500806
000100 af 9b b0 3e 14 8c 38 be 14 62 8c bd e7 bf cc 3e
       0.34493777 -0.18022186 -0.068546444 0.3999016
000110 37 f0 6b bd 86 32 99 3e 17 8f c2 be c1 7d a9 3e
       -0.057602134 0.2992136 -0.37999794 0.33103755
000120 52 56 47 be 28 53 53 3d 2a de 0e bf 17 4a 0a 3e
       -0.19466522 0.051592976 -0.55807745 0.13504826
000130 e1 f3 62 be ce 19 ec bc a5 ae 0a 3d e0 92 9a be
       -0.22163345 -0.028820898 0.03385796 -0.30190182
000140 5e f2 6f bd 75 72 de 3e f3 7a 0d bd 28 6c 9f be
       -0.05858075 0.434467 -0.03454108 -0.31137204
000150 a5 59 44 be 09 4b 9d be 50 14 ac 3e 1d b8 38 be
       -0.19174822 -0.3072131 0.33609247 -0.18038984
000160 56 1e a9 3d dc c4 84 3e cf 6d 0a 3f 3d 71 f0 3e
       0.08257739 0.25931442 0.54073805 0.46961394
000170 95 8e 13 bf 6d e0 f4 3d 4e 0c 8a 3e 19 ec b2 3d
       -0.5763944 0.11956868 0.26962513 0.08736438
000180 ea 02 8b bd b7 c0 c7 bd 21 01 0b 3f 8f b9 c7 3d
       -0.06787665 -0.09753554 0.542986 0.09752189
000190 42 d3 8f bc f3 15 8d bf 87 ee 95 bd e1 0b 81 be
       -0.01755679 -1.1022323 -0.07320886 -0.25204375
0001a0 71 bf 0e bf 7d 3b 1a 3e 5b f4 93 bd d0 89 35 be
       -0.55760866 0.15061755 -0.072243415 -0.17728353
0001b0 ca b5 72 be f5 83 d8 bd ef 2e 6d 3e 94 33 aa bd
       -0.2370216 -0.10572044 0.23162435 -0.08310619
0001c0 1c dc a4 3e 61 a9 2a 3e 52 94 cc 3d a7 39 4d 3e
       0.3219918 0.16666175 0.09989227 0.20041524
0001d0 6b 52 eb be c4 d6 6f be 82 6b c5 3b 29 6f bb be
       -0.45961317 -0.2342177 0.006024779 -0.36608246
0001e0 6b 20 55 be 2d e7 9a be 65 85 e7 be 62 df 3d 3f
       -0.20813148 -0.30254498 -0.4521896 0.7416898
0001f0 75 47 92 3e 15 20 34 3f 0f 84 cb 3e 2a 52 19 be
       0.28570142 0.70361453 0.3974919 -0.1497275
000200 5a 57 d4 3c ac 16 cc bd a2 c7 38 3d 85 13 96 3e
       0.025920559 -0.09965262 0.04511226 0.29311767
000210 c8 06 66 ba 72 5a bd be 5c 81 98 be bf 60 32 bd
       -0.0008774814 -0.36983067 -0.29786193 -0.043549296
000220 76 80 c5 3e 06 13 d1 be de a3 0c bf 8b 54 ff 3d
       0.3857457 -0.40834826 -0.5493754 0.12467297
000230 f8 6f bd bd b9 e8 18 be 17 e1 64 3e 25 2a df bd
       -0.09249872 -0.14932527 0.2235149 -0.1089671
000240 3f 98 5b bd 36 62 48 3e 60 13 f7 be 23 29 a7 3e
       -0.05361199 0.19568714 -0.4825697 0.32648572
000250 90 e1 9d 3d 68 b6 4e be 1f 72 6b 3d 94 a8 fc 3e
       0.07709038 -0.2018677 0.05748188 0.49347365
000260 f3 29 d0 3e 38 23 91 be c0 bd 51 3e d3 62 9c 3e
       0.40657005 -0.28347182 0.2048254 0.30544147
000270 c1 92 82 be b4 75 ee bd 77 15 aa 3e 22 a0 08 3f
       -0.2550259 -0.11643544 0.332195 0.53369343
000280 3e ee 81 be 4d ab d1 be ac 71 44 3f a1 17 3d be
       -0.25377077 -0.40951005 0.7673595 -0.18466045
000290 e4 92 27 3e 7d 65 ff bd 40 6c 6a 3d 8a ac 69 bd
       0.16364628 -0.12470529 0.05723214 -0.05704931
0002a0 f6 32 66 be 5a bf dd 3e 10 04 99 bd 16 4b 1d 3e
       -0.22480378 0.43310052 -0.07471478 0.15360674
0002b0 70 22 2c bd 9f f0 09 bd 48 67 26 3e a3 ec 06 3f
       -0.04202503 -0.03367674 0.16250336 0.5270483
0002c0 e4 95 a9 3e 6b be e8 bd 3d de 2b 3e 38 40 0b 3e
       0.3312217 -0.11364444 0.16783996 0.13598716
0002d0 b9 59 f2 3d a8 f8 61 3e 2f 5d 6d 3d bd 03 9f bb
       0.118335195 0.22067511 0.057950195 -0.0048527406
0002e0 60 6d a7 be 20 15 c7 be 16 98 93 3e a1 7c ab 3d
       -0.32700634 -0.38883305 0.2882697 0.083733805
0002f0 30 d7 c9 be 95 43 07 3f f6 ee 18 3d a7 64 0e be
       -0.39421988 0.52837497 0.037337266 -0.13905583
000300 21 05 02 bd 19 7c 33 bd 5d 77 c0 bd 4c e9 60 be
       -0.031743173 -0.04381952 -0.09397767 -0.21963996
000310 cb 31 a8 3d aa 1e 4c 3e b6 c9 5a 3e f4 9f 1d bd
       0.08212622 0.19933572 0.21366009 -0.03848262
000320 45 da 2f 3d 1b bf 3f 3e d8 58 bb 3e 1d 96 6d be
       0.042932767 0.18725245 0.3659122 -0.23201795
000330 48 45 6b bd 2f ef 4d 3e f2 18 71 bd 35 58 4a 3d
       -0.05743912 0.20110773 -0.05886168 0.049400527
000340 31 2e 9c be 2d 25 06 bd d2 fb 25 3e bf 14 00 be
       -0.3050399 -0.032750297 0.16209343 -0.12507914
000350 83 99 3c 3d 57 c8 9d 3e c3 77 15 bd 59 a2 bd be
       0.046044838 0.3081691 -0.036491167 -0.37037924
000360 b8 4c 1e bd d1 d0 0e 3e 60 8e 27 3d 0c b7 1a be
       -0.038647383 0.13946845 0.040907264 -0.1510889
000370 4c f2 ca 3e 2e d1 a5 ba 13 07 2d be 04 8f e2 be
       0.39637983 -0.0012650841 -0.1689723 -0.44249737
000380 8a 41 b5 3d 2a 67 3a 3e 43 1a 21 bf e4 cc 02 3e
       0.08850391 0.18203416 -0.629307 0.12773472
000390 c5 56 83 be 10 3b 35 bd 48 b4 80 3e 32 6e a4 3e
       -0.25652137 -0.04424578 0.25137544 0.32115322
0003a0 cd 59 25 be 47 c9 39 bd 9b 8a 0b 3e 4b 19 a7 3c
       -0.16147538 -0.04535797 0.13627093 0.020397803
0003b0 95 7d b8 3d 1c 6a 79 bd 85 98 f1 bd 3d ad a7 be
       0.09008328 -0.06089221 -0.11796669 -0.32749358
0003c0 23 ab 8c be 87 f3 84 3c a8 17 c9 bd 4a 76 a7 3c
       -0.27474317 0.016229404 -0.09818965 0.020442147
0003d0 6f 6b a0 3c 2c eb 69 be da 50 c4 be 32 e4 16 be
       0.019582478 -0.22843617 -0.38342935 -0.14735487
0003e0 14 8b 33 3e 88 8d 6e 3e b7 95 c1 bd 09 5d 01 bf
       0.17533523 0.23296177 -0.09452384 -0.50532585
0003f0 77 38 b0 3d 87 b3 0e bf c3 45 20 bd d9 9b b8 3e
       0.0860452 -0.55742687 -0.03912903 0.36056402

fc2.bias f4 [64]
000000 3a 98 97 3c 6e da aa be 6b cd 44 be b5 33 94 3d
       0.018505204 -0.33369774 -0.19218986 0.07236425
000010 c4 97 4b bd ce 53 87 be 9c 49 c1 be 85 fc 27 be
       -0.04970528 -0.26431125 -0.37751472 -0.16404922
000020 1f 03 a6 3d d6 ae 5e 3e 9a 91 b8 be a9 6a 07 bd
       0.08106064 0.21746382 -0.36048585 -0.033060703
000030 20 f2 6b be 59 bf 18 3e 0a d3 ae 3e 06 c0 aa 3e
       -0.23041582 0.14916743 0.34145385 0.33349627
000040 87 68 9a be 97 a2 9a 3d fb 12 19 be 5c f1 0d bd
       -0.30157873 0.07550543 -0.14948647 -0.034654006
000050 1f bb 3b 3e 27 3a 87 3e ba 07 58 be 5a ea b0 3e
       0.183331 0.26411554 -0.21096697 0.34553796
000060 04 66 dc bd 7d 69 41 bc 7d 74 67 bd bf 7a b7 3e
       -0.107616454 -0.0118049355 -0.056507576 0.35835835
000070 80 f6 b4 3e a9 1c 95 3e 49 dc 09 3e 46 4b d5 3d
       0.35344315 0.29123428 0.13462938 0.10414748
000080 9c 50 b7 bc 3c 2f b9 bd 98 29 91 3e a4 d5 76 3e
       -0.022377305 -0.09042212 0.28352046 0.24104935
000090 db f6 46 3e 6f 73 94 3e c4 cd 41 3c 9e 5c 74 bd
       0.19430105 0.2899432 0.0118288435 -0.05965864
0000a0 b0 64 07 be 0d ea 6a bd cc de 9d 3d 6d 23 3c be
       -0.13222003 -0.057352114 0.07708511 -0.18372889
0000b0 14 17 06 3e b4 db 92 be 02 df 38 3e 41 b4 80 3d
       0.13094741 -0.28683245 0.1805382 0.06284381
0000c0 b7 88 17 bc 2e 09 12 3d 0a 20 f3 3c 0d ab 00 3d
       -0.009248904 0.035653286 0.029678363 0.031413127
0000d0 dd f4 f8 3e 21 18 c9 3d 10 5d bc be f5 bc af 3e
       0.48624316 0.09819055 -0.3678975 0.3432385
0000e0 b3 d4 05 be d3 cd 91 be aa 84 18 3e db 35 e7 3c
       -0.1306942 -0.28477344 0.14894357 0.028223922
0000f0 d2 7b 9a be 1e c5 b5 3e b0 03 c7 3d 7f 05 d7 3c
       -0.30172592 0.3550195 0.097175 0.026247738

mean_out.weight f4 [2, 64]
000000 86 85 5e 3f 5f 68 93 bf 73 e2 85 bf b1 a4 5d 3f
       0.8692249 -1.1516227 -1.0459732 0.86579424
000010 a6 3e f6 bd 18 a9 a6 bf a3 f3 28 bf 17 bd 41 3f
       -0.12023668 -1.3020353 -0.6599676 0.75679153
000020 02 fe 0f bf 41 39 4f 3f 0a 4f 39 bf 07 a6 58 3f
       -0.5624696 0.8094674 -0.7238623 0.8462834
000030 6a 8a 2f bf e1 30 5f 3f 4e a1 ac 3f 50 46 8c 3f
       -0.6857058 0.8718396 1.3486726 1.0958958
000040 ac cd 92 bf 14 6b ba bc 05 32 7e bf 17 0f 77 be
       -1.1469016 -0.022756137 -0.99295074 -0.2412685
000050 05 5c 77 3e 1a 95 23 3f f6 93 2f bf d0 39 96 3f
       0.24156196 0.63899386 -0.68585145 1.1736393
000060 52 1f 01 bf c1 6e e7 ba 21 60 0c bf d1 8f 95 3f
       -0.50438416 -0.0017656909 -0.5483418 1.1684514
000070 86 ab 58 3f fd 8d 99 3f 43 aa 30 3f 32 4b 18 3f
       0.84636724 1.1996456 0.690098 0.5948974
000080 1b 37 1c 3f 3f 2b 11 3e c4 ac 8a 3f dc d6 a8 3f
       0.61021584 0.14176653 1.0833974 1.319057
000090 d6 2b 7b bd f3 0d 9a 3f 89 45 21 bf df 22 5d bd
       -0.061321102 1.2035507 -0.6299673 -0.053988334
0000a0 b4 4e 99 bf 33 6b 38 3f 00 69 9a 3e f1 60 24 bf
       -1.1977143 0.72038573 0.30158234 -0.6421042
0000b0 07 f5 38 be b9 21 85 bf eb a3 c0 3e 48 4e 02 3f
       -0.1806222 -1.0400916 0.3762506 0.509007
0000c0 e4 d9 9d be b9 40 62 be f8 84 60 bf 0b a9 2c bf
       -0.308303 -0.22095002 -0.87702894 -0.6744544
0000d0 a9 05 18 3f 34 aa 85 3f ec a0 19 bf c4 c8 9d 3f
       0.59383637 1.0442567 -0.6001117 1.2326894
0000e0 f5 84 2b 3f 53 88 9e bf 25 ba 76 3f 43 cd dc be
       0.6699975 -1.2385353 0.96377784 -0.43125352
0000f0 9a 3c 60 bf ec ca 89 3f 60 54 61 bf f0 50 f9 3e
       -0.8759247 1.0765052 -0.8801937 0.48694563
000100 48 27 9a 3e a2 61 94 3e 8e 88 41 3f 1e 4f 48 bf
       0.30108094 0.28980738 0.7559899 -0.78245723
000110 b0 bd a4 bf 60 a2 c8 3d 63 9f 28 3e a9 52 4a 3f
       -1.2870388 0.097965956 0.16467051 0.7903238
000120 2e f4 8c 3f ce 7b 03 be 4b aa 1f 3e a3 46 97 bf
       1.1012018 -0.12840196 0.15592305 -1.1818432
000130 52 50 5c bf 18 e9 15 3e 78 77 35 bf 47 cb 4d bf
       -0.8606006 0.146397 -0.7088542 -0.803883
000140 40 02 4b 3e f4 4b 98 bf 31 ce ac 3b 1b 13 8c bf
       0.19825077 -1.1898179 0.0052736034 -1.094333
000150 cb 24 7e 3f a2 8b 3d be 37 04 fc 3d 65 d6 83 bd
       0.9927489 -0.18510297 0.123054914 -0.06437377
000160 47 ac 88 bf 3f 69 8c 3f 50 d4 81 bf d8 af c7 3d
       -1.0677575 1.0969619 -1.0142918 0.097503364
000170 a1 fc bf 3e d6 5f 0b 3d 04 8a 85 3f a9 2a 87 3f
       0.37497428 0.034026943 1.0432744 1.0559894
000180 28 6b 8a 3f 64 2e 99 3f c1 51 07 bd b9 60 07 bf
       1.0813951 1.1967282 -0.03303695 -0.5288196
000190 7a ab 96 bf e9 d7 a2 3e 09 c1 44 3f da 97 a8 3f
       -1.177108 0.3180535 0.7685705 1.3171341
0001a0 0f 49 a6 3e 3a 5e 8b be 4d 25 99 bf d8 c8 a7 3e
       0.32477614 -0.27220327 -1.1964508 0.3277042
0001b0 5c 1e a9 3f 66 e1 62 be ca a8 81 bf ab 49 aa bf
       1.321239 -0.22156295 -1.0129635 -1.3303732
0001c0 d2 e0 a1 3f c2 ab aa 3f b1 c0 5e 3f cb 1a 6c 3f
       1.2646735 1.3333666 0.87012774 0.9222838
0001d0 0a e6 8f be 1f 2e 40 3f b2 24 8d 3e f4 0f 08 3d
       -0.28105193 0.75070375 0.2756706 0.03321834
0001e0 70 11 e6 bd 55 67 a9 bd 8b c7 22 3e 36 36 93 3f
       -0.11233795 -0.08271662 0.15896432 1.1500919
0001f0 7f 88 5f 3d 31 4c 01 3f b6 4c f5 3c 21 88 84 3f
       0.054573532 0.50506884 0.029943805 1.0354043

mean_out.bias f4 [2]
000000 56 49 fe 3e ef 4b c8 bd
       0.49665326 -0.09780108
