pretrained_model/Walker2d-v2.pt (torch, 24979 bytes, 7 tensors)

log_std f4 [6]
-1.8887824 -2.011086 -1.7536538 -1.7039653 -1.9263556 -1.9186484
00000000: 9fc3 f1bf a2b5 00c0 ba77 e0bf 891b dabf
00000010: d292 f6bf 4596 f5bf

fc1.weight f4 [64, 17]
0.18873346 0.09774412 -0.43856472 0.098983206 -0.5318623 -0.22680242 0.34904996 0.3166318
0.14552042 -0.035972085 0.10367981 0.051218625 0.23602843 -0.06787234 -0.13813812 0.16440517
0.02505443 0.117894605 0.20851779 -0.12207791 -0.016278906 -0.20708287 -0.10989576 0.032356646
0.0006742554 0.07095428 0.31566876 0.046278067 -0.31721896 0.17481957 0.09026762 0.08081738
0.31964913 -0.4075976 -0.03161098 -0.15074901 0.09224721 -0.43666062 -0.029999647 -0.537292
-0.038817413 -0.026657779 0.32431754 0.050310884 -0.057135884 0.1740169 -0.16489716 0.20031263
0.0017497143 0.061394513 -0.21692497 -0.22041516 0.8501869 -0.079427205 0.39838868 0.2116689
0.042364925 -0.26980087 0.44952166 0.13495594 -0.50264394 0.039804693 -0.108977705 0.10424662
-0.080283776 -0.22855262 -0.1298039 0.0755331 -0.37895906 -0.05709112 -0.24976164 -0.007918381
0.11607398 -0.041997157 0.10676938 0.06252062 0.256174 0.07368445 -0.16512491 0.18532336
-0.2966999 0.023886891 -0.0652132 -0.05003305 0.356155 -0.115702845 -0.79270196 0.104537904
-0.6304093 -0.20966691 -0.40756202 -0.6019801 -0.24921048 0.05415339 -0.09525792 -0.26975226
-0.15263663 0.22144853 -0.07636942 -0.18421999 0.15967108 0.12032853 0.25562832 -0.12380128
-0.31406334 -0.022576148 0.56083554 -0.09414906 0.391802 0.0015185759 0.103577614 0.12051618
0.33108172 0.005086148 -0.006201567 0.21798694 0.33774763 0.13044351 -0.2280667 -0.12028903
-0.64132005 -0.5968654 0.07751459 -0.2396976 -0.33574864 -0.4164836 -0.58060366 -0.050301615
0.15044275 0.24191384 -0.1434856 0.09823996 0.2636172 0.43484032 -0.09108397 0.1530546
0.063324995 0.27379182 -0.084468134 -0.12460839 0.037682325 0.08709593 0.19095004 0.20109813
0.18685398 0.0011595798 0.3466914 0.14467874 0.2780395 0.15225197 0.06597321 0.22297424
0.07192607 -0.009624985 0.26364326 -0.0069854595 -0.14266561 -0.06572239 0.14094965 -0.10414532
-0.12293026 0.41415066 -0.07312868 0.5015747 0.12684977 0.14423236 -0.06052623 0.035769638
-0.08675394 -0.2390085 -0.23795548 -0.031132445 -0.12336793 0.12513371 -0.010572324 0.3177597
0.108209096 -0.2421127 -0.27829275 0.28260896 0.1952671 0.18294993 -0.21133773 0.043339524
-0.0065313666 0.7073216 -0.16739833 -0.22988032 0.2659384 -0.17712958 0.08503828 -0.15430537
-0.18611802 -0.13979417 0.2978897 -0.040994253 0.18454471 0.20382616 0.30895337 -0.2100782
0.14776117 -0.18566567 0.23736712 -0.13714346 0.026651006 -0.47622088 -0.16954145 0.12789375
-0.18763207 0.013521956 0.39870453 -0.2319788 -0.22124477 0.38724074 0.19614603 0.3331101
0.08674325 -0.2782431 -0.020333787 0.3768368 -0.12580892 0.17662638 -0.33941233 -0.5092702
-0.15874863 -0.3897557 -0.5808781 0.20542543 -0.027264424 0.33495015 0.17156677 -0.23150761
0.07885408 0.019098204 -0.09552584 0.040984064 -0.49031132 0.23222546 0.4102268 -0.72717327
-0.3922047 -0.22026066 0.2374171 -0.13792618 -0.5536408 -0.0014537874 -0.30304995 -0.37864918
-0.25169632 0.28394592 0.20718905 -0.018917382 0.004665741 0.05732283 -0.06291302 -0.03434013
00000000: 5843 413e 122e c83d 8e8b e0be b5b7 ca3d
00000010: 2128 08bf e53e 68be adb6 b23e 901d a23e
00000020: 4e03 153e 7757 13bd 1556 d43d 9fca 513d
00000030: 70b1 713e a700 8bbd 1474 0dbe d459 283e
00000040: f33e cd3c ba72 f13d b085 553e fc03 fabd
00000050: 575b 85bc 880d 54be 0711 e1bd 6788 043d
00000060: 84c0 303a 7a50 913d 569f a13e 128e 3d3d
00000070: 866a a2be e703 333e 3bde b83d 9583 a53d
00000080: 0da9 a33e a2b0 d0be 847a 01bd f35d 1abe
00000090: 1bec bc3d fb91 dfbe d2c1 f5bc f88b 09bf
000000a0: 02ff 1ebd 6a61 dabc f30c a63e c912 4e3d
000000b0: 5107 6abd 7c31 323e cdda 28be c11e 4d3e
000000c0: ab56 e53a d078 7b3d 9421 5ebe 83b4 61be
000000d0: d9a5 593f bbaa a2bd 9af9 cb3e bbbf 583e
000000e0: d886 2d3d 5723 8abe b427 e63e e431 0a3e
000000f0: 46ad 00bf 3f0a 233d b42f dfbd 407f d53d
00000100: d26b a4bd b309 6abe 50eb 04be 19b1 9a3d
00000110: ec06 c2be 61d8 69bd 84c1 7fbe 19bc 01bc
00000120: 32b8 ed3d 3605 2cbd e8a9 da3d d00a 803d
00000130: 3d29 833e dfe7 963d 8116 29be 68c5 3d3e
00000140: 0de9 97be 71ae c33c 808e 85bd 75ef 4cbd
00000150: f359 b63e 9df5 ecbd 84ee 4abf f817 d63d
00000160: 8162 21bf ecb2 56be f8ab d0be 5e1b 1abf
00000170: 0831 7fbe f2cf 5d3d 9616 c3bd f81c 8abe
00000180: c74c 1cbe 67c3 623e 9267 9cbd 2aa4 3cbe
00000190: d180 233e ce6e f63d b7e1 823e 878b fdbd
000001a0: e9cc a0be 9df1 b8bc eb92 0f3f 39d1 c0bd
000001b0: 469a c83e f40a c73a 8020 d43d 30d1 f63d
000001c0: 8b83 a93e b4a9 a63b 8436 cbbb f837 5f3e
000001d0: 42ed ac3e fc92 053e 518a 69be 185a f6bd
000001e0: 8d2d 24bf 2ccc 18bf f8bf 9e3d 4a73 75be
000001f0: 3fe7 abbe 573d d5be 71a2 14bf 1109 4ebd
00000200: aa0d 1a3e 43b8 773e e4ed 12be 0832 c93d
00000210: d5f8 863e 64a3 de3e 3c8a babd 58ba 1c3e
00000220: 89b0 813d 712e 8c3e a1fd acbd af32 ffbd
00000230: c858 1a3d 5a5f b23d 6888 433e abec 4d3e
00000240: a656 3f3e 0bfd 973a 8981 b13e aa26 143e
00000250: 315b 8e3e f1e7 1b3e f61c 873d 5c53 643e
00000260: fa4d 933d 1db2 1dbc 40fc 863e 48e6 e4bb
00000270: ef16 12be 7699 86bd 1b55 103e 244a d5bd
00000280: dcc2 fbbd 8e0b d43e 7dc4 95bd 3367 003f
00000290: e8e4 013e a6b1 133e 5aea 77bd 2f83 123d
000002a0: 0dac b1bd a5be 74be 9aaa 73be 7809 ffbc
000002b0: 53a8 fcbd 0d23 003e 8a37 2dbc 66b1 a23e
000002c0: bb9c dd3d 64ec 77be 637c 8ebe 1fb2 903e
000002d0: 19f4 473e 3a57 3b3e eb68 58be c984 313d
000002e0: 1305 d6bb 0713 353f 786a 2bbe bf65 6bbe
000002f0: 1429 883e 7561 35be 8d28 ae3d 3a02 1ebe
00000300: b995 3ebe 3426 0fbe 0085 983e 97e9 27bd
00000310: 4af9 3c3e ceb7 503e 232f 9e3e bd1e 57be
00000320: b44e 173e 241f 3ebe 5e10 733e 566f 0cbe
00000330: 3653 da3c 39d3 f3be 469c 2dbe 94f6 023e
00000340: 9f22 40be 328b 5d3c 0023 cc3e da8b 6dbe
00000350: fd8d 62be 6b44 c63e 81da 483e 688d aa3e
00000360: 72a6 b13d e175 8ebe 0b93 a6bc c1f0 c03e
00000370: 0ed4 00be 8cdd 343e 74c7 adbe 885f 02bf
00000380: 008f 22be 0f8e c7be 6db4 14bf 0b5b 523e
00000390: a459 dfbc 967e ab3e 33af 2f3e 5510 6dbe
000003a0: 3f7e a13d d673 9c3c 0da3 c3bd e8de 273d
000003b0: 160a fbbe 83cc 6d3e 3f09 d23e 0728 3abf
000003c0: 0ecf c8be 038c 61be 781d 733e 853c 0dbe
000003d0: 67bb 0dbf 038d beba 5d29 9bbe 4ede c1be
000003e0: 57de 80be 5c61 913e 5e29 543e a0f8 9abc
000003f0: 13e3 983b 58cb 6a3d 8bd8 80bd 3ca8 0cbd

fc1.bias f4 [64]
-0.030519398 0.30986696 0.32917267 0.028273646 -0.35124543 -0.16074419 0.28503832 0.020006401
-0.31991917 0.02954568 -0.23821132 -0.025852785 -0.045775834 0.07073919 0.030875426 0.13595662
-0.03322248 0.4106793 -0.07181841 0.13947076 0.016597366 0.1106679 -0.049964312 0.057487592
-0.1546513 -0.00597448 -0.08191206 0.30519864 -0.11420443 -0.07618443 -0.066970356 -0.027381621
-0.10725995 0.15553164 0.17008464 0.076630935 -0.17192617 -0.0341552 -0.13492675 0.0679014
-0.17025478 0.16547345 0.05624657 0.17833644 -0.38923705 0.2446556 -0.1659856 0.037424397
0.09782143 -0.040789466 -0.18899012 0.23308966 -0.4460825 0.20626275 0.21185194 0.01453751
-0.17020693 -0.12152466 -0.20944576 -0.38238806 -0.055552512 -0.23409563 -0.009867219 -0.016935384
00000000: d103 fabc e2a6 9e3e 5289 a83e 229e e73c
00000010: 71d6 b3be 209a 24be 8bf0 913e 77e4 a33c
00000020: 72cc a3be c809 f23c abed 73be 38c9 d3bc
00000030: 717f 3bbd b5df 903d 76ee fc3c 3638 0b3e
00000040: 4c14 08bd 8f44 d23e 8815 93bd 6cd1 0e3e
00000050: 33f7 873c daa5 e23d 61a7 4cbd 1c78 6b3d
00000060: e95c 1ebe 92c5 c3bb 83c1 a7bd ff42 9c3e
00000070: 03e4 e9bd 9506 9cbd c127 89bd 6c4f e0bc
00000080: 1bab dbbd b043 1f3e ab2a 2e3e aef0 9c3d
00000090: 6a0d 30be 53e6 0bbd 3d2a 0abe e40f 8b3d
000000a0: 4557 2ebe df71 293e ce62 663d d49d 363e
000000b0: 144a c7be ff86 7a3e 21f8 29be 534a 193d
000000c0: 9a56 c83d db12 27bd a086 41be 0eaf 6e3e
000000d0: ed64 e4be 8b36 533e b7ef 583e bd2e 6e3c
000000e0: ba4a 2ebe ece1 f8bd f378 56be 5ec8 c3be
000000f0: 088b 63bd c4b6 6fbe 1eaa 21bc 13bc 8abc

fc2.weight f4 [64, 64]
-0.21143715 -0.1578981 -0.16006774 -0.30417404 0.084268026 0.0047553442 0.09097953 0.07969599
-0.09683466 -0.055346925 0.15958324 -0.15896034 -0.02226831 0.022137925 0.09403779 0.08699214
-0.23980479 0.084666476 0.085022226 -0.07917624 0.021239744 -0.08567899 -0.008061036 -0.22112183
0.11459091 0.22879095 0.017480314 0.011022787 -0.1764696 0.18111314 -0.05605395 0.005905163
0.094450675 0.12739673 0.15634106 0.23732314 0.15727222 0.119765215 0.116195574 0.008841779
0.024457606 -0.17722273 -0.023471141 0.12857021 -0.0007560233 -0.067683436 -0.019989569 0.019259846
0.11891497 0.045008678 0.26449433 0.08254063 0.0743055 -0.11755252 0.09250702 -0.08248821
-0.1391778 -0.13630159 0.020155393 -0.04619037 -0.012622067 0.027088145 0.18437374 0.16902429
0.052231576 -0.028575981 0.12537085 -0.28912908 -0.11220634 0.11732749 0.08862383 0.1285526
-0.09645965 -0.2961693 -0.097861916 -0.07944981 -0.08871315 -0.20474887 0.27670324 0.15205269
-0.025939438 0.05700745 0.319751 -0.15133813 -0.25307816 0.06500972 -0.020080686 -0.1663374
0.09171483 -0.10303153 0.0054369713 -0.09904093 -0.10860664 0.015067321 0.086663835 0.15006979
-0.06360732 -0.005313965 0.19055194 0.08753182 -0.03385042 -0.029724471 0.18441562 0.070463195
0.031719748 -0.019616539 0.029543227 0.0045631872 0.11872376 0.22642666 -0.1282663 -0.11193851
0.094863564 -0.18726666 0.20371957 0.25343463 -0.052380215 -0.1192894 0.05846985 -0.027846327
0.034349483 0.0075611295 -0.13648558 -0.0032562192 -0.050092548 -0.10334025 0.08057416 -0.066205375
0.013216089 0.021888357 0.09493665 0.15864402 0.13944238 -0.03950757 -0.037275717 -0.026973827
-0.05558982 0.03722733 0.13049327 0.019341769 0.049570132 0.1570158 -0.13468628 0.13725108
-0.11444719 -0.12003378 0.0959249 0.047538117 0.01936819 0.03835941 0.11293272 0.048967134
0.051631376 0.05627068 -0.043431196 0.081978686 -0.13019425 0.050097886 -0.09012445 -0.13071556
0.079698406 0.020704256 -0.13713358 -0.1424697 0.05879229 0.038961302 -0.11500092 -0.120102584
-0.23782097 -0.041612852 -0.011231332 0.091774195 0.039627455 -0.015316316 -0.083305016 -0.14477862
-0.09272425 0.06879839 -0.06956731 -0.10017747 -0.1891612 0.20020908 -0.17607751 0.09318489
-0.01042594 0.076326445 -0.03208436 -0.0031104975 -0.10768466 -0.022242824 -0.19166723 0.035847068
-0.19904447 -0.018880295 -0.0027392467 -0.08989058 0.16708525 0.13950723 -0.15366536 -0.14417747
-0.22777216 -0.022364736 0.10756861 -0.062040027 -0.3221087 0.100895405 -0.24365102 0.049979325
0.03998663 -0.09343717 -0.09290522 0.38442665 0.13549255 0.018154543 0.17688625 0.07436125
0.28653258 -0.0636938 -0.12973991 0.07901585 -0.19609886 0.07514055 0.37775517 0.24515656
0.063179545 0.052809887 -0.052405678 -0.17577264 -0.0045840796 -0.013329525 -0.09010561 0.13652623
-0.034674402 -0.16750805 -0.08625937 -0.19207993 0.35905522 0.030958759 -0.17416504 0.012660149
-0.22892931 0.17210974 -0.06750707 -0.022184154 -0.1309525 -0.16045874 -0.046463978 0.06792704
0.08111587 0.009756873 0.19872022 0.0746355 -0.2048716 -0.17126589 0.033588976 -0.041827597
00000000: fb82 58be 0ab0 21be cce8 23be b3bc 9bbe
00000010: b794 ac3d b8d2 9b3b 7a53 ba3d a737 a33d
00000020: 4051 c6bd 75b3 62bd ca69 233e 80c6 22be
00000030: 086c b6bc 985a b53c e396 c03d ef28 b23d
00000040: 638f 75be 9e65 ad3d 2220 ae3d 2727 a2bd
00000050: f9fe ad3c 7778 afbd 6f12 04bc c36d 62be
00000060: a4ae ea3d 2d48 6a3e e032 8f3c eb98 343c
00000070: 72b4 34be b975 393e d498 65bd 1980 c13b
00000080: 5b6f c13d 4a74 023e df17 203e d604 733e
00000090: f80b 213e 7747 f53d f2f7 ed3d 1cdd 103c
000000a0: 515b c83c e079 35be 8d46 c0bc e9a7 033e
000000b0: dd2f 46ba 9d9d 8abd 2ac1 a3bc d3c6 9d3c
000000c0: b189 f33d 055b 383d cd6b 873e 100b a93d
000000d0: 7b2d 983d 60bf f0bd 5274 bd3d 94ef a8bd
000000e0: a084 0ebe a592 0bbe ec1c a53c 1d32 3dbd
000000f0: c9cc 4ebc f5e7 dd3c 78cc 3c3e b414 2d3e
00000100: c7f0 553d 2d18 eabc 3761 003e ba08 94be
00000110: 70cc e5bd 6549 f03d 6980 b53d 4ba3 033e
00000120: a38c c5bd 81a3 97be d46b c8bd 95b6 a2bd
00000130: 3daf b5bd b0a9 51be 0cac 8d3e b3b3 1b3e
00000140: f27e d4bc a580 693d 67b6 a33e 62f8 1abe
00000150: 7693 81be d123 853d 4080 a4bc 5a54 2abe
00000160: fcd4 bb3d 3202 d3bd 9f28 b23b f9d5 cabd
00000170: 286d debd eddc 763c cf7c b13d e5ab 193e
00000180: 8e44 82bd c520 aebb 0c20 433e e243 b33d
00000190: bda6 0abd bc80 f3bc 73d7 3c3e 024f 903d
000001a0: 91ec 013d ddb2 a0bc a304 f23c ca86 953b
000001b0: 7125 f33d 64dc 673e 3e58 03be 0440 e5bd
000001c0: d447 c23d d5c2 3fbe dd9b 503e 2fc2 813e
000001d0: a38c 56bd 004e f4bd 157e 6f3d fb1d e4bc
000001e0: 0bb2 0c3d 5ac3 f73b e0c2 0bbe 4b66 55bb
000001f0: d82d 4dbd 0ea4 d3bd 1104 a53d af96 87bd
00000200: 4c88 583c 364f b33c 256e c23d 9473 223e
00000210: fcc9 0e3e b1d2 21bd 6cae 18bd 37f8 dcbc
00000220: 27b2 63bd af7b 183d 07a0 053e a172 9e3c
00000230: 0d0a 4b3d c0c8 203e 33eb 09be 8c8b 0c3e
00000240: 4a63 eabd 45d4 f5bd 4674 c43d 54b7 423d
00000250: 0aaa 9e3c c21e 1d3d 4549 e73d c391 483d
00000260: 6c7b 533d 167c 663d e9e4 31bd 71e4 a73d
00000270: a451 05be 7133 4d3d 2b93 b8bd 4dda 05be
00000280: eb38 a33d f99b a93c bf6c 0cbe 94e3 11be
00000290: 2fd0 703d e395 1f3d 9a85 ebbd 58f8 f5bd
000002a0: 5787 73be 3d72 2abd 9f03 38bc 1cf4 bb3d
000002b0: 6650 223d 49f1 7abc d29b aabd d940 14be
000002c0: 36e6 bdbd 2ce6 8c3d 4e79 8ebd d829 cdbd
000002d0: 79b3 41be 9c03 4d3e aa4d 34be b8d7 be3d
000002e0: 90d1 2abc 0a51 9c3d e46a 03bd 7dd9 4bbb
000002f0: c689 dcbd 9536 b6bc 6a44 44be 60d4 123d
00000300: 50d2 4bbe d9aa 9abc ef84 33bb 8d18 b8bd
00000310: 6518 2b3e fcda 0e3e 745a 1dbe 42a3 13be
00000320: 1b3d 69be 4036 b7bc ee4c dc3d af1d 7ebd
00000330: 6eeb a4be 40a2 ce3d a77f 79be 1fb7 4c3d
00000340: 05c9 233d fd5b bfbd 1845 bebd 92d3 c43e
00000350: 8fbe 0a3e d6b8 943c ab21 353e b64a 983d
00000360: 66b4 923e e571 82bd 8ada 04be 10d3 a13d
00000370: 24ce 48be 4ae3 993d 2069 c13e 520a 7b3e
00000380: 4764 813d 2e4f 583d 56a7 56bd befd 33be
00000390: 0c36 96bb 1464 5abc 4a89 b8bd 88cd 0b3e
000003a0: bf06 0ebd 3b87 2bbe c1a8 b0bd 9ab0 44be
000003b0: 16d6 b73e 399d fd3c 5258 32be 836c 4f3c
000003c0: 726c 6abe 893d 303e 2641 8abd 8bbb b5bc
000003d0: 6a18 06be 4c4f 24be 0351 3ebd 551d 8b3d
000003e0: 1420 a63d 4bdb 1f3c 507d 4b3e 7fda 983d
000003f0: dcc9 51be 5360 2fbe 9894 093d 6a53 2bbd

fc2.bias f4 [64]
0.049163766 0.2531383 -0.2469828 -0.16511136 0.12807438 -0.12858142 0.14372729 0.0663225
-0.15577659 -0.07706037 0.050349515 0.02895737 0.12559377 -0.15051351 0.08703547 0.048770234
0.23200947 -0.14649682 -0.19286984 -0.15885204 -0.22496241 0.23009555 -0.028484447 0.17620076
-0.03033286 0.30594027 -0.0012959471 -0.0614892 0.09333968 -0.031773653 -0.1056131 -0.014613745
-0.17555709 -0.053057335 -0.08981757 -0.10822341 0.08681139 -0.049114604 0.28940025 0.1596465
-0.19769655 0.08745178 0.11813633 0.09920992 0.038104516 0.035837732 -0.044720024 -0.10021974
-0.12512752 -0.008171425 -0.08905451 0.010510527 0.04569027 -0.057676822 0.11071467 -0.10489818
0.18711784 -0.09149822 0.21753156 0.33151245 0.030642454 0.092443794 0.1884327 -0.022221155
00000000: f25f 493d 589b 813e 0fe9 7cbe f412 29be
00000010: ee25 033e d9aa 03be 3f2d 133e 17d4 873d
00000020: e683 1fbe d4d1 9dbd 4b3b 4e3d 0238 ed3c
00000030: a79b 003e 3720 1abe a73f b23d 4cc3 473d
00000040: e493 6d3e 4303 16be ac7f 45be 1caa 22be
00000050: 8c5c 66be 2b9e 6b3e 3758 e9bc f96d 343e
00000060: 9e7c f8bc 34a4 9c3e c5dc a9ba 19dc 7bbd
00000070: e028 bf3d 1725 02bd ae4b d8bd 7d6e 6fbc
00000080: 3dc5 33be a652 59bd 46f2 b7bd 3ca4 ddbd
00000090: 2cca b13d 652c 49bd 452c 943e 5f7a 233e
000000a0: f770 4abe eb19 b33d 76f1 f13d 922e cb3d
000000b0: 7b13 1c3d 96ca 123d 582c 37bd 0240 cdbd
000000c0: 6e21 00be 71e1 05bc 3662 b6bd 5834 2c3c
000000d0: b825 3b3d 883e 6cbd 5fbe e23d dbd4 d6bd
000000e0: d29b 3f3e 6b63 bbbd 98c0 5e3e 00bc a93e
000000f0: e205 fb3c 2c53 bd3d 80f4 403e 2409 b6bc

mean_out.weight f4 [6, 64]
0.015681203 0.11573396 0.014588958 -0.094155364 0.0038316518 -0.06011273 -0.050384194 0.046293713
0.024756178 0.07528084 -0.103796214 -0.092200935 -0.07350172 0.06588597 0.21760614 -0.053835344
-0.03333983 0.05608064 0.10503898 0.04748408 -0.024448963 0.13685185 -0.0075023724 0.006356986
-0.05186552 0.024457315 -0.03979459 -0.029764589 -0.07295254 0.021517906 0.043979794 -0.050549403
0.07582668 0.10277067 0.021159317 0.0223697 -0.15548046 -0.0032852588 0.007069106 0.04626789
-0.09077653 -0.032653198 -0.063093066 0.08376533 -0.0087382905 -0.00028341927 -0.026694024 -0.14600796
-0.069385365 0.10793824 0.04262014 0.025065444 -0.048030697 -0.010170632 -0.02491171 0.006237458
-0.030424813 0.030698054 -0.017834228 -0.018825732 0.02004002 0.04309818 0.0025962924 -0.07669095
0.09151277 0.12068613 -0.01129973 -0.016800983 0.002025244 -0.052951112 -0.052448083 0.037313547
0.038320642 0.033554763 0.04374863 0.08972491 0.06022328 0.015361124 -0.11706909 -0.0018063216
0.12316412 0.004593563 0.026120614 0.021085894 -0.08600329 -0.03522066 -0.00978758 0.010387423
-0.012588395 0.1556737 -0.040358316 -0.100359105 -0.10172968 0.009681205 -0.026629118 0.012623283
-0.009697109 0.023560341 0.07733345 -0.024671564 0.079161815 -0.0021913857 0.023731029 0.14269455
0.079634495 -0.17026699 -0.016995115 0.05670822 -0.047934245 0.08208931 -0.012696676 -0.040504325
-0.039564002 -0.01703224 0.013265952 0.121631406 -0.033524156 0.004892567 -0.013414387 0.026064767
-0.04842632 -0.02742114 0.0628884 0.26305482 0.08351495 -0.005702602 0.020354463 -0.024688873
-0.012282228 0.05051928 -0.0045531048 0.0331796 0.00350271 0.054013204 0.10974406 0.019930374
-0.07196518 0.10575587 0.03212989 0.061036825 -0.020168688 -0.11693972 0.09411058 -0.010064072
0.18298352 -0.026456593 0.028885182 -0.118999414 0.08877011 0.13231805 -0.014681691 0.07376672
0.015161556 -0.14658813 0.073708825 0.0055241864 0.07714946 -0.0075314906 -0.0046671364 0.010332526
0.03765407 -0.05521833 -0.07594919 -0.02060199 -0.05213469 0.03856563 0.058284067 0.020812558
-0.0020028574 -0.16640912 -0.004515165 -0.00076258875 0.06457364 0.017698035 0.00067383423 -0.04375136
-0.026484543 0.1897476 -0.014745929 0.039012466 0.1407769 -0.041489996 -0.020548427 0.057593726
-0.16522081 0.015127722 0.014441814 0.08087881 -0.1589422 0.1412484 0.10158233 0.091395415
0.05867887 0.090733945 -0.005875275 -0.16448826 -0.017624317 -0.031577043 -0.078024305 -0.015933277
-0.105143666 0.055289898 0.014585165 0.010158291 -0.013653611 -0.071327776 -0.13613607 0.058935475
0.15266563 -0.017268393 -0.06882256 0.011589818 -0.13100338 0.027447209 0.006459616 0.18162689
0.022921488 0.14284712 0.0448472 -0.07712564 0.010555605 0.0021147483 -0.020436993 0.0020879577
-0.07757201 0.0023967605 0.0022209804 -0.02950996 -0.02100487 0.054636646 0.10301138 -0.04972073
-0.12261965 0.0017879219 0.0125106545 -0.03182906 0.009310619 -0.0066573466 -0.0046136184 -0.057185695
0.021997401 -0.0930665 0.051450245 0.08641081 -0.112628095 -0.009240566 0.0045807376 -0.032619484
0.102357656 0.051753506 0.19996579 0.27429113 0.11822931 0.15548055 0.100912 -0.0022692925
00000000: de75 803c ed05 ed3d 8606 6f3c 87d4 c0bd
00000010: 731c 7b3b c438 76bd a85f 4ebd 7a9e 3d3d
00000020: 78cd ca3c d72c 9a3d 1c93 d4bd d8d3 bcbd
00000030: 1288 96bd 39ef 863d 25d4 5e3e 7382 5cbd
00000040: 588f 08bd d0b4 653d ad1e d73d ab7e 423d
00000050: 3149 c8bc e422 0c3e 76d6 f5bb 434e d03b
00000060: f170 54bd b55a c83c a7ff 22bd ded4 f3bc
00000070: 2468 95bd 5246 b03c 2824 343d e40c 4fbd
00000080: 054b 9b3d 6e79 d23d 4e56 ad3c a940 b73c
00000090: 4536 1fbe 7f4d 57bb f6a3 e73b 6683 3d3d
000000a0: 0ce9 b9bd 5cbf 05bd f036 81bd 288d ab3d
000000b0: 0c2b 0fbc e497 94b9 6dad dabc 1c83 15be
000000c0: ea19 8ebd b90e dd3d 7592 2e3d 0c56 cd3c
000000d0: d6bb 44bd b9a2 26bc a413 ccbc 9763 cc3b
000000e0: 753d f9bc 7c7a fb3c 1619 92bc 6c38 9abc
000000f0: f82a a43c b887 303d 8f26 2a3b 2510 9dbd
00000100: 0c6b bb3d 4a2a f73d 8122 39bc 37a2 89bc
00000110: f5b9 043b 44e3 58bd cdd3 56bd 17d6 183d
00000120: 1bf6 1c3d b870 093d c331 333d b2c1 b73d
00000130: b0ac 763d 39ad 7b3c ebc1 efbd 18c2 ecba
00000140: 783d fc3d 9985 963b e6fa d53c 53bc ac3c
00000150: 7e22 b0bd 8a43 10bd 165c 20bc 0330 2a3c
00000160: 8e3f 4ebc ed68 1f3e c34e 25bd 1389 cdbd
00000170: a757 d0bd eb9d 1e3c 4f25 dabc e3d1 4e3c
00000180: a0e0 1ebc 9e01 c13c 0061 9e3d 051c cabc
00000190: 971f a23d 5a9d 0fbb 9367 c23c 851e 123e
000001a0: 6917 a33d 785a 2ebe 5739 8bbc e146 683d
000001b0: b356 44bd 711e a83d b805 50bc dde7 25bd
000001c0: dd0d 22bd 3287 8bbc 6f59 593c e319 f93d
000001d0: a050 09bd d451 a03b 04c8 5bbc c785 d53c
000001e0: ad5a 46bd 4ca2 e0bc a2cb 803d 1faf 863e
000001f0: e309 ab3d e5dc babb 67be a63c 5240 cabc
00000200: 663b 49bc 4eed 4e3d 3632 95bb 55e7 073d
00000210: b98d 653b f33c 5d3d 7ec1 e03d 0645 a33c
00000220: 7b62 93bd 8996 d83d a29a 033d c001 7a3d
00000230: ce38 a5bc 187e efbd 0cbd c03d c7e3 24bc
00000240: 0860 3b3e 7fbb d8bc 9ea0 ec3c f7b5 f3bd
00000250: 1acd b53d 627e 073e 7a8b 70bc 0213 973d
00000260: 2d68 783c 331b 16be a7f4 963d 3c04 b53b
00000270: 8900 9e3d b9ca f6bb c7ee 98bb c149 293c
00000280: 273b 1a3d 9e2c 62bd 408b 9bbd 81c5 a8bc
00000290: 2f8b 55bd fef6 1d3d 46bb 6e3d 197f aa3c
000002a0: 5f42 03bb 2767 2abe f3f3 93bb 77e8 47ba
000002b0: 2f3f 843d 78fb 903c 40a4 303a a034 33bd
000002c0: 1df6 d8bc 324d 423e e998 71bc 89cb 1f3d
000002d0: d227 103e 6af1 29bd 2d55 a8bc 66e7 6b3d
000002e0: a52f 29be 44da 773c 5c9d 6c3c caa3 a53d
000002f0: bec1 22be 6ca3 103e 660a d03d 852d bb3d
00000300: 4159 703d b8d2 b93d 6185 c0bb 9c6f 28be
00000310: df60 90bc ee56 01bd 35cb 9fbd 8186 82bc
00000320: 9055 d7bd a977 623d 9ef6 6e3c f66e 263c
00000330: 65b3 5fbc 4c14 92bd 4167 0bbe 5366 713d
00000340: 6154 1c3e 7276 8dbc d8f2 8cbd 38e3 3d3c
00000350: c025 06be f8d8 e03c 30ab d33b 66fc 393e
00000360: d8c5 bb3c 8446 123e b3b1 373d 0cf4 9dbd
00000370: 6bf1 2c3c 9797 0a3b 7b6b a7bc 1ed6 083b
00000380: 13de 9ebd f812 1d3b de8d 113b dfbe f1bc
00000390: 6812 acbc adca 5f3d a1f7 d23d f7a7 4bbd
000003a0: 0320 fbbd b458 ea3a 7df9 4c3c 305f 02bd
000003b0: 918b 183c df25 dabb d62d 97bb 8c3b 6abd
000003c0: e533 b43c a699 bebd 7ebd 523d 27f8 b03d
000003d0: 8fa9 e6bd be65 17bc 031a 963b 029c 05bd
000003e0: e4a0 d13d 7cfb 533d d5c3 4c3e e36f 8c3e
000003f0: 3522 f23d 4b36 1f3e f3aa ce3d 69b8 14bb

mean_out.bias f4 [6]
0.11656479 0.00870297 0.037065584 0.11347644 0.15260851 -0.020345442
00000000: 85b9 ee3d e796 0e3c 15d2 173d 5666 e83d
00000010: 6845 1c3e 7cab a6bc
